src/track_test/config/trackVer13_policyVer2.tflite (tflite, 403500 bytes, 6 tensors)

arith.constant f4 [128]
0.10497094 -0.10883078 0.01990273 -0.0053270804 0.061998833 0.050970282 -0.058311354 -0.03014334
-0.027381942 -0.041937698 0.04347304 -0.058895167 -0.0043331836 0.0059017967 0.07422543 -0.03127051
-0.04134924 -0.016821677 -0.03420026 0.0072280243 0.046300717 -0.019957103 0.050680086 -0.07351226
-0.029921962 0.053161636 -0.021896714 -0.034114756 0.089265786 0.10711602 0.07946832 -0.021236742
-0.02616922 -0.03480315 0.019263512 0.016550384 -0.028399605 0.028246356 0.13145737 -0.07372975
0.042747412 -0.03503816 0.017039413 -0.041799568 -0.030021677 -0.03259103 0.011415755 -0.011715034
0.030441104 -0.030808542 -0.016424483 0.048421424 0.03991243 0.054643374 -0.05355815 -0.006352282
-0.0068339515 -0.034817625 -0.07981829 -0.029651323 0.064873055 -0.013245596 -0.003689706 0.14179145
-0.017913919 0.11850727 0.041954752 0.017158119 0.027158253 -0.0072438805 0.03252553 -0.021200966
0.030337697 0.053010114 0.080595054 0.07104604 -0.030025648 0.043683905 -0.016757688 -0.045524936
-0.034454066 -0.010156858 0.028531618 0.032153096 0.0013594724 -0.0037931278 -0.033018857 0.051373024
-0.029091693 0.0001574805 0.09982271 -0.036120363 -0.03002637 0.021686077 -0.023810001 0.040004626
0.00709579 0.04682895 0.08606302 -0.017448409 -0.048671898 -0.036415458 -0.029549139 0.25180736
-0.03179892 -0.031253178 0.059287988 0.016209088 -0.027733365 -0.037860576 0.02915291 0.017085947
0.0389317 0.07690878 -0.09044507 -0.059366338 -0.030023983 -0.000978812 0.03668035 -0.034496058
-0.044913605 -0.031092329 -0.05529229 0.07046669 -0.004924353 -0.025044337 -0.030024955 -0.017644601
00000000: 01fb d63d ace2 debd 0d0b a33c ca8e aebb
00000010: 7df2 7d3d 37c6 503d e3d7 6ebd 2aef f6bc
00000020: 1850 e0bc ddc6 2bbd c910 323d 0f3c 71bd
00000030: 61fd 8dbb dc63 c13b 8103 983d 8215 00bd
00000040: d25d 29bd 9dcd 89bc 9215 0cbd 10d9 ec3b
00000050: d2a5 3d3d 147d a3bc ec95 4f3d 998d 96bd
00000060: e71e f5bc 04c0 593d bd60 b3bc eabb 0bbd
00000070: fbd0 b63d a55f db3d 49c0 a23d adf8 adbc
00000080: d560 d6bc bf8d 0ebd 83ce 9d3c ac94 873c
00000090: 4aa6 e8bc e764 e73c c39c 063e a0ff 96bd
000000a0: e917 2f3d 2c84 0fbd 3d96 8b3c 0636 2bbd
000000b0: 05f0 f5bc 2c7e 05bd 2609 3b3c 6af0 3fbc
000000c0: 9f5f f93c 3262 fcbc a38c 86bc 8b55 463d
000000d0: 377b 233d bbd1 5f3d ca5f 5bbd ce26 d0bb
000000e0: 57ef dfbb ed9c 0ebd c677 a3bd 55e7 f2bc
000000f0: 2adc 843d 0e04 59bc ffce 71bb c731 113e
00000100: 36c0 92bc f1b3 f23d bfd8 2b3d 2f8f 8c3c
00000110: fc7a de3c 135e edbb 7d39 053d a6ad adbc
00000120: c386 f83c 2221 593d 050f a53d 9680 913d
00000130: 59f8 f5bc e5ed 323d 6b47 89bc 5b78 3abd
00000140: b51f 0dbd f368 26bc 24bb e93c f7b2 033d
00000150: 5330 b23a 2096 78bb c83e 07bd 856c 523d
00000160: b451 eebc 5a21 2539 d96f cc3d f2f2 13bd
00000170: ddf9 f5bc 00a7 b13c 310d c3bc e4db 233d
00000180: cd83 e83b b7cf 3f3d cf41 b03d f7ef 8ebc
00000190: 2f5c 47bd 6028 15bd 0911 f2bc e5ec 803e
000001a0: 963f 02bd 5503 00bd f6d7 723d ecc8 843c
000001b0: 1531 e3bc b113 1bbd 15d2 ee3c d4f7 8b3c
000001c0: d976 1f3d 5a82 9d3d 443b b9bd 1e2a 73bd
000001d0: dbf4 f5bc 7b4b 80ba 223e 163d bd4b 0dbd
000001e0: 54f7 37bd 57b5 febc 2b7a 62bd d750 903d
000001f0: 785c a1bb c829 cdbc e5f6 f5bc 698b 90bc

arith.constant1 f4 [4]
0.0404081 0.028170703 0.048553195 0.0033327264
00000000: f782 253d 3fc6 e63c b7df 463d df69 5a3b

arith.constant2 f4 [4, 128]
0.32622156 -0.44534448 0.24470198 0.09084229 0.16390853 0.90481323 -0.061483208 -0.101487964
-0.19394936 -0.26381746 -0.032436434 0.054667924 0.047881216 0.15573066 -0.20166409 0.08424712
-0.03208532 -0.06979249 0.07815777 -0.071651995 0.09574588 -0.19602206 0.19646737 0.058962505
0.0290592 0.09414147 -0.061440825 -0.008818239 0.8475226 0.36962733 0.37205938 -0.028929356
-0.026264556 -0.22847193 0.04886027 -0.27098882 0.04567572 -0.2150877 0.43917024 -0.0045141266
-0.22067943 -0.23290382 -0.19873688 0.2501149 -0.01667196 -0.07193681 0.0135564385 0.25191253
-0.17865394 0.015239969 0.0018288785 0.0032883198 -0.15696017 -0.11593143 -0.2456724 -0.24239545
-0.04789766 -0.050949126 0.0014582427 -0.010614296 -0.076541364 0.027340591 -0.100451 0.023608642
0.036705423 -0.2420754 0.007255868 0.06403361 -0.07489501 -0.3408254 -0.0073085595 0.008462187
0.205287 0.0840777 0.05306856 -0.05261913 0.02968539 -0.22065127 0.09560729 -0.064216144
-0.31726855 -0.0866638 -0.27134904 -0.06780396 0.120467834 0.032228403 0.21755055 0.04939727
-0.03133225 -0.0054391283 -0.6667717 -0.20373565 -0.002297461 -0.06462763 0.048503693 0.3267437
0.026975736 -0.21548392 0.45736924 -0.1756264 0.0272894 -0.00094835873 -0.14961435 -0.4617156
-0.019402988 -0.04346281 -0.048975147 -0.06869758 -0.2313252 0.02051316 -0.15184633 -0.24567352
0.20353802 0.023954518 0.11583444 -0.19088237 0.037161257 -0.34887767 0.29282254 -0.018998967
-0.6132168 0.014595762 -0.17344993 -0.02313176 -0.15352927 0.1218739 0.033982314 0.052924253
0.0059665637 0.15942721 -0.2356992 -0.15747379 0.06472603 0.047121238 -0.0380804 0.048839137
0.12353825 -0.18017423 -0.1491581 -0.0040157815 -0.015857682 0.0139056295 -0.71246684 0.05259189
-0.0616785 0.12184235 -0.0021080927 0.05791936 0.0035631475 -0.013546663 -0.16402563 -0.03471346
-0.007071358 0.14901954 0.023769401 0.08251215 0.026482837 -0.05071513 0.046256687 0.06820488
0.27811077 -0.027200222 -0.05497302 -0.119196765 0.07362293 0.02774091 -0.2896723 -0.028149923
0.6118767 -0.1640942 -0.21526507 -0.051670745 -0.013516264 -0.15565643 -0.18843858 0.050017066
-0.07526385 -0.0030689558 0.071771935 -0.07995977 0.30143347 -0.15591994 -0.20135584 0.03611743
-0.47644767 -0.037641797 -0.20100917 -0.029134989 0.020659627 0.17733368 0.14196856 -0.2189537
0.0067637614 0.46034235 0.041000728 0.28473288 -0.011009575 0.09258853 -0.06114197 0.120579876
-0.08973372 0.10890839 0.12813427 0.074253604 0.0204384 0.22407216 -0.15868407 -0.03140627
-0.28980157 0.26458892 0.25608316 -0.22024539 0.035578407 0.10572455 -0.32297248 -0.09912933
0.3303979 0.39101166 -0.8822679 0.07046642 0.0037526754 0.17866802 -0.0037795515 0.014827933
-0.069190115 -0.29833126 0.0032090417 0.228413 -0.51801294 0.037512906 -0.23375429 -0.06449709
-0.009104943 0.02179058 0.14453164 0.07849769 -0.18053284 -0.07203425 0.06310106 0.11370612
0.12818573 0.4612712 -0.41700825 1.0549381 -0.016734364 0.15907711 -0.06070887 0.029801475
-0.3898623 0.08173123 -0.26638308 0.28453156 -0.042600214 -0.23190926 0.011645769 0.05348873
00000000: 8306 a73e 3104 e4be 2893 7a3e 860b ba3d
00000010: a3d7 273e d7a1 673f d1d5 7bbd ecd8 cfbd
00000020: a99a 46be 1513 87be 11dc 04bd 79eb 5f3d
00000030: 181f 443d dc77 1f3e 0881 4ebe c189 ac3d
00000040: e66b 03bd 5def 8ebd 2e11 a03d 48be 92bd
00000050: 6a16 c43d 02ba 48be be2e 493e ab82 713d
00000060: 8f0d ee3c 3ecd c03d 60a9 7bbd 607a 10bc
00000070: 3ef7 583f cb3f bd3e 917e be3e 42fd ecbc
00000080: c428 d7bc 8cf4 69be b521 483d 0cbf 8abe
00000090: 7716 3b3d f33f 5cbe ecda e03e 3deb 93bb
000000a0: caf9 61be 577e 6ebe ae81 4bbe 0f0f 803e
000000b0: a293 88bc 9b53 93bd d31b 5e3c aefa 803e
000000c0: 0ff1 36be 10b1 793c fbb6 ef3a da80 573b
000000d0: 2bba 20be 756d edbd 8c91 7bbe 8336 78be
000000e0: 5630 44bd 08b0 50bd 8122 bf3a 96e7 2dbc
000000f0: b8c1 9cbd 60f9 df3c 41b9 cdbd e966 c13c
00000100: 6d58 163d 9de2 77be a2c2 ed3b 0e24 833d
00000110: 8e62 99bd ab80 aebe a47c efbb fca4 0a3c
00000120: c136 523e ee30 ac3d 6b5e 593d 2887 57bd
00000130: c62e f33c 68f2 61be c1cd c33d c183 83bd
00000140: 0671 a2be ca7c b1bd 43ee 8abe cddc 8abd
00000150: d7b7 f63d ee01 043d 92c5 5e3e cb54 4a3d
00000160: 3f56 00bd b73a b2bb 8db1 2abf 14a0 50be
00000170: 0091 16bb 7e5b 84bd cfab 463d f34a a73e
00000180: 38fc dc3c d1a7 5cbe 4d2c ea3e 68d7 33be
00000190: 058e df3c 479b 78ba 8134 19be fd65 ecbe
000001a0: 04f3 9ebc 0f06 32bd 2a9a 48bd 51b1 8cbd
000001b0: 83e0 6cbe 370b a83c 9b7d 1bbe d791 7bbe
000001c0: 456c 503e 443c c43c 9b3a ed3d ab76 43be
000001d0: 6736 183d 18a0 b2be d6ec 953e b9a3 9bbc
000001e0: c7fb 1cbf 1023 6f3c dc9c 31be d17e bdbc
000001f0: c736 1dbe 0699 f93d 0a31 0b3d 1ac7 583d
00000200: 2a83 c33b e340 233e 225b 71be cf40 21be
00000210: 158f 843d 3302 413d 32fa 1bbd 8c0b 483d
00000220: 9f01 fd3d 987f 38be e7bc 18be d196 83bb
00000230: f8e7 81bc 70d4 633c 3a64 36bf 986a 573d
00000240: 98a2 7cbd 7b88 f93d ed27 0abb da3c 6d3d
00000250: b283 693b d3f2 5dbc 56f6 27be b32f 0ebd
00000260: dab6 e7bb 9498 183e 0cb8 c23c 21fc a83d
00000270: 89f2 d83c abba 4fbd a777 3d3d 00af 8b3d
00000280: 8964 8e3e 00d3 debc 642b 61bd 6f1d f4bd
00000290: 9ec7 963d e840 e33c ed4f 94be ab9a e6bc
000002a0: f4a3 1c3f 4f08 28be 726e 5cbe b4a4 53bd
000002b0: 5273 5dbc 6664 1fbe 0bf6 40be b2de 4c3d
000002c0: ef23 9abd 8920 49bb 2afd 923d f3c1 a3bd
000002d0: 7d55 9a3e 7aa9 1fbe 3a30 4ebe dfef 133d
000002e0: f3f0 f3be 492e 1abd 59d5 4dbe 80ac eebc
000002f0: 613e a93c f696 353e 3560 113e 6635 60be
00000300: 8ba2 dd3b feb1 eb3e 61f0 273d 82c8 913e
00000310: 8161 34bc 0e9f bd3d 0170 7abd 95f2 f63d
00000320: 50c6 b7bd 5d0b df3d a135 033e 4612 983d
00000330: 6e6e a73c 2c73 653e 147e 22be dca3 00bd
00000340: df60 94be 3378 873e 551d 833e 0288 61be
00000350: aaba 113d 1d86 d83d a65c a5be 5104 cbbd
00000360: ea29 a93e ae32 c83e 4fdc 61bf b350 903d
00000370: 72ef 753b c0f4 363e 5ab2 77bb dcf0 723c
00000380: 8cb3 8dbd e0be 98be c94e 523b 19e5 693e
00000390: 7f9c 04bf 22a7 193d 495d 6fbe 0d17 84bd
000003a0: e62c 15bc 2982 b23c 1a00 143e 66c3 a03d
000003b0: 9add 38be b186 93bd 213b 813d c1de e83d
000003c0: 1f43 033e bd2b ec3e 1b82 d5be 3608 873f
000003d0: 8116 89bc 1ce5 223e dda9 78bd 3922 f43c
000003e0: 089c c7be b462 a73d 5d63 88be 1fae 913e
000003f0: 907d 2ebd 9f79 6dbe e5cd 3e3c 0017 5b3d

arith.constant3 f4 [128, 128]
0.03374228 -0.14745931 0.044418465 0.037181426 -0.10007273 0.0014242124 0.030647982 -0.031896133
0.06764681 0.027323272 -0.10511588 0.00021029894 0.023422848 -0.10107558 0.025819032 0.061474074
-0.038985588 -0.12940972 -0.066828184 0.06803561 -0.05153661 0.07386921 -0.022095362 -0.0045710905
0.13311452 0.07396341 0.029976103 0.04901418 -0.004874082 -0.0016720099 0.062365785 -0.07585743
0.11844937 0.09079635 -0.093611926 -0.09374004 0.02088836 0.06538808 0.010982329 0.08213822
-0.012361824 0.03975261 0.16631576 0.022896152 0.063735604 -0.0640656 0.01292891 -0.022598313
0.036960542 -0.07866298 -0.0074756006 -0.082459785 0.009743491 0.025469542 -0.15290672 0.03905509
-0.022044118 0.059277568 -0.023016222 0.08983974 -0.1105022 0.117016606 -0.035796855 -0.24371347
-0.020708373 0.021724906 0.053282853 0.041828897 0.005176454 0.06415593 0.15559404 0.07555229
-0.03415273 0.2035623 0.017335443 -0.16903685 -0.019981926 0.14404908 0.03415686 -0.05529714
-0.017782303 0.019302143 0.20997371 -0.21188787 0.12093209 -0.0779133 0.03407207 0.04592317
0.11205795 0.042234164 -0.0072807632 -0.01738297 0.038051046 0.039620675 0.0031029112 -0.06678155
-0.06600361 -0.04718404 -0.004501598 -0.05794499 -0.011711365 0.0057238746 -0.030619921 -0.007091645
-0.020085791 -0.031408053 -0.08165913 -0.0023244165 -0.0071118753 -0.029637277 0.09666591 -0.009399802
-0.11775307 0.060654666 -0.15040182 0.10566295 -0.1108194 0.000830922 -0.07080759 -0.11135987
0.06752561 0.042785354 0.011513144 0.15516174 0.08419285 0.16514604 0.013782265 -0.2100924
-0.017933263 0.16440551 -0.076934636 0.3324176 0.064640604 0.005668954 -0.045454487 -0.21677369
0.22230974 -0.041058216 -0.101884745 0.029825317 0.07836471 0.13920487 -0.034214493 -0.08571439
-0.115496576 0.12637603 -0.13445547 -0.19868356 0.112179264 0.12787314 0.029961603 -0.047152977
-0.1883297 0.05568567 -0.021489453 -0.088086665 0.09283912 0.010004635 0.038165096 0.08678558
-0.059891254 -0.09878344 0.22560367 0.005849197 0.0035272927 -0.023227155 -0.07093268 -0.111176156
-0.054784916 -0.034577638 0.22169438 0.076812506 -0.10938789 -0.012877878 0.04177584 0.15038708
-0.064713754 -0.15963393 0.2729427 0.028634623 -0.104001 0.028968785 0.19772947 -0.005969085
0.036603212 -0.031445768 0.004626475 0.008168369 0.00808357 0.029267125 -0.03661478 0.46139884
-0.016922288 0.055088073 -0.010389329 0.06149238 -0.04922039 0.05954957 -0.052397106 -0.12482858
-0.04049128 -0.172072 -0.019582365 -0.13970436 -0.19540341 -0.34234223 0.102186054 0.22935717
0.040651694 -0.079466194 -0.21856609 -0.037734423 0.30137512 0.053775042 0.250702 0.21564785
-0.0067861862 -0.2577931 0.04317102 -0.10063822 -0.17216733 -0.025599832 -0.026842989 0.4307841
0.035694014 0.0071739196 0.117796056 0.07161663 -0.28092313 -0.0054635187 0.006194651 0.08403466
0.021687137 0.41042298 0.07224072 0.01894776 0.05648696 -0.20997086 -0.41466758 0.075387515
0.1817947 -0.04900495 -0.28261447 -0.30011934 0.21780376 -0.4071719 0.3191231 0.14524302
-0.031937663 0.14401218 0.06435308 -0.26979107 -0.15898728 -0.32634908 0.37771785 -0.017479723
00000000: 5835 0a3d 93ff 16be 23f0 353d 8d4b 183d
00000010: eef2 ccbd a3ac ba3a 7a11 fb3c 85a5 02bd
00000020: 698a 8a3d 0ed5 df3c ff46 d7bd b183 5c39
00000030: 46e1 bf3c b700 cfbd 6f82 d33c 3dcc 7b3d
00000040: 5aaf 1fbd fb83 04be 37dd 88bd 4156 8b3d
00000050: 0d18 53bd be48 973d 5501 b5bc 16c9 95bb
00000060: 2c4f 083e 217a 973d 7290 f53c 18c3 483d
00000070: c3b6 9fbb 5827 dbba 4473 7f3d 245b 9bbd
00000080: 9595 f23d 70f3 b93d 9cb7 bfbd c7fa bfbd
00000090: 111e ab3c 30ea 853d 3aef 333c 1538 a83d
000000a0: 3f89 4abc a2d3 223d ae4e 2a3e b690 bb3c
000000b0: d087 823d d334 83bd c7d3 533c 1920 b9bc
000000c0: f063 173d 0e1a a1bd e2f5 f4bb ade0 a8bd
000000d0: 2aa3 1f3c 80a5 d03c 9493 1cbe 3bf8 1f3d
000000e0: de95 b4bc 09cd 723d 848c bcbc e6fd b73d
000000f0: fa4e e2bd 67a6 ef3d b99f 12bd 0690 79be
00000100: 9ba4 a9bc 6ef8 b13c 1f3f 5a3d c754 2b3d
00000110: 3e9f a93b 2f64 833d 0b54 1f3e 29bb 9a3d
00000120: bce3 0bbd a372 503e 0f03 8e3c ff17 2dbe
00000130: 23b1 a3bc 9a81 133e 10e8 0b3d 417f 62bd
00000140: 31ac 91bc 871f 9e3c 5903 573e 22f9 58be
00000150: 3eab f73d 0291 9fbd 288f 0b3d ef19 3c3d
00000160: a37e e53d bbfd 2c3d 7893 eebb bb66 8ebc
00000170: 6adb 1b3d 4a49 223d 365a 4b3b c4c4 88bd
00000180: e72c 87bd 0d44 41bd 2482 93bb ba57 6dbd
00000190: 06e1 3fbc 578f bb3b a1d6 fabc 0861 e8bb
000001a0: f58a a4bc bba5 00bd e73c a7bd 3d55 18bb
000001b0: bc0a e9bb e0c9 f2bc c7f8 c53d a101 1abc
000001c0: 8628 f1bd 0771 783d ef02 1abe d165 d83d
000001d0: 48f5 e2bd 3bd2 593a 9203 91bd a510 e4bd
000001e0: de4a 8a3d b23f 2f3d a0a1 3c3c b8e2 1e3e
000001f0: 4d6d ac3d 0b1c 293e 02cf 613c 7622 57be
00000200: c7e8 92bc eb59 283e e88f 9dbd a432 aa3e
00000210: 4b62 843d a2c2 b93b 7c2e 3abd ecf9 5dbe
00000220: 2aa5 633e a92c 28bd f3a8 d0bd 3954 f43c
00000230: ad7d a03d b98b 0e3e 7f24 0cbd 078b afbd
00000240: 7889 ecbd b868 013e b2ae 09be b473 4bbe
00000250: 3ebe e53d 2df1 023e 0972 f53c 7b23 41bd
00000260: 80d9 40be a816 643d a60a b0bc c866 b4bd
00000270: 7022 be3d 7bea 233c 0153 1c3d a3bc b13d
00000280: 8850 75bd f94e cabd a604 673e 9faa bf3b
00000290: 272a 673b e046 bebc 2745 91bd 53b0 e3bd
000002a0: 2666 60bd 48a1 0dbd da03 633e e04f 9d3d
000002b0: c206 e0bd bcfd 52bc 251d 2b3d 12ff 193e
000002c0: a588 84bd 1477 23be 25bf 8b3e 2893 ea3c
000002d0: 7afe d4bd f24f ed3c 9879 4a3e 5098 c3bb
000002e0: 40ed 153d 47cd 00bd af99 973b 9fd4 053c
000002f0: f370 043c 9cc1 ef3c 61f9 15bd 783c ec3e
00000300: 9ca0 8abc 08a4 613d 0138 2abc 6fdf 7b3d
00000310: 529b 49bd 40ea 733d 599e 56bd 20a6 ffbd
00000320: 2fda 25bd a433 30be 326b a0bc a90e 0fbe
00000330: d517 48be 7b47 afbe ec46 d13d 9bdc 6a3e
00000340: 6482 263d 2cbf a2bd cacf 5fbe 698f 1abd
00000350: d74d 9a3e 3843 5c3d 035c 803e cad2 5c3e
00000360: a85e debb 75fd 83be 18d4 303d 691b cebd
00000370: a24c 30be bdb6 d1bc d4e5 dbbc bc8f dc3e
00000380: e333 123d 3313 eb3b 0f3f f13d bdab 923d
00000390: 28d5 8fbe 5107 b3bb 80fc ca3b 5d1a ac3d
000003a0: 39a9 b13c f622 d23e f1f2 933d 5538 9b3c
000003b0: df5e 673d 9a02 57be 4f4f d4be c564 9a3d
000003c0: 6428 3a3e 6ab9 48bd d8b2 90be 3ea9 99be
000003d0: f307 5f3e d678 d0be 1a64 a33e 96ba 143e
000003e0: 11d1 02bd ee77 133e 8ccb 833d 0e22 8abe
000003f0: 90cd 22be 3a17 a7be 3c64 c13e a331 8fbc

sequential_1/dense_0_1/MatMul f4 [128, 650]
0.006375278 -0.024169954 -0.0024242287 0.027535101 -0.113597356 -0.08793735 -0.048893444 -0.015188415
-0.046584103 0.032741345 0.2527555 -0.31157175 0.046549052 -0.008449809 -0.01607533 0.008114349
0.05045973 -0.14671439 -0.0777164 -0.041641816 -0.00044593008 -0.027800173 0.023751156 0.27130556
-0.24416758 0.11443548 0.01855825 -0.01175184 -0.0054074037 0.005477567 -0.13588633 -0.07144176
-0.12983075 0.009515314 -0.023790484 0.039163895 0.2787453 -0.306839 0.05935121 -0.012397368
-0.017350245 0.0085991165 0.013108697 -0.109606795 -0.062790714 -0.034549106 -0.006782181 -0.023221686
0.01743977 0.28379864 -0.28743365 0.057450302 0.020937428 -0.01571568 -0.0020349503 0.02254302
-0.12300732 -0.079334766 -0.044696167 0.001853281 -0.017679699 0.023404093 0.23673335 -0.28713623
0.0062726936 -0.0029641273 -0.015540054 -0.0015130542 -0.014060527 -0.1477539 -0.03474227 -0.09290608
-0.0005598786 -0.024389267 0.02604688 0.2110297 -0.25244004 0.021988243 0.0024275028 -0.014808463
-0.0060185352 0.022335289 -0.16998087 0.015490139 -0.0486229 -0.009598337 -0.029773269 0.022939835
0.2811358 -0.30181473 0.024750402 -0.0048190667 -0.013784409 -0.0018614483 -0.007997967 -0.17425889
-0.038875278 -0.03848836 -0.0040547005 -0.015320931 0.01676318 0.28235316 -0.31159955 -0.0018592679
0.00754092 -0.021494769 -0.004376892 0.018387748 -0.15458257 -0.04725373 -0.07166905 -0.020853635
-0.032230724 0.017362153 0.2946857 -0.25884724 0.021721944 -0.010611462 -0.009744325 0.0012632528
0.01104895 -0.13133384 -0.05191047 -0.021417016 -0.021119244 -0.011417701 0.019448241 0.28914288
-0.2839302 0.019397156 0.007696143 -0.018145425 -0.0008775975 -0.003890606 -0.14275625 0.04866952
-0.03835033 -0.022000687 -0.008931644 0.018531581 0.2623712 -0.31492215 -0.022696814 -0.014020745
-0.017006716 0.0112547055 -0.010273817 -0.12827238 -0.00189432 -0.06528431 -0.04675199 -0.023020886
0.01076418 0.29069003 -0.32596987 -0.012210036 0.004198154 -0.017021919 -0.0020185004 -0.012588462
-0.15640785 0.012557191 -0.060776517 -0.02470259 -0.021651272 0.01909289 0.3017229 -0.3511587
-0.014064636 -0.016386595 -0.013442324 0.013517917 -0.02606311 -0.17378046 0.00916514 -0.033848993
-0.054122202 -0.014322183 0.015391101 0.26655978 -0.3338837 -0.00077315554 0.0009590286 -0.01368417
-0.0048391405 0.02447431 -0.16380379 0.018054329 -0.018405344 -0.032053348 -0.007121516 0.017220346
0.31083268 -0.3349906 -0.0030166823 -0.0041787075 -0.011987883 0.019663893 -0.016565068 -0.17372294
0.07451349 -0.040696718 -0.057678208 -0.008324635 0.02393659 0.30762684 -0.24717884 0.022678554
-0.014807479 -0.0053583286 0.0026897397 -0.00978817 -0.17881 0.049260948 -0.07225441 -0.052297417
0.0012928564 0.01637306 0.27402425 -0.318451 0.00930352 0.010001793 -0.009899689 0.016163701
0.0053274673 -0.17002307 0.07975263 -0.028996158 -0.04441244 0.00027162247 0.012012852 0.23995946
-0.3162541 0.032258444 -0.015716344 -0.005055333 0.0061343275 0.0013574078 -0.16254814 0.04478079
-0.015278982 -0.06087132 0.0194602 0.024870083 0.26520106 -0.23875514 -0.01766997 0.0068679675
-0.013742702 0.009567196 0.011011235 -0.1584769 0.10846482 -0.02773699 -0.055512372 0.012688698
00000000: b5e7 d03b 1100 c6bc cfdf 1ebb 4b91 e13c
00000010: bba5 e8bd 7f18 b4bd 7e44 48bd d4d8 78bc
00000020: f9ce 3ebd ca1b 063d 2b69 813e 5586 9fbe
00000030: 38aa 3e3d 1171 0abc 69b0 83bc 0cf2 043c
00000040: ddae 4e3d 4c3c 16be c729 9fbd 9c90 2abd
00000050: b9cb e9b9 30bd e3bc c991 c23c 90e8 8a3e
00000060: 1107 7abe 265d ea3d 7907 983c ca8a 40bc
00000070: 9730 b1bb 2a7d b33b c925 0bbe 0f50 92bd
00000080: 5af2 04be 1fe6 1b3c 43e4 c2bc 526a 203d
00000090: b4b7 8e3e 001a 9dbe 411a 733d 551e 4bbc
000000a0: 1a22 8ebc 4fe3 0c3c dcc5 563c 8779 e0bd
000000b0: 6b98 80bd 5d83 0dbd 0f3d debb 683b bebc
000000c0: d9dd 8e3c 0e4e 913e 812a 93be 0251 6b3d
000000d0: f884 ab3c 2bbe 80bc cd5c 05bb 24ac b83c
000000e0: 43eb fbbd 447a a2bd 5413 37bd cbe9 f23a
000000f0: 04d5 90bc f1b9 bf3c 3a6a 723e 8503 93be
00000100: 2b8b cd3b ce41 42bb b69b 7ebc ad51 c6ba
00000110: 205e 66bc cc4c 17be e94d 0ebd 8b45 bebd
00000120: d1c4 12ba 00cc c7bc 4460 d53c 2b18 583e
00000130: d23f 81be b020 b43c bd16 1f3b 329f 72bc
00000140: 2237 c5bb 7ff8 b63c 770f 2ebe 5aca 7d3c
00000150: ce28 47bd 5842 1dbc 12e7 f3bc 52ec bb3c
00000160: 08f1 8f3e 7687 9abe 5bc1 ca3c 43e9 9dbb
00000170: 00d8 61bc d7fb f3ba e809 03bc ec70 32be
00000180: af3b 1fbd f8a5 1dbd 4bdd 84bb a404 7bbc
00000190: f052 893c 9890 903e fa89 9fbe aeb2 f3ba
000001a0: d219 f73b cc15 b0bc 086c 8fbb e7a1 963c
000001b0: e54a 1ebe 218d 41bd 39c7 92bd 3ed5 aabc
000001c0: 5d04 04bd 133b 8e3c 0be1 963e a087 84be
000001d0: 38f2 b13c b3db 2dbc a9a6 1fbc bb93 a53a
000001e0: a806 353c 617c 06be 13a0 54bd bd72 afbc
000001f0: 4402 adbc 4f11 3bbc eb51 9f3c 890a 943e
00000200: 4d5f 91be c9e6 9e3c ed2f fc3b b7a5 94bc
00000210: 920e 66ba 8af9 7ebb b22e 12be b159 473d
00000220: 3c15 1dbd c93a b4bc 0856 12bc 8bcf 973c
00000230: 8555 863e 7a3d a1be abee b9bc 44b7 65bc
00000240: ab51 8bbc a865 383c 8353 28bc d659 03be
00000250: d54a f8ba c8b3 85bd 047f 3fbd 4c96 bcbc
00000260: 3e5c 303c 53d5 943e 86e5 a6be 9a0c 48bc
00000270: ab90 893b 8d71 8bbc d148 04bb d63f 4ebc
00000280: 6129 20be adbc 4d3c ccf0 78bd 165d cabc
00000290: 025e b1bc b168 9c3c 6d7b 9a3e 13cb b3be
000002a0: 5c6f 66bc 2e3d 86bc 313d 5cbc 417a 5d3c
000002b0: 4e82 d5bc 81f3 31be 6229 163c 3ea5 0abd
000002c0: 3eaf 5dbd 97a7 6abc f52a 7c3c 867a 883e
000002d0: cef2 aabe 97ad 4aba 5267 7b3a 9233 60bc
000002e0: a791 9ebb 597e c83c 2ebc 27be ace6 933c
000002f0: cec6 96bc 5f4a 03bd 9b5b e9bb af11 8d3c
00000300: 7625 9f3e e383 abbe 88b3 45bb 8aed 88bb
00000310: d368 44bc 2c16 a13c 77b3 87bc 6de4 31be
00000320: 879a 983d 9ab1 26bd fc3f 6cbd 0d64 08bc
00000330: ab16 c43c 4481 9d3e 731c 7dbe 60c8 b93c
00000340: 129b 72bc eb94 afbb 5846 303b 905e 20bc
00000350: f819 37be d9c5 493d 1ffa 93bd d135 56bd
00000360: 1075 a93a cc20 863c e84c 8c3e 020c a3be
00000370: cb6d 183c 8fde 233c 4e32 22bc bd69 843c
00000380: 0992 ae3b 871a 2ebe 5955 a33d 5a89 edbc
00000390: d2e9 35bd 8d68 8e39 8ed1 443c efb7 753e
000003a0: 0fec a1be 6e21 043d 90bf 80bc 35a7 a5bb
000003b0: 7802 c93b 0ceb b13a 0573 26be 106c 373d
000003c0: b254 7abc 3554 79bd ff6a 9f3c 58bc cb3c
000003d0: 6fc8 873e 3a7c 74be 9dc0 90bc b00c e13b
000003e0: 1229 61bc babf 1c3c 7868 343c c547 22be
000003f0: ce22 de3d af38 e3bc f160 63bd 42e4 4f3c

sequential_1/dense_0_1/Relu;sequential_1/dense_0_1/BiasAdd f4 [128]
0.014682932 0.0024939475 0.0515881 0.037595674 -0.030627463 -0.11650572 0.0059146658 0.017067948
0.044126663 0.0077266293 -0.32444772 -0.18475896 -0.1888747 0.0005552871 -0.11015313 -0.058105886
-0.06263386 0.03930087 -0.04218686 -0.08421175 0.018876107 0.023098234 -0.044895295 -0.12445673
-0.1129785 -0.0026832256 -0.1082824 -0.11092724 -0.009937918 -0.015777467 -0.14072017 -0.10700825
-0.27771565 -0.07009199 0.099549524 -0.13561995 -0.0102189705 -0.0366325 -0.13920534 0.0018188931
0.0043586344 -0.13392782 0.065686956 -0.031298757 0.021841036 -0.08930088 -0.25598142 -0.22747345
-0.13753685 -0.68781793 0.006773505 -0.17334834 -0.0873529 -0.1328888 0.022034483 -0.11039304
-0.06806165 -0.037228957 -0.07101305 -0.21624799 -0.1798922 -0.0038350543 -0.061998595 0.022489462
-0.06025488 -0.093567125 -0.05777515 -0.12684284 -0.07116601 -0.50403905 -0.28416494 0.01703495
-0.014108398 0.027496986 -0.0384348 -0.091114506 0.05360449 0.066091955 -0.066708945 -0.15412958
-0.119588815 -0.05038658 -0.30086696 -0.46024895 -0.01689518 0.013318162 -0.03247747 -0.0072442316
-0.0065252315 -0.4003897 -0.05910513 -0.094557405 0.08488625 -0.24644928 -0.23156533 0.033705685
-0.05920116 -0.13490665 -0.12566905 -0.105422385 0.059291817 -0.062702775 -0.11633127 -0.64002866
-0.07940837 -0.014139437 -0.18511118 -0.02756857 -0.13318676 0.0013750697 0.029895952 -0.13991983
-0.06300362 -0.022264216 0.054728612 0.054653976 0.034826346 0.047865 -0.009757283 -0.015675003
-0.20673425 -0.21791542 -0.060752332 -0.3810872 -0.28618523 0.052895263 -0.43261853 0.008428363
00000000: ae90 703c 7f71 233b 0b4e 533d ecfd 193d
00000010: 72e6 fabc 8d9a eebd d0cf c13b 15d2 8b3c
00000020: 29be 343d aa2f fd3b 031e a6be 7431 3dbe
00000030: 5f68 41be b090 113a f797 e1bd 7000 6ebd
00000040: 2e46 80bd f3f9 203d 21cc 2cbd 3677 acbd
00000050: 11a2 9a3c 8238 bd3c 21e4 37bd 2ce3 febd
00000060: 4661 e7bd 0ed9 2fbb 2ac3 ddbd d22d e3bd
00000070: a6d2 22bc bf3f 81bc f318 10be 2427 dbbd
00000080: bf30 8ebe 648c 8fbd 9fe0 cb3d f5df 0abe
00000090: 786d 27bc f60b 16bd d88b 0ebe ed67 ee3a
000000a0: e0d2 8e3b 6024 09be e286 863d 2033 00bd
000000b0: f9eb b23c 61e3 b6bd ff0f 83be cdee 68be
000000c0: 76d6 0cbe d614 30bf 47f4 dd3b 3a82 31be
000000d0: 14e6 b2bd 0014 08be a981 b43c bf15 e2bd
000000e0: e863 8bbd 647d 18bd 4a6f 91bd 1d70 5dbe
000000f0: a935 38be 8955 7bbb 3df2 7dbd d23b b83c
00000100: d2cd 76bd 1fa0 bfbd a3a5 6cbd 17e3 01be
00000110: 7cbf 91bd b408 01bf 117e 91be e18c 8b3c
00000120: e926 67bc 5c41 e13c cf6d 1dbd 3e9a babd
00000130: 6290 5b3d 385b 873d b39e 88bd 25d4 1dbe
00000140: fbea f4bd 2962 4ebd 3c0b 9abe c0a5 ebbe
00000150: c367 8abc 6c34 5a3c 1807 05bd 0561 edbb
00000160: 9cd1 d5bb e1ff ccbe 3918 72bd 50a7 c1bd
00000170: d8d8 ad3d 335d 7cbe 761f 6dbe f90e 0a3d
00000180: ea7c 72bd f824 0abe 63af 00be b1e7 d7bd
00000190: fadb 723d 506a 80bd 173f eebd ebd8 23bf
000001a0: dba0 a2bd 19a9 67bc c98d 3dbe 7bd7 e1bc
000001b0: 1c62 08be af3b b43a 5be8 f43c 2547 0fbe
000001c0: 0b08 81bd 7263 b6bc 1c2b 603d d9dc 5f3d
000001d0: 12a6 0e3d 170e 443d 03dd 1fbc dd68 80bc
000001e0: 25b2 53be 3825 5fbe 70d7 78bd dd1d c3be
000001f0: df86 92be b4a8 583d 2d80 ddbe 1e17 0a3c
