src/track_test/config/trackVer13_policyVer1.tflite (tflite, 403500 bytes, 6 tensors)

arith.constant f4 [128]
000000 de 47 f6 bc ea 4f 32 bd 95 7a 20 bd 51 6a f3 bc
       -0.030063566 -0.043533243 -0.039179403 -0.029713782
000010 a8 de a1 bc 50 b8 f7 bc d7 ff 98 bd 40 7a 16 3d
       -0.019759491 -0.030239254 -0.074706726 0.03673768
000020 88 76 79 bd 7e f5 17 bc 71 1a 2e bc d6 6f 75 bc
       -0.060904056 -0.0092748385 -0.010626421 -0.014980277
000030 ad fc 05 bd 06 00 f7 bc c3 c6 1e 3b bd 58 b4 3d
       -0.032711674 -0.030151378 0.0024227358 0.08805988
000040 01 da 87 3d 3f ca 2d bd f9 df 11 bd 07 29 f5 bc
       0.06633378 -0.042429205 -0.035613988 -0.02992679
000050 f5 05 0c bd a4 6d c3 3b 7c 7b a1 3d 87 fe 09 bd
       -0.03418537 0.005963998 0.07884881 -0.03369
000060 7d 0f f6 bc 77 c1 6e bc 0e 99 97 3d d9 fa 04 bd
       -0.030036682 -0.014572493 0.0740224 -0.03246579
000070 35 53 74 bd 3f 52 03 bd 6c 4b 22 3e e6 80 e1 3c
       -0.059649665 -0.032060858 0.15849084 0.027527284
000080 1c 9f f6 bc 72 fe 36 bd d4 65 04 bd 38 5e b3 3c
       -0.030105166 -0.04467625 -0.032323673 0.021895513
000090 26 f4 96 3c a2 76 48 bc be 5f 77 3d ec b0 ab 3d
       0.018426966 -0.0122353155 0.06039404 0.083833545
0000a0 ae 62 b7 3b da af 1c bc 61 5a d7 3a 72 34 1e bd
       0.0055964803 -0.009563411 0.0016430133 -0.038624234
0000b0 ac fa ff bc 27 0e 9c bc ca 3a 48 3d 31 f7 5a 3d
       -0.03124746 -0.019049717 0.04888419 0.053458396
0000c0 09 d8 50 bc e4 36 76 3e 71 8a bf 3d 4a fa f5 bc
       -0.012746819 0.24044377 0.093525775 -0.030026574
0000d0 62 89 65 3c 05 ec 8d 3c c4 81 27 bc 1d ae 00 3d
       0.014009805 0.017324457 -0.01022381 0.031416047
0000e0 c6 27 e4 3d 69 75 8c 3a 0a ac 17 bd 4b cc 22 bd
       0.11140399 0.0010716143 -0.037029304 -0.03974561
0000f0 ab ce 28 be 15 73 85 3d dc 25 4d be 62 37 63 bc
       -0.16485088 0.06516091 -0.20033973 -0.013868185
000100 df 6d bb bc 8a b5 e8 3a b7 e3 0f bd 1f 3a fa 3b
       -0.022879539 0.0017754298 -0.035129275 0.007636323
000110 19 e5 b4 3c 2c dd fe 3b f9 cd 81 bb f5 12 a7 3d
       0.022081899 0.0077778306 -0.0039613214 0.08157913
000120 af 57 fc bc db 1e 46 3e 4e d1 47 bb 53 c0 22 3d
       -0.03080353 0.19347708 -0.0030489746 0.039734196
000130 8a 85 06 bd f2 2b 64 3c 67 98 00 bd e0 62 ba bc
       -0.032842197 0.013926493 -0.031395342 -0.022752225
000140 9b a8 70 bd 13 f1 84 3d 1a 69 98 3c bf 60 d0 3b
       -0.058754545 0.06491294 0.018604804 0.0063591893
000150 9a 11 25 bd eb 88 36 3d e4 14 2f be ce 92 27 bd
       -0.04029999 0.04456417 -0.17097813 -0.04091149
000160 c8 22 f8 bc d9 98 16 3d 5f e0 21 bd 47 e3 6e bd
       -0.030290022 0.03676686 -0.039520618 -0.058322217
000170 92 ad f8 bc b9 ed 12 bd 64 6a 38 bd 9c 1e 30 3d
       -0.030356202 -0.03587124 -0.045023337 0.04299794
000180 e0 d9 ab 3b ae 1f 54 3a 09 da 71 bd b4 2e 4f 3d
       0.0052444786 0.0008091879 -0.059045825 0.05058165
000190 0b 98 14 bd 24 3d 41 3d a7 de 94 3d 4f ee f4 bc
       -0.036277812 0.04717745 0.0726903 -0.02989879
0001a0 0e fc 62 bd 54 42 88 bd 66 50 8b 3c 45 2d 94 3d
       -0.05541616 -0.06653276 0.01700611 0.07235197
0001b0 e2 f5 54 3c 69 40 28 bd f1 d4 d3 ba 99 f3 f3 3a
       0.012998076 -0.04107705 -0.0016161484 0.0018612026
0001c0 86 b5 46 bd e3 76 68 39 ae 77 97 3d 7f 85 02 bd
       -0.048512958 0.00022169533 0.07395874 -0.031865593
0001d0 d4 80 5e bd 89 68 68 3c 44 fa f5 bc bd 54 77 bc
       -0.05432208 0.014185079 -0.030026563 -0.015095887
0001e0 71 96 cd bb 21 d5 4d bd ed 49 80 bc 52 d4 c2 3d
       -0.0062740375 -0.050252084 -0.01566025 0.09513153
0001f0 bf 9f 1e bc 89 f5 21 bd de f8 f5 bc f4 90 15 bd
       -0.009681641 -0.0395408 -0.030025896 -0.03651519

arith.constant1 f4 [4]
000000 29 4a 8d bb 22 f5 1f bd ad 3f 7e 3c 5d 3a b5 3b
       -0.004311819 -0.039052136 0.015518111 0.005530639

arith.constant2 f4 [4, 128]
000000 b5 80 5b 3d aa 36 b2 bd 36 fb d7 bb 4f 7b b4 ba
       0.05358954 -0.087018326 -0.006591226 -0.0013769659
000010 fd 07 a2 3d 8a 94 63 3d 9a fb 82 3d 6b 34 17 be
       0.0791168 0.05556158 0.063956454 -0.1476609
000020 f2 c8 0d 3e 89 be 17 be f2 22 59 3c 50 34 f3 bd
       0.13846186 -0.14818777 0.0132529605 -0.11875212
000030 69 8d 73 3c c3 0a 0c bc 5e a4 78 bd f0 06 f4 3e
       0.014865258 -0.008547488 -0.060703628 0.47661543
000040 af c0 84 bc 7b 74 b4 bd 3b 92 3e 3d ed 17 db bb
       -0.01620516 -0.088112794 0.046526175 -0.006686202
000050 ce f3 db bb d3 a2 8c bd 4a b3 2b 3e cb 0a 24 bd
       -0.0067124134 -0.06866994 0.16767612 -0.040049355
000060 70 01 ec 3c cd 76 e8 3d 0b 25 6f 3c a7 9c ae 3b
       0.02880928 0.113507845 0.014596234 0.005328733
000070 1d 15 69 3c 78 c4 bf 3d 40 fb e7 3e ee 33 1c 3d
       0.014226225 0.09363645 0.45308876 0.03813546
000080 88 b9 29 3d 92 a0 52 be 8b 9a 36 bc f4 eb 4d be
       0.041436702 -0.20569065 -0.011145244 -0.2010954
000090 ee 02 15 3d ec 6a 4f 3d 84 bb 2d 3e fa 0c 26 be
       0.036379747 0.050639078 0.16966063 -0.16215888
0000a0 5e e8 5e 3d 3e 14 ad bd a8 46 a2 3b a8 df e8 3c
       0.05442082 -0.084511265 0.0049522705 0.02842696
0000b0 03 89 87 bc d6 c6 85 bd d9 f4 94 3d a9 56 7b 3e
       -0.016544824 -0.065320656 0.072732635 0.24544777
0000c0 a2 97 5a bd d7 89 08 3f 0e 62 09 3e 68 b2 42 3c
       -0.053367265 0.53335327 0.13416311 0.011883356
0000d0 6e 57 fe bd d5 53 92 3c 86 4b c2 bd 2b a9 19 be
       -0.1241902 0.01786224 -0.09487061 -0.15005939
0000e0 18 65 8d 3e 9a 3b ec 3a f1 b2 3f bd 3e 5f f7 3c
       0.2761619 0.0018023134 -0.04680151 0.030196782
0000f0 b0 37 8b 3f 19 5f b8 bd 4d 78 09 be 82 bc c1 bc
       1.087637 -0.090025134 -0.13424797 -0.023649458
000100 4f 09 0c bd 14 37 fa bb 76 79 b3 bc 76 98 01 be
       -0.034188565 -0.0076359604 -0.021908503 -0.12655815
000110 39 9a b3 bd a9 63 72 be b6 28 06 be 96 78 26 3e
       -0.0876965 -0.2367083 -0.13101467 0.16256937
000120 a1 03 e3 3d 9f bb 39 be 87 b5 a8 3d f8 d9 1f 3e
       0.110846765 -0.18137978 0.082377486 0.15610492
000130 6a 0e b6 3c 2a 8b cf bd d1 f6 b7 bb e7 bd ae bc
       0.02222367 -0.10133965 -0.0056141396 -0.021330787
000140 d8 9d 54 bd 45 9e 42 bd 0d b6 e3 be cd f9 d2 3c
       -0.051908344 -0.04751422 -0.4447483 0.02575388
000150 04 6b 77 3b ef 88 1a 3c ed 32 c4 3d c3 23 ec 3c
       0.0037752995 0.009432062 0.09580026 0.028825646
000160 64 12 05 3c ce 60 c1 bd 87 95 9c bc 03 fe 1b be
       0.00812206 -0.09442292 -0.019114269 -0.15233617
000170 1c ed 16 bb 80 ad a4 bd 52 8b 44 3d 91 49 8f 3e
       -0.0023029512 -0.08040905 0.04798443 0.27985814
000180 11 96 cf 3d 33 3d bc bd 3b 66 9e 3e fb 53 54 bd
       0.10136045 -0.0919136 0.3093737 -0.051837903
000190 08 c0 d6 3c 4b b0 34 3d cf 8a c5 bd c0 fc 0f 3d
       0.026214615 0.04411344 -0.09645616 0.03515315
0001a0 86 3d 56 bd 3b e8 76 be 18 04 3a bd cc a3 23 bd
       -0.052304767 -0.24112026 -0.04541406 -0.03995113
0001b0 80 03 85 bc 1b 0e 3a 3c 9d 68 e5 bc 4e 27 d9 bd
       -0.01623702 0.011355902 -0.028003985 -0.106032
0001c0 65 eb aa 3d 98 dd b7 bd af ac eb 3d 01 52 3b bd
       0.08345679 -0.089778125 0.11507546 -0.045732502
0001d0 a0 1f 8d 3c 37 51 13 be 26 3c 7e 3d ff 87 9f 3c
       0.017226994 -0.1438645 0.06206908 0.019474028
0001e0 ec fe ba bc d8 1a a2 3b dd 33 75 be 58 08 fb 3d
       -0.022826634 0.0049470477 -0.23945566 0.12257451
0001f0 ac 78 78 bd 6c b6 68 3c f3 20 0b 3d 5c c9 02 3e
       -0.060661957 0.014203649 0.03396697 0.12772125
000200 ed b4 26 bd 7c ab 56 3d 08 1d 09 bd f2 e4 ff bc
       -0.040699888 0.052409634 -0.033474952 -0.0312371
000210 1e 34 15 3e 96 7e 27 3d 83 ac c0 be 35 fc 9a 3e
       0.14570662 0.040892206 -0.37631616 0.30270544
000220 f2 d6 20 bc 44 b7 13 be 36 f8 1c bd b1 36 8c 3d
       -0.009816872 -0.14425379 -0.03832265 0.06846369
000230 4e 20 7f bc b1 79 f3 3c 19 53 a4 be a1 c2 81 3c
       -0.015571667 0.029721113 -0.32094648 0.015839877
000240 0a 02 83 be 9c 36 91 bd 7c 99 67 3d f4 b1 62 bb
       -0.25587493 -0.07090494 0.05654286 -0.0034590932
000250 99 db 85 3c 29 2f 8c bc 54 87 26 be 88 f6 ab bc
       0.016340064 -0.017112331 -0.16262561 -0.020991579
000260 b7 75 e7 bb 5e a8 30 3e d5 41 38 3f 74 02 32 3d
       -0.0070635932 0.17251727 0.7197545 0.04345937
000270 96 c6 21 bc 04 7b f3 bc 94 62 dd 3d b5 c3 05 3e
       -0.009874007 -0.029721744 0.10809818 0.13062938
000280 f2 6c 36 3d f8 9e 28 be 71 6a 14 bd 71 20 2a be
       0.044537492 -0.16466892 -0.036234323 -0.16613938
000290 67 cf b1 3d ed 50 82 bd 34 2a a5 be ce c5 c6 be
       0.08682137 -0.063630916 -0.3225876 -0.38822788
0002a0 d1 71 2e 3e 3d 6c bb be 09 55 d6 bc 87 0c 7c bd
       0.17035605 -0.36606017 -0.026163595 -0.061535385
0002b0 fc 31 0f bd d7 8a 36 be 59 12 18 be 9e 95 f2 3b
       -0.03495978 -0.178264 -0.14850749 0.0074030897
0002c0 f5 11 2e be 77 f2 87 bc c8 9b 10 3f 3b 74 44 bd
       -0.16999038 -0.016595108 0.56487703 -0.04796241
0002d0 20 78 7b 3e 08 fd 19 be dd 2f 30 be da b4 25 3d
       0.24557543 -0.1503793 -0.17205758 0.040455677
0002e0 39 08 d4 bd ef eb 84 be bf d6 20 be 2a 68 2b bd
       -0.10353131 -0.25961253 -0.15706919 -0.041847385
0002f0 81 3a f9 bc e6 fb c3 3d ae eb 2c 3f d6 d6 91 bd
       -0.030423405 0.0956953 0.6754712 -0.07121055
000300 a6 d9 74 bd 6d 41 28 3d bf 0e 30 bd d7 4b 34 3e
       -0.05977788 0.04107802 -0.042982813 0.17607056
000310 8d ca 49 3e 0b 53 32 bd e9 73 23 bd 8f c1 ec 3d
       0.19706173 -0.043536227 -0.039905462 0.11560356
000320 91 2b ff bd 3f 96 47 3d c6 ab 21 3e 89 7f b6 bc
       -0.124594815 0.04872727 0.15788183 -0.02227761
000330 0b 54 19 3d d3 6b 4c 3e ab d1 a2 3c 04 24 98 3b
       0.037433665 0.19963007 0.019875368 0.0046429653
000340 bf c8 f8 be 20 d4 a0 3e 3c b4 bf 3d 39 8d 7c be
       -0.48590657 0.3141184 0.09360549 -0.24663247
000350 e3 35 a9 3d e9 65 d3 3d e7 91 9c be 5e eb 56 bd
       0.08262231 0.10322172 -0.30580065 -0.052470557
000360 22 b8 12 3d 70 10 07 3f 01 3f 01 bc 65 e4 90 bd
       0.035820134 0.52759457 -0.007888556 -0.07074813
000370 c6 81 64 bd a2 65 7e bd 66 ee f2 bc a1 e9 57 3d
       -0.055787824 -0.062108643 -0.029654693 0.05271304
000380 b8 1d a8 be b3 f1 a0 be 7e 85 86 bc 7b 66 2a 3e
       -0.32835174 -0.31434402 -0.016421076 0.16640656
000390 c1 fb 80 bd 39 97 af 3e 99 b3 28 bd 42 72 f5 3b
       -0.06298018 0.3429506 -0.041186903 0.0074904272
0003a0 70 cb 2a bc c3 2a 0c 3d 1c 72 da 3d 0d 28 1c 3d
       -0.01042448 0.03422047 0.10666296 0.038124133
0003b0 10 91 70 bd 40 bb 26 bc d2 dd 7e 3d f3 ff 57 3c
       -0.058732092 -0.01017648 0.062223263 0.013183582
0003c0 59 6d bc 3d 85 08 98 3e 4b ff 8c be 75 ed e0 3e
       0.09200544 0.29694 -0.27538523 0.43931165
0003d0 a0 67 a2 bd ac f9 d7 3d e2 75 da 3c 82 14 72 bc
       -0.07929921 0.10545668 0.026667539 -0.014775397
0003e0 79 f8 99 be 56 78 96 3d cc 87 c3 bd 11 d4 6a 3e
       -0.30072382 0.07347171 -0.095473856 0.2293246
0003f0 1f a4 3e be 51 16 c2 bd b1 79 29 3c cf 1d d8 3d
       -0.18617295 -0.09476913 0.010343955 0.105525605

arith.constant3 f4 [128, 128]
000000 ef 71 ed bc ee 4d 76 bd 28 e5 6b 3d 54 36 b0 3b
       -0.028984992 -0.060132913 0.057591587 0.00537757
000010 8f 1b 8a bd 0f b8 92 bc 1c 49 ef bc 2d aa fb 3c
       -0.06743538 -0.017910032 -0.029209666 0.030720795
000020 40 75 2c 3c 1f bd cc 3b 87 7b fc bc 4d 0a df bc
       0.010526001 0.006248131 -0.030820621 -0.027226591
000030 e9 66 ad 3b 3d 9a 61 bd c7 6c 8a bd ab 28 2f bc
       0.005291809 -0.055078734 -0.06759029 -0.010690848
000040 11 eb 79 3c 0f 9d 31 bd 40 e3 40 bd 68 80 17 bd
       0.015253798 -0.043362673 -0.047091722 -0.036987692
000050 cb cc 43 bd 02 c5 c4 3c d2 d7 99 bd c4 f4 03 bd
       -0.047802728 0.024019722 -0.075118676 -0.03221585
000060 2a 1a c6 3c 29 8e 48 bd 14 3c 7f 3d 9e 50 88 bd
       0.024182398 -0.0489637 0.062313154 -0.066560015
000070 d7 b1 36 bd 2b b3 f5 bb ca 9a 74 3d e3 db d5 bd
       -0.044603195 -0.007498165 0.05971793 -0.10442331
000080 c6 6b f8 bb 54 bd 1e 3d d3 3b 24 bd 95 8f 8d bd
       -0.007581207 0.038754776 -0.040096115 -0.06912152
000090 3b 01 f5 bc d3 ae 1a 3d 79 1e 61 bd f2 95 ad bc
       -0.029907813 0.03776438 -0.0549607 -0.021189664
0000a0 6c 3b b5 bd c4 3d 40 bd 41 5a 77 3c 70 0f 90 bc
       -0.088492244 -0.046933904 0.015097202 -0.017585486
0000b0 8d 17 fd bb 02 54 d5 bc 9e 55 5a bd 5c 97 7f bd
       -0.0077237547 -0.026041035 -0.053304307 -0.062400207
0000c0 b3 6c 44 3d 3d fe 35 bd cf b6 37 bd 7c 1a e5 bd
       0.047955226 -0.044431914 -0.044852074 -0.11186692
0000d0 0e 9d f1 bb 71 7d 24 3c 8b cb 8b bc 35 c9 0b 3d
       -0.0073734587 0.010039673 -0.01706483 0.034127433
0000e0 7b 27 e0 bc 73 7e 88 3c 1f 4a bd 3c 97 bb 15 bd
       -0.027362576 0.016661858 0.023106633 -0.036555853
0000f0 51 2d 72 bd eb 7a 27 3d 3b eb 28 bd 8b 3f a9 bd
       -0.05912525 0.040888708 -0.04123996 -0.08264073
000100 df 10 f1 bc ae 5a 2a bd 64 5f 16 bd 99 46 2c 3c
       -0.02942699 -0.041590385 -0.036712065 0.010514879
000110 ee c1 a0 bc 9e 4e 0e bd 5c e2 8b bd 8c 8b d0 bc
       -0.019623723 -0.034742944 -0.06830284 -0.025457166
000120 5e 42 7c bd 9e 0e c9 bb 3c 41 ff bc c2 0c 03 bd
       -0.06158673 -0.0061357757 -0.031159036 -0.03199459
000130 99 2d eb bc 34 c7 ee bc 0d bd 09 bd 5b be 48 bd
       -0.028708266 -0.029147722 -0.03362756 -0.049009662
000140 a3 1b 0d bd 81 9c 1a bd 9b 2b 91 bd 1d c7 c9 bd
       -0.034450185 -0.03774691 -0.07088395 -0.09852431
000150 f9 eb 9e bd 80 2f 09 bd 99 3c 01 bc cd 56 52 bd
       -0.07759852 -0.033492565 -0.007887983 -0.05135231
000160 9c 44 1a 3d 90 03 3a bd 31 7e f5 bc 10 a4 28 bd
       0.037663087 -0.045413554 -0.0299674 -0.041172087
000170 80 b2 96 3c 24 70 8a b8 f0 45 19 bd 04 29 80 bd
       0.018395662 -6.6012406e-05 -0.037420213 -0.06257823
000180 25 af 9b bd 9f 01 9e bd ac 4c 48 bd c4 de eb bd
       -0.076017655 -0.07715153 -0.048901245 -0.115170985
000190 67 99 f0 bc cf b1 17 bd 61 56 33 bd df 9e 50 bc
       -0.029370023 -0.037034806 -0.04378355 -0.01273319
0001a0 08 ea 6e bd be 44 68 bd d2 ad f6 bc 62 b4 a4 bc
       -0.05832866 -0.056706183 -0.03011218 -0.020105544
0001b0 86 9e d7 bd 9f e3 f3 bc 9a ea 96 bd c2 ed 97 bb
       -0.10528283 -0.029771624 -0.073689654 -0.0046364972
0001c0 b5 16 ce bd 82 56 ab 3c 2c 13 f0 bc 0c 75 f6 3c
       -0.10062925 0.020915274 -0.029306017 0.03008511
0001d0 a0 ae 93 bd 9b 93 af bc ac 7a 83 bd 8a c4 cb bd
       -0.072110415 -0.021432688 -0.06419882 -0.09949596
0001e0 85 12 0d bd 06 1f 84 3c 9c dc 74 bd 4f 4e 5a 3d
       -0.03444149 0.016128074 -0.059780702 0.053297337
0001f0 42 11 97 bc 5a 97 10 bd 07 72 13 3d aa bc eb bd
       -0.018440846 -0.03530059 0.035997417 -0.11510594
000200 15 8b d5 bc 90 af 03 bc de eb 22 bc 0d f3 13 bd
       -0.026067296 -0.008037463 -0.00994393 -0.036120463
000210 77 f2 fb bc 3c dc 07 bd f1 4f 4a bd aa 9a 2f bd
       -0.030755265 -0.033169016 -0.049392644 -0.04287211
000220 39 42 aa bb 63 b2 88 3d 32 c0 ff bb c1 f4 ac 39
       -0.0051958826 0.066746496 -0.007804894 0.00032988752
000230 05 0c 56 3d 4d d2 09 3c 26 3a 7c 3d a8 89 20 bc
       0.052257556 0.008411956 0.061578892 -0.009798445
000240 48 cb dd bd db 9c 25 bd 15 96 ee bd 6e 5e b4 bd
       -0.108297884 -0.040432792 -0.116497196 -0.088070735
000250 39 ae 7d bd be ca 99 b9 90 6c 5d bd ba 9e 94 bd
       -0.06193373 -0.0002933349 -0.05405861 -0.07256837
000260 b4 48 a9 bd bf e6 03 bb f8 49 51 bb 76 09 63 bc
       -0.0826582 -0.002012655 -0.0031934958 -0.013857236
000270 90 7c 8e 3c b7 aa 9d bb a1 cc 1d 3d b2 8c ba bc
       0.01739338 -0.0048116106 0.038525227 -0.022772167
000280 f8 d6 47 bd db 7e f9 bd cf 38 01 bd f1 e7 64 3d
       -0.048788995 -0.12182399 -0.031548318 0.05588526
000290 f1 de a6 3c b3 58 96 bd da 2d c3 bd df cc 4c bd
       0.020369979 -0.07341137 -0.0953023 -0.050000068
0002a0 53 48 f7 bc 6a c8 61 bb 4d 9e 32 bc a7 5d 87 bc
       -0.030185854 -0.0034451731 -0.010902 -0.01652415
0002b0 a6 e9 8b bd ef 54 01 bd da 42 e7 b8 4f 80 b1 bb
       -0.06831674 -0.03157514 -0.000110273904 -0.005416907
0002c0 ac e7 6c bd 7b 8e 95 bd 1b a1 33 bd e5 8c 6f 3c
       -0.057838127 -0.073025666 -0.043854814 0.014620994
0002d0 bc 4d 15 3c ac 7d 2b 3d dd ee 90 3c 41 5c 86 3c
       0.009112772 0.041867897 0.017692024 0.016401412
0002e0 e2 32 d5 3c 2d d4 af bc 5a 3c 83 bc 8d 6f c9 bd
       0.02602524 -0.021463478 -0.016019989 -0.0983573
0002f0 32 9c f8 3c f8 af 67 bd 56 3a 05 3d 70 80 1c bd
       0.030347917 -0.0565643 0.032526337 -0.038208425
000300 fd 62 0b bd 89 b4 85 3c b1 83 74 bd 91 1f 85 bc
       -0.03402995 0.016321437 -0.059695903 -0.016250404
000310 c4 c8 29 bd b3 16 39 3c 56 57 a5 bd 31 5a 22 bd
       -0.04145123 0.011296916 -0.08073299 -0.039636794
000320 40 0d db bc db e5 3d bc ce 79 08 3d 1f 7c 8a bc
       -0.026739717 -0.011590446 0.033319287 -0.016904889
000330 87 c3 5c 3d 09 b9 d1 bd 67 f8 aa 3b 89 c8 32 bd
       0.053897407 -0.10240371 0.0052176 -0.043648276
000340 0d f8 47 bd a0 1d 48 bd 2b 61 ee bd 31 04 f9 bd
       -0.048820544 -0.048856378 -0.11639627 -0.121590026
000350 5c f9 26 bd 37 ea 85 3d 67 a9 97 bb 20 9e 89 bc
       -0.04076515 0.065388136 -0.0046283486 -0.016799033
000360 8a 19 58 bd 96 27 08 bd 43 de 61 3c 1d 94 b3 bd
       -0.05275873 -0.033240877 0.0137859015 -0.08768485
000370 d0 f7 5b 3d 3a c7 80 3c 52 75 7b bd f0 d1 c1 3d
       0.05370313 0.015719999 -0.061391182 0.094638705
000380 68 ad 21 3a 8d dc 5c bd cc 9c 27 3d 07 ba ae bc
       0.0006167502 -0.05392127 0.040921018 -0.02132894
000390 8a fc c7 bd 0e 70 a3 bc 71 f7 78 bc d9 7b ad bd
       -0.09764965 -0.019950893 -0.015195713 -0.08470888
0003a0 08 00 ce 3b e8 a9 2b 3c e6 d3 99 bd ff 0d 29 bc
       0.006286625 0.0104775205 -0.075111195 -0.010318278
0003b0 e7 c3 f4 3c 5c 58 79 bd d4 8f f2 ba 8d 9f 17 bd
       0.02987857 -0.06087528 -0.0018505999 -0.037017394
0003c0 03 11 e3 3c 8e 21 70 3d 1a 39 cd bd 09 60 42 bc
       0.027718073 0.05862575 -0.10020657 -0.011863717
0003d0 4d 14 40 3d 3c 49 c3 bd cc da 2e 3c 50 78 33 3d
       0.04689436 -0.09535453 0.010672282 0.04381591
0003e0 49 c2 ef 3b e2 5e 1e 3c 9c 4c ee 3b ee 13 a7 bc
       0.007316862 0.0096661765 0.007272316 -0.020395245
0003f0 97 83 5e 3d af 6d e1 bc 0b e0 92 3b 26 2c 51 bc
       0.054324713 -0.027518122 0.0044822744 -0.012766873

sequential_1/dense_0_1/MatMul f4 [128, 650]
000000 fb 8c 9c bd ff c1 bf bc 58 68 de 3d 72 cc a1 3d
       -0.076440774 -0.023407934 0.10859746 0.07900323
000010 7a 3c a2 3e f1 d2 49 3d 50 41 98 3c a6 c4 7c be
       0.31686765 0.049273435 0.01858583 -0.2468439
000020 8b 11 c2 3b 10 5b cd be 1b db cd bd f1 1f 2c 3d
       0.0059225014 -0.40108538 -0.10051557 0.04202265
000030 89 d9 3f bb 08 ed 8a bd b8 45 9b bd e0 c1 58 3d
       -0.0029273948 -0.067834914 -0.07581657 0.05291927
000040 e3 60 0a 3e cd f7 86 3e 35 6d 87 3d a6 52 1b 3d
       0.13513522 0.26360932 0.066126265 0.037920617
000050 01 82 0b be c9 33 c3 bc bf 71 96 be 2b 13 ab bd
       -0.13623811 -0.023828404 -0.29383656 -0.083532654
000060 5e 23 63 3d f6 96 88 3d c4 7b 72 bd 76 1a 7a bd
       0.05545365 0.066694185 -0.059200063 -0.06106039
000070 6d 38 eb 3c 79 fb b8 3d 02 22 7e 3e 19 5d 55 3d
       0.02871343 0.090323396 0.2481766 0.052090738
000080 60 f3 0d bd 3e 23 4b bd 91 72 7a bd 29 09 3c be
       -0.03465593 -0.049594156 -0.061144415 -0.1836287
000090 5d a0 31 bd 6c 36 29 bc cb ac f0 3c f0 38 f2 bd
       -0.043365825 -0.010327917 0.02937927 -0.11827266
0000a0 31 3b 2e bd 99 a2 0e 3d 0f a8 b5 3d ac a7 8a 3e
       -0.042536918 0.034823034 0.08869945 0.27081048
0000b0 1d 0a 0e 3d 90 d2 84 3d f7 f8 50 3c 33 bf 4c bd
       0.034677614 0.06485474 0.01275467 -0.04998703
0000c0 aa 4b 3a be a5 5a d3 bc e8 8b e0 3c a1 37 c0 3c
       -0.18192926 -0.025800059 0.027410462 0.023464026
0000d0 51 00 17 bd 3f f7 7b bc 39 0a 98 3b 30 63 a1 3d
       -0.036865536 -0.015378772 0.0046398905 0.07880247
0000e0 0e 3c 80 3e 13 ee ac b9 df fc 44 3d c9 bd 84 3c
       0.25045818 -0.00032983776 0.04809272 0.016203778
0000f0 67 50 02 3b 29 a5 f9 bd 50 e2 64 bd 0e 12 a7 3b
       0.001988435 -0.12189705 -0.05587989 0.005098588
000100 2b 91 7c bc 6a 75 ee bc e1 aa 6f bc a5 46 b6 3b
       -0.01541547 -0.029108722 -0.014628143 0.0055626207
000110 67 80 c5 3c a0 35 6d 3e 8b 41 d4 3c 80 b4 c4 bb
       0.024109079 0.23164988 0.02591016 -0.0060029626
000120 2f 55 ec 3c 23 2b f6 bc cc 28 f0 bd 09 08 bc bd
       0.028849212 -0.030049866 -0.117265314 -0.0918122
000130 23 6e 71 3d 6a 03 23 3c 89 48 83 3a f4 fa 01 bc
       0.058942925 0.009949544 0.0010016124 -0.007933367
000140 a6 b4 cd b9 0a 20 21 3d 25 16 5a 3e 70 5a 5b 3d
       -0.0003923524 0.039337195 0.2129751 0.053553045
000150 8c 33 41 3d f9 66 9a 3d 35 ee 69 3c e0 be ec bd
       0.0471683 0.07539172 0.014277984 -0.11559844
000160 4e fa 4c bd d3 2b d5 3c 9d 3b ac 3c f0 a2 fe 3c
       -0.050043397 0.026021874 0.02102452 0.031083554
000170 f4 3a 73 bb 84 3c 14 3c 1f e8 e4 3c 74 50 60 3e
       -0.0037113996 0.009047631 0.027942715 0.2190569
000180 86 f9 a0 3a 67 60 32 3d a2 21 e8 3c 7e ff f7 38
       0.0012281395 0.043548968 0.02833635 0.00011825467
000190 2d b2 e7 bd c1 af de bc 31 b0 6c 3a 96 02 a6 3b
       -0.11313281 -0.027183415 0.000902894 0.0050662262
0001a0 3e dc 99 3d 84 21 a1 bc fb 65 60 bc 23 41 6c 3d
       0.07512711 -0.019669302 -0.013696189 0.057679307
0001b0 44 42 7b 3e 74 9d fe bc e7 4e a4 bb 92 c8 bc 3d
       0.24536997 -0.031080939 -0.0050142887 0.09217943
0001c0 a2 1d 2a bc 6d ff dd bd b2 1e 36 bd 42 25 a5 3d
       -0.010383042 -0.10839734 -0.044462867 0.08063747
0001d0 9d a2 2f 3d f6 cd 76 3d f8 3e de bb 75 71 86 bb
       0.04287969 0.060255013 -0.006782409 -0.0041028806
0001e0 ed 0b 8e 3d 8a 41 90 3e 12 35 5c bd 48 cc 78 3d
       0.069358684 0.28175002 -0.05376155 0.060741693
0001f0 a7 9c 97 3d 47 66 b7 bb 3b 50 d3 bd fa 87 83 bd
       0.07402926 -0.005596909 -0.10318037 -0.0642242
000200 15 f0 59 3d 52 3c 2a 3d 13 3d c2 3d c3 3c e3 3b
       0.053207476 0.041561432 0.09484305 0.0069347336
000210 d1 4d 53 bc 8f 9b 4f 3d c4 c3 8b 3e 7f 16 ec 3c
       -0.012896971 0.05068546 0.27297795 0.02881932
000220 43 e3 15 3d fa d0 8e 3d bf 2b 1c 3c 90 3f eb bd
       0.036593687 0.06973453 0.009531914 -0.11486733
000230 4c aa 5e bd c5 3a 68 3d 7a 1a 43 3c 92 c2 53 3d
       -0.054361627 0.056696672 0.011908168 0.05169923
000240 cf 6a 88 ba f8 00 cb 3b e0 8f fd 3c d3 d1 94 3e
       -0.0010407808 0.006195184 0.030952394 0.29066333
000250 76 fe 15 bd 4a 33 1c 3c 2b 4f 8d 3d aa e4 b4 3c
       -0.036619626 0.009533713 0.06899866 0.022081692
000260 c0 04 04 be b0 9d 95 bd b8 78 93 3d 28 e8 ce 3c
       -0.12892437 -0.07305467 0.0720076 0.025257185
000270 03 02 86 3d c0 82 cd bb 76 68 1f bc d0 87 04 3d
       0.065433525 -0.00627169 -0.009729495 0.032356083
000280 d6 bb 85 3e d4 d6 33 bd b0 b8 8d 3c b9 7e 8f 3d
       0.2611987 -0.043906048 0.01729998 0.07006592
000290 ea 89 03 3c da a5 f9 bd 1c 8f 79 bd 5b f8 d0 3c
       0.008028487 -0.12189837 -0.060927495 0.02550905
0002a0 2e f9 dd 3c c8 5e 09 3d df 74 a0 ba 5b c2 bb b9
       0.027096357 0.033537656 -0.0012241862 -0.00035812226
0002b0 5e 16 02 3d 78 27 80 3e 6b de 7d bd 98 ac 18 3d
       0.031759612 0.25030112 -0.061979692 0.037273973
0002c0 5b a0 87 3d e1 17 a4 b9 e2 5c da bd b0 cb d5 bd
       0.06622382 -0.0003129831 -0.10662247 -0.10439241
0002d0 9f 3a 24 3d 35 c5 d1 3c b2 75 3d 3d 0f 37 09 bc
       0.040094968 0.025606731 0.04625482 -0.008374943
0002e0 c8 64 a8 ba 08 da 5b 3d 28 d2 83 3e b3 80 8b bd
       -0.0012847418 0.053674728 0.25746274 -0.06811657
0002f0 3a 44 20 3d 90 27 bc 3d 05 6d 18 3c e1 33 ed bd
       0.039127566 0.091872334 0.009303336 -0.11582161
000300 5d 64 83 bd 91 e9 0a bc ee 1d 24 3d bf cf 4c 3d
       -0.06415627 -0.008478538 0.040067606 0.05000281
000310 9c ee 68 ba 44 34 e3 3b a0 8a 3a 3d 7d 78 85 3e
       -0.0008885653 0.006933721 0.04554236 0.26068488
000320 19 54 a6 bc 42 eb 44 ba da a7 5b 3d ec 9b e4 3b
       -0.020303773 -0.0007511863 0.053626873 0.006976595
000330 2f b8 dd bd e1 63 83 bd 6a 13 5d 3d 7b dd 34 3d
       -0.10826146 -0.06415535 0.053973593 0.044156533
000340 e8 e3 0d 3d 48 b3 14 bb 76 f7 ae 3a fa 6c 11 3c
       0.034641176 -0.0022689868 0.0013348896 0.00887608
000350 17 b8 87 3e 16 87 49 bd ce e7 ba bc db 88 89 3d
       0.26507637 -0.049201094 -0.022815611 0.06715556
000360 ed 2b c8 3b f7 70 ce bd cc 6f 9c bd 0e 18 bc 3a
       0.006108752 -0.1008014 -0.07638511 0.001435043
000370 00 55 2b 3d dc 5e 36 3d 02 03 98 3b 29 22 57 3a
       0.04182911 0.04452406 0.0046390304 0.00082066894
000380 74 1f e3 3b 61 8c 8c 3e 98 8a 09 bd 90 9e 92 3c
       0.0069312397 0.2745085 -0.03357944 0.017897874
000390 8a 2c 9a 3d a7 ea 24 3a d9 3c c7 bd e4 d6 fa bd
       0.075280264 0.00062910694 -0.09728403 -0.122480184
0003a0 a4 4b 83 3b 9b 1a 56 3d 11 d4 4e 3d ea dd 0d bc
       0.00400682 0.052271467 0.05049521 -0.0086588655
0003b0 d2 ae be 3b f1 93 b8 bb bd 8c 8f 3e 18 b4 7d bd
       0.00581918 -0.0056328704 0.28037062 -0.06193933
0003c0 c8 c1 c6 3c 8f af 4c 3d 4e b0 a0 bc bf 9b c5 bd
       0.024262324 0.049972113 -0.019615319 -0.09648847
0003d0 47 96 b9 bd 7b 26 3f 3c b8 20 b3 bb 8a 58 d2 3c
       -0.09061866 0.011666889 -0.005466547 0.025676984
0003e0 75 68 b1 bb 08 f8 93 bb 3e 20 0e bc 06 ba 8e 3e
       -0.0054140636 -0.0045156516 -0.008674679 0.278763
0003f0 3d a5 87 3c 88 e7 d4 3b 0e 65 18 3d 58 12 b5 bc
       0.016558284 0.0064973272 0.03720575 -0.022103474

sequential_1/dense_0_1/Relu;sequential_1/dense_0_1/BiasAdd f4 [128]
000000 04 2e 80 bd d6 ff 3c bf a6 5b 0d be d6 29 d5 bd
       -0.06258777 -0.73827875 -0.13804492 -0.1040837
000010 22 63 f1 be 2c 6e eb 3d eb f5 30 be 1f c5 bf bd
       -0.47145945 0.11495623 -0.1728131 -0.0936377
000020 00 15 92 be 53 c1 9c be b2 3e 17 bd da fc 53 be
       -0.28531647 -0.30616245 -0.036925025 -0.20701924
000030 ad b8 02 bd 4d cb 1c bc bf c1 bf bd 2f 30 37 bd
       -0.0319144 -0.009569955 -0.09363126 -0.044723686
000040 3b c3 1e bc ec 04 a5 bd ba 8c 64 bd 61 c4 fe 3b
       -0.009690101 -0.080575794 -0.05579827 0.007774875
000050 20 fe 82 bd e4 49 96 3d 2c ff e6 3c 2b 4e ff bd
       -0.06396127 0.07338312 0.028197847 -0.12466081
000060 f8 1b e4 bd cd 0c ab bd fb 9b 92 be 1b 9e d6 bd
       -0.11138147 -0.08352051 -0.2863463 -0.10479375
000070 ac 75 33 be 94 22 74 bd a3 45 41 bb 03 07 69 3c
       -0.17525357 -0.05960329 -0.002949097 0.014222863
000080 6f 2a 2f be 7f 4e d6 3c 3c 3a 56 3d 1d e9 a3 3d
       -0.17106031 0.026160477 0.05230163 0.08003447
000090 1f 3c 94 3d 32 1e 5d 3c 9d e4 a5 3c 06 47 3a 3e
       0.0723803 0.013495969 0.020250613 0.18191156
0000a0 fe 80 be 3d 31 02 7b bd 2e 4b c8 bd b3 df 66 be
       0.09301947 -0.061281387 -0.097799644 -0.22546272
0000b0 48 1d 56 3d f2 90 20 3c f7 5d ec bd d2 0e f8 bc
       0.05227402 0.009800183 -0.1154136 -0.030280504
0000c0 45 cd be bc 98 81 d7 bd 03 86 01 3d 59 31 2f be
       -0.02329124 -0.10522765 0.031621944 -0.17108668
0000d0 fd 45 23 be f9 a7 58 be 67 6f 6a 3d c0 6b 65 bc
       -0.15944667 -0.21157826 0.057235148 -0.01400274
0000e0 3a 6b ed bd d8 72 54 bb ca 44 ad 3d 34 5a 10 3c
       -0.115927175 -0.0032417085 0.08460386 0.008810569
0000f0 b9 4b 56 be 97 0c 41 be 6d 1b 82 be 29 94 76 3d
       -0.20927323 -0.18852459 -0.2541155 0.06019989
000100 c2 0b e1 bd db 2c 41 bd 3b 61 0a bf 97 56 3e 3d
       -0.10988571 -0.047161918 -0.5405461 0.046469297
000110 dc 52 c8 bd ca 21 8d be a2 c6 fa be f3 65 e9 3c
       -0.09781429 -0.27564842 -0.4897967 0.028490996
000120 72 f6 ec bd 3e 74 42 be 84 eb 72 3d 53 19 c4 be
       -0.11570443 -0.18989655 0.059306636 -0.3830057
000130 ce d9 16 be ae 30 a3 bd 8d 07 28 3d 51 38 57 be
       -0.14731523 -0.07968269 0.041022826 -0.21017577
000140 47 78 de bd bc 8f 43 bd 19 11 cd bd 82 ae b1 bd
       -0.10862785 -0.047744498 -0.10013027 -0.08675863
000150 3c 13 74 bd 86 19 df bd 11 02 0e be 69 58 41 be
       -0.059588656 -0.1089354 -0.13867976 -0.18881382
000160 c3 78 07 be dc ab cf bd 0a a8 2c bd 96 b2 be 3d
       -0.1322966 -0.101402014 -0.042152442 0.09311406
000170 f4 06 ad bd d9 e0 ca bb 16 15 d3 be f3 5a 9a 3c
       -0.08448592 -0.0061913547 -0.41227025 0.018842196
000180 f1 1d d6 bd 86 7b 18 bb 03 90 98 bd 88 0e 8c bd
       -0.104549296 -0.0023266985 -0.07449343 -0.06838709
000190 e1 8e 87 3d 25 c4 8f 3d 33 90 a5 be bd dd 0a 3d
       0.06619049 0.070198335 -0.32336578 0.033902872
0001a0 43 ea aa be f7 a6 d0 3c 91 f9 27 3d 4c 70 13 bd
       -0.33381853 0.02547024 0.04100949 -0.035995767
0001b0 64 53 4d be 37 25 90 bd 18 69 06 3d e0 f1 ee 3d
       -0.20051342 -0.07038348 0.03281507 0.11667228
0001c0 76 94 4f bd 43 47 2f 3c b5 f6 bc bd f2 61 0c bf
       -0.050678693 0.010698142 -0.09226743 -0.5483695
0001d0 8c 78 fe bd 6e 51 d2 bd a3 61 96 bd 94 8a 6a 3d
       -0.12425336 -0.10269438 -0.073428415 0.057261065
0001e0 79 53 14 be dc d9 13 be b7 8a 1b bd f4 24 8e 3d
       -0.14484967 -0.14438576 -0.037974086 0.06940642
0001f0 02 6e 13 be 2d b0 cb bc 6b 64 a8 3c 6b d3 2b 3d
       -0.14397433 -0.02486428 0.020555696 0.04194967
