src/track_test/config/trackVer16_policyVer0.tflite (tflite, 405048 bytes, 6 tensors)

arith.constant f4 [128]
00000000: 9fa0 fabc 6882 2d3c 1777 e63c 020b ddba
00000010: 22e3 b63c d3ca 233b db71 c43c a011 113d
00000020: e717 f6bc 2765 043b 1457 2c3d 634a db3c
00000030: 8ef7 4a3d 1301 b73c 48fe f5bc 7d49 f5bc
00000040: 184a 1d3c 8580 163c 774d 133d 2a21 213d
00000050: f1b0 f63b 57df 36bd 9bfb 15bd bf37 3d3d
00000060: f215 fdbc bca8 adbb fa93 503a 925f af3b
00000070: a4c4 6d3c 0727 09bc 1d6a 3b3b 1aee 3b3c
00000080: 12a0 283d 7674 bb3c 0f78 213c 530d 6ebc
00000090: 0e06 223d 1e6a a83b 30f7 113c 8b34 f8bc
000000a0: dd62 3fbd 763f f43b 3e14 a03c a3ff 4a3c
000000b0: 2e04 e33c 1c93 e9bb 8564 51bc 9466 193c
000000c0: 38f1 843c 126c 0abd 97fe eebc 3efb f5bc
000000d0: 17c8 15bc afe8 7d3c 7033 373b 457d 093d
000000e0: e06d f63c 6822 02bd 343c 563a 8469 773c
000000f0: 2c3c f8bc 497a 953c 3340 063d 614d 63bd
00000100: b466 1ebd 61b6 47bd ef4d 2a3d 3e60 2b3c
00000110: f1ad d83c f786 513d c3c8 b43c 2888 fc3c
00000120: 1e7e d83c e7ae e83c 8853 88bc 342d 0e3d
00000130: 4169 933c 97ff be3c fcc8 e13c beb6 ca3c
00000140: 5de7 203d 69e1 1cbd ff89 023d 0b1b 0ebd
00000150: c2ba d23c 80ef 47bb 8be9 f5bc 8aac f23c
00000160: 8034 cc3c 8a12 833c 6583 00bd 1b53 223a
00000170: b950 e33c 5c09 f5bc 4080 2f3d a562 0d3c
00000180: 4977 b33c f786 a6bc ba8d f5bc b85a 28bd
00000190: b300 e03c dd23 88bb f04e 03bd 261c d53c
000001a0: c6f9 f5bc 44e9 2a3d 6d04 f6bc 65a7 95bc
000001b0: 9c20 da3c 99dd ee3c fdb8 5f3c 28e9 003c
000001c0: bdd3 c8bc cac3 323c 52c8 093d 3b75 7b3c
000001d0: 5994 8abb 18d8 a53c 9e00 eb3c 3fc2 f5bc
000001e0: 50ad d33a 02d3 023c c0ab db3c b963 fcbc
000001f0: f4d8 dc3c 57d7 cb3b 67c4 133d 7225 823b
-0.030594168 0.010590173 0.028132958 -0.0016864242 0.022325102 0.0024992719 0.023980072 0.0354172
-0.030040694 0.0020201893 0.04207523 0.026768869 0.049552493 0.02233938 -0.030028477 -0.029942269
0.009600185 0.009185915 0.035962548 0.03933827 0.0075284173 -0.044646587 -0.036616903 0.04619574
-0.030894253 -0.0052996557 0.00079566205 0.005351969 0.014512215 -0.008371121 0.0028597184 0.011470342
0.04116828 0.022882681 0.009855284 -0.014529544 0.039556555 0.0051396033 0.008909032 -0.030298492
-0.046725143 0.007453854 0.019540902 0.01239005 0.027711954 -0.0071281325 -0.012780313 0.009362835
0.016228303 -0.03379447 -0.029174132 -0.030027028 -0.009141943 0.015497371 0.0027954243 0.033566732
0.03008169 -0.031771094 0.0008172423 0.0151008405 -0.03030213 0.018246787 0.03277607 -0.055493716
-0.038672164 -0.048757914 0.04157823 0.010459958 0.02645013 0.051154103 0.022068387 0.030826643
0.026427325 0.028403712 -0.016641393 0.034711078 0.017994525 0.023315234 0.027561657 0.024745341
0.039283145 -0.038300905 0.031869885 -0.03469376 0.025723819 -0.0030507743 -0.030018589 0.029623289
0.024927378 0.016000051 -0.031375308 0.0006192193 0.027748452 -0.02991169 0.042846918 0.008629476
0.021907466 -0.020328028 -0.029974807 -0.04110214 0.027344083 -0.004154666 -0.032057703 0.026014399
-0.030026328 0.041726366 -0.030031407 -0.018268296 0.026626877 0.0291584 0.0136549445 0.007868089
-0.024515027 0.010910938 0.033638306 0.015347774 -0.00422911 0.020244643 0.028686818 -0.02999985
0.0016149674 0.0079848785 0.026815295 -0.03080927 0.02695892 0.006220739 0.036075976 0.003971749

arith.constant1 f4 [7]
00000000: aaa9 db39 4ce8 d23c adf6 b83c de73 0dbc
00000010: 3a6e 8bbd e659 b33c 892e 513d
0.00041897345 0.025745533 0.022578562 -0.008633582 -0.068081334 0.021893453 0.05106977

arith.constant2 f4 [7, 128]
00000000: 5d1e 583d 050c 02be df18 28bd be0e db3c
00000010: a880 abbd 89c7 a9bd 963c 44be 9b88 873d
00000020: 8fb4 2cbd 8c88 81bd 36b2 a2bd 84e0 b33d
00000030: f624 eabd dc28 1dbd 40cc 37bd 1cb4 fb3b
00000040: a4c5 233d 9c9a 0d3d ca7a 4c3c ddfa f1bc
00000050: e421 03be 4988 62bc ee26 223e d07f 863d
00000060: 433c 9fbd 4d00 8a3e cfd8 83bb 7e0e fd3c
00000070: 289a 93bc f731 64bd 07b1 16bd 0bd5 a5bd
00000080: 842a a43d 7ca9 5ebd a6c5 40bd f875 1ebe
00000090: e87c 1dbd 0187 e5bc 54db 5bbb 8484 df3c
000000a0: b0ab 05bc e8f9 063e 7587 8a3e 532a debc
000000b0: 2495 a3bd b1ec b4bd 8fc9 9b3d 5c8e 0c3e
000000c0: 6e36 2f3d b85a 6dbd 0851 4b3d d7c2 4c3d
000000d0: 9979 97bd bf42 cfbb 6a3c 533e bef6 8fbc
000000e0: 481d 523d 1de4 503d 3c41 5abd 9765 2a3e
000000f0: bf51 2fbd bc8e 453d 6108 47be 945c 593c
00000100: 602f a43d 65f7 9ebd e8ff 85bd e2fd 9a3d
00000110: a886 a0bd 6349 a83c 4cc1 b1bc 007d 2b3c
00000120: 70e7 173e 1ec4 dabc 0cff 34bb 20af be3d
00000130: c526 623d fb5a 0bbe cb82 253e 09d3 8c3d
00000140: fbed 023d 9e1a 0e3b f30f 0ebe 33c1 2b3d
00000150: 16e9 4cbb 9f83 07bd afc0 803d 58a3 ffbd
00000160: 04f4 d9bd 0e1e 8d3d 2741 bf3c d721 6fbb
00000170: 19b2 1fbc 0963 593d 5e70 d2bd 6fe8 24bc
00000180: a9a5 fa3d 6bfe 3b3c 9dcf a8bc 3ff1 31bd
00000190: 4c30 debd 5578 b5bd 772b 9e3c e455 08be
000001a0: 45c8 043d 0b29 f4bd 193e a0bc 5839 7d3e
000001b0: ca7c d5bd 7870 55be 9df2 853d 739a 5dbd
000001c0: 0346 fc3d 0b7a 1cbe ba0f 15be 7fb1 db3d
000001d0: becf 86bd 7b41 1abe 5def 103e 8867 2bbd
000001e0: d1db 94bd 51df b8bd 0027 11be 0e4c 6f3d
000001f0: 6d85 c3bd 9949 97bc 92d1 ba3c 72e4 ed3d
00000200: 7bbb 413c 35d4 013d 8731 073e df0a 22bd
00000210: 736e 023e ea70 dcbd 73c1 413e 9f55 a7bd
00000220: e60b abbd f089 893c f505 24be 6d7f 8e3d
00000230: cb8a 023d 68a7 083c eae1 c73c 7a30 6cbd
00000240: 6ab7 febc 399c d33d 5145 c83d dabb 91bd
00000250: 6d93 70bd 6459 84bc 3308 413d 9bbb e63d
00000260: 7290 7d3c e596 e8bb cc43 3fbd a3c2 eebc
00000270: 4738 733e 50a4 b2bc dcb5 30be 98b5 e03c
00000280: 767e debd a43b a4bc 0e68 ebbc c437 b93b
00000290: ffa6 863c 578b ae3c a804 c5bd 7099 8cbc
000002a0: ee0a 853c d04d 393e d94d cb3b cf55 483d
000002b0: c5eb 103e 8f91 7bbd fcd2 b5bc 7426 b13c
000002c0: 9c76 1c3e 76ba 833c eddc 9fbc 0cff 993c
000002d0: 6208 ef3c f940 febd c7f4 713a cdff 4a3c
000002e0: 324e 2a3d 7aaf e83d 4aaa 8e3d f4fc 313d
000002f0: 25dd b43c 01f7 4cbd 746d f2bc b3b7 183d
00000300: 0ff7 d93d 59fa bdbc a6a1 c63c c7dc b93d
00000310: 4918 473d 0ac9 a43d a559 c33d 35d4 41be
00000320: 7c01 1fbd 1631 2cbe a0b6 4ebd 7662 1b3d
00000330: aa44 e1bd a2d1 253e b7f9 603d 36bf f33c
00000340: e2eb 78be edc1 14bd ca89 95bd 2b64 c43c
00000350: 611e 57bd 4bd8 9dbc 5a59 863c d12b 573d
00000360: 81a7 5bbe d880 e8bd 956c 513b 3b35 f6bd
00000370: 0329 873d a68e 79bd 965f a2bc 2248 edbc
00000380: 49c9 aebd e38a c33b 1a34 6d3d e8a1 233d
00000390: 0186 53be efc1 b43c 7d1f faba d4e1 a3bd
000003a0: 1ce9 1fbc 4892 fbbd b8a4 e73d 2a8e b3bd
000003b0: a6c5 aabc e0c8 513d b3cc 3dbe 06e8 333e
000003c0: b0f1 5a3b 2c24 a53c 337f 1bbe 6429 c93d
000003d0: bb38 103d 280d a03d 4096 88bc 7df5 0e3e
000003e0: bd3b 343d 9098 123e 36f5 20bd 43e4 9abc
000003f0: 2281 993d cfbe 163d 21ea 0a3b b7d4 7bbd
0.05276333 -0.12699898 -0.041039344 0.026740428 -0.083741486 -0.082900114 -0.19163737 0.06617852
-0.04216438 -0.063248724 -0.07944147 0.08783057 -0.11432831 -0.038369045 -0.044872522 0.007681383
0.039983407 0.034571275 0.012480447 -0.029538566 -0.12805897 -0.013826438 0.15835163 0.06567347
-0.07775166 0.26953354 -0.0040236483 0.0308907 -0.018017843 -0.055711713 -0.03678992 -0.08097275
0.08015922 -0.05436085 -0.047063492 -0.15474689 -0.038449198 -0.028018476 -0.0033547478 0.027284868
-0.008158609 0.13181269 0.2705647 -0.027119791 -0.07987431 -0.08834208 0.076068036 0.13726181
0.042776518 -0.057947844 0.049637824 0.0499905 -0.0739624 -0.0063250954 0.20628515 -0.01757371
0.051297456 0.050998796 -0.05328487 0.16640316 -0.04280257 0.048231825 -0.1943679 0.013266701
0.080168486 -0.077620305 -0.06542951 0.075679556 -0.07838184 0.020542806 -0.021698616 0.010466814
0.1483438 -0.026704844 -0.002761784 0.09310746 0.055212755 -0.13608925 0.16163175 0.06876189
0.031965237 0.0021683346 -0.13873272 0.041932296 -0.003126686 -0.033084508 0.062867515 -0.12482327
-0.106422454 0.06890498 0.023346497 -0.0036488676 -0.009747052 0.053072963 -0.102753386 -0.010065182
0.122386284 0.011474232 -0.02060681 -0.04344296 -0.10849056 -0.08860842 0.019307835 -0.13314015
0.032417554 -0.11921891 -0.01956086 0.24728906 -0.10424192 -0.20843685 0.065404154 -0.054102372
0.12318041 -0.1528093 -0.1455678 0.10727214 -0.065825924 -0.15064041 0.1415381 -0.041846782
-0.07268489 -0.09026969 -0.14175034 0.05842214 -0.09546933 -0.018467711 0.022805009 0.11615838
0.011824484 0.031696517 0.13202487 -0.03956115 0.12737446 -0.10763724 0.18921451 -0.08170628
-0.08351879 0.016789407 -0.16017897 0.06957898 0.031870645 0.008340694 0.024399716 -0.05766342
-0.031093318 0.103325315 0.09778846 -0.07115908 -0.058734346 -0.016155906 0.04712696 0.11266252
0.015476333 -0.007098066 -0.046695516 -0.029145544 0.23751937 -0.021806866 -0.17256874 0.02743034
-0.10863964 -0.02004797 -0.02873614 0.0056523997 0.016437052 0.021306677 -0.09620029 -0.017163008
0.016240563 0.1809609 0.0062043485 0.04890996 0.14152439 -0.061418112 -0.022195332 0.021624781
0.15279621 0.016080122 -0.019514525 0.018798374 0.029178802 -0.12414736 0.0009229895 0.012390089
0.04157848 0.113615945 0.06966074 0.043454126 0.022078106 -0.05004025 -0.029593207 0.037284564
0.10642826 -0.023190664 0.024247002 0.09075313 0.048607145 0.08046158 0.09538583 -0.18928607
-0.038819775 -0.168156 -0.050467134 0.037935697 -0.10999425 0.1619325 0.054925647 0.029754262
-0.24308732 -0.036317755 -0.07301672 0.023973545 -0.052519206 -0.019268176 0.016400028 0.05253202
-0.21450616 -0.113527 0.003195559 -0.12021872 0.06599619 -0.060927056 -0.01982097 -0.02896506
-0.08534486 0.0059674843 0.057911016 0.039949328 -0.20656587 0.022065131 -0.001908287 -0.08002058
-0.009760167 -0.1228376 0.113107145 -0.0876735 -0.0208462 0.05121696 -0.18535118 0.17568979
0.0033408217 0.02015885 -0.15185241 0.09822348 0.035210352 0.07815009 -0.016673207 0.13960834
0.044002283 0.1431601 -0.03929635 -0.018907672 0.07495333 0.036803063 0.002119668 -0.061482158

arith.constant3 f4 [128, 128]
00000000: f479 f5bc 85e4 70bd e01e 6c3d c167 8e3c
00000010: cb07 8abd 06f5 cbbc b310 febc 415e 033d
00000020: 3fa6 2d3c af20 9b3b da4b 03bd f5bd ddbc
00000030: 5ebc ad3b cc7f 65bd 217d 8abd 22b1 2ebc
00000040: e709 7b3c 9afe 31bd d88f 43bd 85ee 17bd
00000050: d472 84bd 262d c93c ceb4 98bd 41f1 03bd
00000060: 8a8c b03c 719e 33bd 6840 823d cb5a 87bd
00000070: ccb4 1abd 74da eabb 1a56 593d 9bad d5bd
00000080: c386 15bc e8a1 a43c 4077 0dbd d06c 91bd
00000090: ed58 02bd 55bc 183d a1c5 65bd b847 acbc
000000a0: 1850 b6bd 2e18 40bd cbc8 2e3c 9763 8fbc
000000b0: ff55 03bc 9820 d1bc 2f66 59bd dd9c 7fbd
000000c0: db50 363d f0fa 35bd f286 22bd 08a5 d0bd
000000d0: 804a 11bc c87e 1f3c 3ea0 10bc dd56 0c3d
000000e0: 114f 00bd 0faf 8f3c 84fd ae3c 321f 3dbd
000000f0: 1723 72bd 0a26 273d 418d 28bd f803 bebd
00000100: 8abc 20bd bf77 32bd 00c3 fabc c3d0 51ba
00000110: ff62 edbc 803d e9bc 0033 8abd 0c0f c1bc
00000120: f9c2 7bbd a789 cabb fd98 03bd 47d6 06bd
00000130: 2782 febc 81b4 eebc c331 0bbd abcd 48bd
00000140: b027 30bd 81e7 20bd 6568 92bd 3ecd 87bd
00000150: 50c6 9ebd d69f 10bd f900 1dbc 9b6e 52bd
00000160: 0ec5 113d 2b04 4c3c a932 04bd ffd5 28bd
00000170: ce9d 783c 8611 d0bb 3118 2ebd a46a 87bd
00000180: 739e 9bbd 082e a0bd 4247 48bd 8f9e 5fbd
00000190: 3688 0ebd 3f5a febc 3435 35bd 8143 29bc
000001a0: 6b75 6ebd f7cd 38bd 150f fbbc 19d3 8bbd
000001b0: 06c8 c9bd 14dd fcbc 8a6a 97bd 743d 9ebb
000001c0: d2ed cdbd 4ce1 dd3c c424 f5bc 2084 f63c
000001d0: 0c71 96bd 10d8 b9bc cf7a 83bd 59b8 cbbd
000001e0: 3a07 0dbd cc25 843c 5457 81bd 7da1 5a3d
000001f0: 8535 99bc df33 0bbd abd9 09bd f8b1 ebbd
00000200: 020a 3c3c 18b5 983d 3e45 7bbd 2bcc c43d
00000210: a43b b73c 8c30 e23c 9b0a 3abc 7d23 9bbd
00000220: d854 dc39 8de2 0d3e f4e0 52bd cf46 af3b
00000230: 0ce7 83bb 3526 ce3d 5b99 173c 418f 043e
00000240: 353f 28be 68b0 a1ba f350 7cbd 4d47 85bc
00000250: a4eb 00bb f813 c7bc 5f52 36bd 85c7 c13c
00000260: 886d ecbd 1fa1 893c d1c8 f6bd 1809 6fbd
00000270: 190b 613d b5c9 803d bd81 773d 6c3b 54bd
00000280: 0cde a8bb 57bd c7bd 679b 423b 1ae5 5c3d
00000290: ddfd d23d ca5c 4ebd 40c5 0bbe 92c4 283c
000002a0: 8da8 76bd ae05 833d 63f7 443d 881f 903d
000002b0: 92b1 87bc 264d c8bb a61b 843b b622 7fbd
000002c0: 7ad8 213d 7ca1 a0bc 4a67 0cbe 5284 73bd
000002d0: 3e7c 443d cb6b a83b f0af 74bd 0554 663d
000002e0: b61c a23d 9850 1abd 98db 513d bccc 65bc
000002f0: 9139 47bc 1fbb 98bd 6a7c 4cbd 6ee8 533d
00000300: 3634 1dbc 99d8 773c d7a6 d93d 7429 293d
00000310: 88a5 8e3b 5632 4c3d 6c8e 67bd 31f7 1d3b
00000320: 8627 fb3b 3a2b 4ebc b0e2 6f3d 7afc a93d
00000330: 1b87 b83d 9407 62bc 7075 e13c dec9 b63c
00000340: 6db8 7ebc e212 3d3c af50 b5bd 57be d9bd
00000350: 83e4 33bd 0f50 163e 1792 85bd 205a 9e3c
00000360: 2b97 75bd 759c debc 5d71 9c3d c839 04be
00000370: 9649 193d e87f 153e 64f0 8cbd f971 d13d
00000380: 6fd1 3abd 5307 3fbd cf3a 003d e325 0e3c
00000390: cab2 a33d da0d be3c 879a 1dbd b70a 403c
000003a0: b162 b93c d869 8d3d 1440 bebd 7d7e 8d3d
000003b0: 9603 0d3e 727f 943d fca5 3c3c 8fdf 37bd
000003c0: 7253 573c 9a5a 703d cc23 8bbc c9bd b2bc
000003d0: a754 cd3d 8300 b6bd 3856 45be 1323 af3d
000003e0: d61f 713d 5562 523d 24dd 193e f8a7 54bc
000003f0: ee7b a93d be81 243e f782 40bd c109 8dbc
-0.029965378 -0.058811683 0.057646632 0.017383458 -0.06739768 -0.02489711 -0.031013822 0.03207231
0.010598718 0.004734121 -0.03205476 -0.027068118 0.005301996 -0.05603008 -0.06762148 -0.010662349
0.015322185 -0.043455698 -0.047744602 -0.037092704 -0.06467214 0.024557661 -0.07456361 -0.0322125
0.02155139 -0.043852273 0.06359941 -0.06609114 -0.037770078 -0.007167155 0.05306063 -0.10433503
-0.009126368 0.020096734 -0.034537554 -0.071008325 -0.031823087 0.037288982 -0.056096677 -0.021030292
-0.089019954 -0.04689806 0.01066799 -0.017503543 -0.008016109 -0.025528237 -0.053075965 -0.062405456
0.044510704 -0.044428766 -0.039679475 -0.10187727 -0.00886786 0.009734817 -0.008827267 0.034262527
-0.031325404 0.01753953 0.02136112 -0.04617233 -0.059115496 0.04080776 -0.041150335 -0.09278101
-0.039242305 -0.04357123 -0.030610561 -0.0008003825 -0.02897787 -0.028471708 -0.06748009 -0.023566745
-0.061465237 -0.00618096 -0.032128323 -0.032919195 -0.03106792 -0.029138805 -0.033983003 -0.049024265
-0.0430066 -0.03928328 -0.07148818 -0.06630944 -0.07752669 -0.03530868 -0.009582751 -0.051375013
0.035588317 0.012452166 -0.032274876 -0.041219708 0.015174342 -0.006349745 -0.04250354 -0.06612137
-0.07598581 -0.0782128 -0.04889608 -0.054594573 -0.03479787 -0.031048892 -0.04424019 -0.010331036
-0.058217447 -0.0451183 -0.03064684 -0.06827373 -0.098526046 -0.030867137 -0.073933676 -0.004829103
-0.10055126 0.027084969 -0.029924758 0.030092299 -0.07345781 -0.022686034 -0.06419908 -0.09947271
-0.03443072 0.016131304 -0.06315485 0.053376663 -0.018702278 -0.033985015 -0.03365485 -0.11508554
0.011476995 0.07456416 -0.06134533 0.096092544 0.022367306 0.02761104 -0.011355068 -0.07575128
0.00042024883 0.13855954 -0.051484063 0.005349017 -0.0040253457 0.10065881 0.009252871 0.12945272
-0.16430362 -0.0012335898 -0.061600637 -0.01626935 -0.0019671703 -0.024301514 -0.04451215 0.023654709
-0.11544329 0.016800461 -0.120500214 -0.05835828 0.054942224 0.062884726 0.060426462 -0.05181448
-0.005153423 -0.097529106 0.0029694678 0.053929426 0.10302327 -0.05038146 -0.13649464 0.010300772
-0.060219336 0.06397568 0.04808749 0.07037264 -0.016564164 -0.0061127124 0.0040316163 -0.062288962
0.03951309 -0.019608252 -0.13711277 -0.059452362 0.04797005 0.005139803 -0.0597381 0.05623247
0.079156324 -0.037674516 0.05123481 -0.014025863 -0.012159721 -0.074575655 -0.049923338 0.051735334
-0.009594968 0.0151273245 0.10627525 0.0412993 0.004353229 0.04985269 -0.05653231 0.0024103636
0.0076646237 -0.012583548 0.058565795 0.08300109 0.09010144 -0.013795752 0.027521819 0.022313055
-0.0155469 0.011540147 -0.0885328 -0.106320076 -0.043919098 0.14678977 -0.06522005 0.019330084
-0.059958618 -0.027174214 0.0763881 -0.12912667 0.037423693 0.14599574 -0.068817884 0.10226817
-0.045609888 -0.046637844 0.031306084 0.008676025 0.07993086 0.023199964 -0.038477447 0.011721305
0.022630068 0.06904954 -0.09289566 0.06908891 0.13770899 0.07250871 0.011514183 -0.044890936
0.0131424535 0.058680154 -0.016984843 -0.021819012 0.10025912 -0.08886816 -0.19271171 0.08551612
0.05886825 0.051363308 0.15025765 -0.0129795 0.08275591 0.16065118 -0.046999898 -0.017216565

sequential_1/dense_0_1/MatMul f4 [128, 650]
00000000: 6dd0 3ebd 8e52 7ebd 84b8 913d 5034 bdbd
00000010: 1c3b fc3c 2e9f e8bc d28b ff3c 7187 efba
00000020: 239e 133d 5248 67bd 2cbe 27be 5c40 a2bb
00000030: 26e0 39bd 33c9 72bc c148 1dbd 1b86 ae3d
00000040: ff4d a2bd 31b1 4ebc ea1b 6e3b d09d 573d
00000050: c434 ac3c bd81 0a3d 42b7 69bd 6b65 2bbe
00000060: d434 063d b26f 0d3d 8cc7 ed3c 079f 78bd
00000070: 829b 383c 9a0b 04be f7e9 28bc 7047 e4ba
00000080: ace8 a1bc 3e83 abbc 6f5f a63d dbc3 5dbc
00000090: cb77 17be 240f 08bd 8667 e13b f993 93bc
000000a0: 4bd5 0fbd 8385 433d 078b ddbd 991e a83c
000000b0: e71c 78bb 94ae a13d a2ce 2c3d 7a6c df3d
000000c0: 2361 91bd cc22 15be 8568 663c 3c62 c33b
000000d0: 5c3d 203d 9fde c5bc f80a 1c3c 4ac4 cdbd
000000e0: a603 023c a3fa f0bc 83db 6f3d fa23 4f3c
000000f0: dc00 833d 1c85 58bc cd58 3bbe ad89 efbc
00000100: fd56 f3bc d283 3b3a 8646 82bd d5ea 64bc
00000110: 4931 0bbe 156f 1cbc 67d0 6abb f817 01bb
00000120: 1af4 ca3b 5f2b 653d 2f9b 68bc 7ec7 61be
00000130: 1cc3 5f3c 6d83 b7ba 12b0 92bc 00a3 89bd
00000140: 56e8 283a f01e b7bd ab98 bcbc 31a4 283d
00000150: 03c9 353d e91c 8e3c 43b5 a13d f2ab 2bbc
00000160: ae49 3ebe cc18 a3bc e634 3b3c b17f a5bc
00000170: ca06 97bd 6e06 733d f95d cfbd 9cb1 86bc
00000180: 6521 03bc 65bb 1f3d 440a 693d a16c 973d
00000190: ed87 b13c e870 26be 653b 4bbd b360 92bb
000001a0: 3362 ca3c 013d 5abd 9d18 84bc c0fb 78bd
000001b0: b8b5 a03c 7d62 dabc 53db 9ebb 6d83 073c
000001c0: 18d8 1a3c 66d8 ccbc 1682 3cbe 2779 1b3d
000001d0: 662c 0e3d 0675 39bc 4eda e5bc e453 e13c
000001e0: 8e6f 54bd eb0e 563d a45b 1cbd 97b7 7d3d
000001f0: ec9f 953d e5d0 b13d 1a9a 4fbc f3e4 50be
00000200: a617 b73c 48e0 0b3d 237c 993c 4ed4 033c
00000210: 2f5d 76bc b8f9 a5bd bf5b 443d 4d0c 7f3d
00000220: 37f7 1c3d 75e9 333d 5674 323d f840 3bbd
00000230: 7ef0 4fbe 5ae8 9a3c 118d 853b 79e0 31bc
00000240: 7934 53bc 6f85 d93b 4e98 c6bd 0db8 913d
00000250: 39bc 813b 6169 2e3c 4844 6dbc 4fda 4e3d
00000260: 59df 45bc 40e7 5fbe 2717 ee3c 588a 8e3c
00000270: 5d02 a23b ed43 30bd 7f00 2f39 d13d d1bd
00000280: f466 413d 2d48 b03c 4ed5 a23c 5821 353d
00000290: 5a25 0f3d 80fd 19bd 7dc9 4fbe b5e1 9abb
000002a0: 8e1c 973c 8be4 48bd ad78 40bd aee8 9a3b
000002b0: ab96 ddbd 5608 ff3c 2486 28bb 31e4 2d3d
000002c0: 35ba c23c 507d 383d 79df 2bbc fd00 7abe
000002d0: c0d7 bebb db99 933c 6123 a5bc b279 5ebc
000002e0: 6a2c 44bd ac0f 1fbd 808c 3e3d 7d41 d03b
000002f0: fc62 413d fb29 2c3d 5dc1 5c3d 15da b3bc
00000300: 9a2a 49be 7745 9dbc bf10 103d aa40 d4bb
00000310: efb0 3bbd ad13 2a3d d258 86bd 3c27 053d
00000320: 384d 5d3d e253 923c d61e cf3c 1168 903d
00000330: e49f c23b eb2c 4abe 95e8 393d 7624 0b3d
00000340: 5345 7dbc 107d f1bc f322 85b9 93cb 99bd
00000350: 1595 e23c bc57 d73c 1df8 2cbc 5660 8f3c
00000360: f15a 7c3d 210c c3bb 1780 54be bc74 ebbb
00000370: 5acd 043d 4170 183d 8bb6 62bd 3ad6 2bbd
00000380: b746 8fbd 1fbb 203d c174 713d eef0 023d
00000390: 141e c03c 9194 8d3d 483b bcbd ecad 84be
000003a0: 50cb 84bc 4269 2c3d 9684 db3b 5617 0fbd
000003b0: d5b6 37bc 2531 70bd d91d 423d 48bc 3c3c
000003c0: 553b 163d 2588 e33b b735 6c3d ac83 a4bc
000003d0: d279 58be f421 e83c e2cd 97bc 7235 573c
000003e0: 46a0 b1ba d5ab 943c 3dbb 74bd fd26 4b3d
000003f0: c128 983d 22ea 6e3c 6bdd 35bc 4599 233d
-0.04658549 -0.06209045 0.07115272 -0.092384934 0.030789904 -0.028396215 0.031194601 -0.0018274618
0.036039483 -0.056465454 -0.16381139 -0.00495152 -0.04537978 -0.014818477 -0.03839946 0.08521672
-0.07925033 -0.012615488 0.0036332556 0.052640736 0.021021254 0.033815134 -0.057059534 -0.16737907
0.032765225 0.03453035 0.029025815 -0.060698535 0.011267545 -0.1289505 -0.010309688 -0.001741631
-0.019764267 -0.020936605 0.08123671 -0.013535465 -0.14791791 -0.033217564 0.006878796 -0.018014895
-0.03511552 0.04773475 -0.10817533 0.020522403 -0.0037859024 0.07894626 0.042189248 0.10909362
-0.070986055 -0.14564055 0.014063005 0.005962638 0.039121017 -0.024154006 0.0095240995 -0.10047205
0.00793544 -0.029416388 0.058558952 0.012642855 0.06396648 -0.0132153295 -0.18295594 -0.029240454
-0.029704565 0.00071531266 -0.063611075 -0.013972004 -0.1359302 -0.009547968 -0.0035829784 -0.0019698124
0.00619365 0.055949565 -0.014197155 -0.22048756 0.013657358 -0.001400096 -0.017906222 -0.06720543
0.0006443312 -0.08941448 -0.023022017 0.04117221 0.044381153 0.01734777 0.07895901 -0.010478007
-0.18582794 -0.019909285 0.011426186 -0.02020249 -0.07374342 0.059332304 -0.10125346 -0.016442113
-0.008003567 0.038997073 0.056894556 0.07393766 0.02167126 -0.16254008 -0.04961719 -0.004467094
0.024705028 -0.053280834 -0.016125018 -0.060786963 0.0196179 -0.026658291 -0.004847923 0.00827108
0.009450935 -0.02500553 -0.18408999 0.037957337 0.03471031 -0.0113194045 -0.028058197 0.027505822
-0.0518642 0.05226032 -0.038173333 0.061942663 0.07305893 0.086824216 -0.012671018 -0.20399837
0.022350144 0.03414944 0.01873595 0.008046223 -0.015036865 -0.08104271 0.04793906 0.06226759
0.0383217 0.043923814 0.043567978 -0.045716256 -0.20306584 0.018909622 0.0040756543 -0.010856741
-0.012890928 0.006638221 -0.096970186 0.07115183 0.0039592055 0.0106452415 -0.014481612 0.050501164
-0.012077176 -0.21865559 0.029063774 0.017399952 0.0049441294 -0.04303353 0.00016689485 -0.10216869
0.047217324 0.021518791 0.019877102 0.044221252 0.03494773 -0.037595272 -0.20291705 -0.0047266134
0.018446233 -0.04904608 -0.046990085 0.0047274446 -0.10819753 0.031131905 -0.002571472 0.04245395
0.023770431 0.045041382 -0.010490292 -0.2441444 -0.0058240592 0.0180177 -0.020158472 -0.013578819
-0.04789392 -0.038833305 0.04652071 0.006355463 0.04721354 0.042032223 0.053895343 -0.021954576
-0.19645157 -0.019198162 0.03517222 -0.006477435 -0.045823034 0.04152267 -0.0655991 0.03250812
0.05402872 0.017862264 0.025283258 0.07051099 0.0059394706 -0.19743697 0.045387823 0.03397032
-0.015458423 -0.02947858 -0.00025393776 -0.07509532 0.027658978 0.026286952 -0.010557202 0.017501991
0.061610166 -0.0059523736 -0.20751987 -0.0071855467 0.0324224 0.03721643 -0.055349868 -0.04195235
-0.0699591 0.039240953 0.058949236 0.03196805 0.023451842 0.069131024 -0.091909945 -0.25913942
-0.016210228 0.04209257 0.006699155 -0.034934364 -0.011213024 -0.058640618 0.047391746 0.011519499
0.036677677 0.00694372 0.057668414 -0.020082317 -0.21140221 0.028336503 -0.01853079 0.013135301
-0.0013551794 0.018148342 -0.059748877 0.04959773 0.07429648 0.014582189 -0.011100153 0.03994109

sequential_1/dense_0_1/Relu;sequential_1/dense_0_1/BiasAdd f4 [128]
00000000: b0c6 a5bd d733 7abd d8c8 34bd d9f9 193b
00000010: a04f a8ba ee5e 5dbd 8493 b43c f2df 6a3c
00000020: 2747 8dbd 1272 513d 9e30 043c f81c 1ebd
00000030: 2745 013d ac30 2f3d 2a4e 16bd bfe4 7a3d
00000040: 1a5f 1dbd 45d0 123c 49fc 973c 85bc 4f3c
00000050: 6b8c 7dbd 5dc2 67bd 7759 8f3c 11fd 9c3c
00000060: fa36 fdbb 255f c53c 7591 cdbd cf40 c0bd
00000070: bdfd ec3c 1ce1 8e3c 4dd5 5bbb 7505 b3bb
00000080: 90b5 0abd fb02 82bd 8521 463c 0764 d7bd
00000090: add2 683c e753 92bd 2bac 64bc b3dd 8abd
000000a0: a9e3 c73c 420e c2bd e68c 093d dff8 d33c
000000b0: c962 f23c 3f08 19bd 4d65 bc3c c760 80bd
000000c0: f91e 703b 8642 713c 053e 28bd 0de0 b53c
000000d0: f0c7 e13c c240 37bc a917 93bc 5a2c c2bd
000000e0: fd80 043d 74bd 84bb bbf5 79bd 5b83 3a3d
000000f0: efa5 66bd 97eb 79bd c9ba cf3c 2db9 c73b
00000100: 57e4 c93c eef7 203d 4091 fb3c 1f90 3c3d
00000110: cffc d13c 10af 243d 57c8 96bd eef1 b03c
00000120: de42 e03c d077 18bd d64e 043d fe4a f63c
00000130: 3e51 253d 8432 6a3d 1278 af3c 820a 1fbd
00000140: 6bf9 633c d12c 05bd f4a0 1f3d 7678 fc3c
00000150: 654f 5fbd 26b4 9f3d c054 2fbd 16a4 053d
00000160: c7e0 28bd 271f 623a 5f61 6dba 2f3e 15bd
00000170: ed29 1fbd edc0 723d 2524 0f3d 3a61 91bb
00000180: adac 9ebd b474 ea3c 163a 7dbd a852 54bd
00000190: 4526 553d 07d2 9a3c 6ac0 f33b eafe 063d
000001a0: c475 65bd e144 ddbd a6bc 14bd 3ba0 163d
000001b0: d617 e63c d652 cb3c e4ba ac3c 9c4b 14bd
000001c0: 90ac c4bc 0c38 673c 9df6 a73c 627c 9c3c
000001d0: c5bd 8f3d b263 273d 1446 86bc 3d45 e3ba
000001e0: 19e5 98bd c93b 05bd 62b3 c23c fbea e33c
000001f0: 6e4d 563c 8c56 4dbd b622 0f3d 7d5e 60bd
-0.08094537 -0.061084595 -0.044136852 0.0023494868 -0.0012841113 -0.05404561 0.022042997 0.014335619
-0.06898337 0.051134177 0.008068232 -0.038601846 0.03156009 0.042771026 -0.036695637 0.061253306
-0.038420774 0.008960788 0.018552916 0.012679224 -0.06190149 -0.056581844 0.017498715 0.01916364
-0.007727501 0.02409322 -0.10037509 -0.09387361 0.028929586 0.017441325 -0.0033543885 -0.005463297
-0.033864558 -0.06348225 0.012092953 -0.105171256 0.014210385 -0.07144909 -0.013957064 -0.06780567
0.024400549 -0.09475376 0.033581637 0.025875507 0.02958812 -0.03736138 0.022997523 -0.06268459
0.0036639555 0.014725333 -0.04107477 0.022201562 0.027561158 -0.011184873 -0.017955618 -0.09481116
0.032349575 -0.004050905 -0.061025362 0.045535427 -0.05631059 -0.06101569 0.02535762 0.0060950727
0.024645014 0.039298944 0.030708909 0.046035882 0.025633244 0.040206015 -0.073624305 0.021599736
0.027375635 -0.037223637 0.032301746 0.030065056 0.04036068 0.05717708 0.021419559 -0.03882838
0.013914446 -0.032513443 0.038971856 0.030819159 -0.054519076 0.077980325 -0.042805433 0.032627188
-0.04122999 0.0008625858 -0.0009055342 -0.036436256 -0.038858343 0.05926602 0.03494658 -0.004436639
-0.07747779 0.028620102 -0.061822973 -0.05183664 0.05203845 0.018898977 0.007438709 0.03295795
-0.056020513 -0.10804153 -0.03631272 0.0367739 0.028087538 0.024819773 0.02108521 -0.03620492
-0.024008065 0.014112484 0.020503337 0.01910228 0.070186175 0.04086656 -0.016390838 -0.001733936
-0.07465572 -0.03252772 0.023767177 0.027822008 0.013079984 -0.050131366 0.034945212 -0.05477761
