src/track_test/config/trackVer16_policyVer1.tflite (tflite, 405048 bytes, 6 tensors)

arith.constant f4 [128]
000000 05 8a 1f bd 6b d8 2b 3e ad ef 34 3d 0a 41 3f be
       -0.038949985 0.16781776 0.044173885 -0.18677154
000010 ec a3 9b be 0d 9b 5f 3e 53 23 0d bd 64 b0 c1 bc
       -0.303985 0.21836491 -0.034457516 -0.02364368
000020 67 97 52 bd cc 4f d4 bd 02 d0 24 3e 31 f8 a8 bd
       -0.05141392 -0.103667825 0.16094974 -0.08250464
000030 d6 c2 64 3c 76 db 6e be 28 1b 82 bd b6 73 0b bd
       0.013962468 -0.23325905 -0.06352836 -0.034045897
000040 84 db c8 bc 18 c1 d0 3c 42 57 83 3d 4a 10 a6 3d
       -0.024518736 0.0254827 0.064131275 0.08108576
000050 5c ac ee 3b a8 d8 34 bd 89 e7 03 3e ca 46 90 bd
       0.0072837304 -0.044151932 0.12881292 -0.07044752
000060 d8 84 00 bd bc ab 53 bd f6 f2 b9 3d 90 45 b5 3d
       -0.03137669 -0.05167745 0.09079544 0.088511586
000070 da 18 3d 3d 60 4e 03 be e5 82 a4 bd 1f dc 55 be
       0.04616628 -0.12822866 -0.08032779 -0.20884751
000080 93 28 ff 3c dd 7d d8 3a 5b 76 dd 3d 45 c5 eb bd
       0.031147277 0.0016517002 0.1081359 -0.115122356
000090 3c 9b 0b 3d 71 0e e2 bd 28 9a 05 be eb 4a 28 bd
       0.03408359 -0.11037911 -0.13047087 -0.041087072
0000a0 06 c2 0a 3e fd a0 ce bc aa 64 f3 bd 13 a0 a3 3d
       0.13550577 -0.02522325 -0.118844345 0.07989516
0000b0 ef 52 9b bd 32 0b b3 3d fd 33 35 be 68 38 c5 bd
       -0.07584178 0.0874237 -0.17695613 -0.09629899
0000c0 b8 6c 4e be 29 12 19 be 47 23 15 bd 0b 14 f8 bc
       -0.2015866 -0.14948334 -0.036410596 -0.030282995
0000d0 43 3e 49 bc 77 ad 47 3e 02 88 10 bd f0 89 1f 3d
       -0.012282911 0.19499765 -0.035285957 0.038949907
0000e0 c0 b5 12 bd f6 b6 5e bd 29 a8 fb bd 91 58 f6 bc
       -0.03581786 -0.054373704 -0.122879334 -0.030071529
0000f0 89 ba 1b bd b4 13 a5 3d 37 eb 04 3d 2d e7 5b bd
       -0.03801969 0.08060399 0.03245088 -0.053687263
000100 64 23 12 be 83 b1 8f bd fe 83 a6 b9 a0 a2 c1 bd
       -0.14271313 -0.070162795 -0.0003176033 -0.094548464
000110 9f 6d b2 bd 70 9c 35 3e a7 8c 99 bd a6 67 13 3e
       -0.08712315 0.17735457 -0.074975304 0.14395007
000120 72 54 3b 3d e7 75 82 3e 89 7b 45 3d ac ed e5 3c
       0.04573483 0.25480577 0.048213515 0.028067432
000130 9b 38 26 3e 65 c1 18 3c aa ef 1f 3d ff d6 b1 bd
       0.16232531 0.009323453 0.03904692 -0.086835854
000140 d2 b6 e7 bb 42 3a 0a 3d 73 74 bf bd f2 4d 06 bd
       -0.0070713544 0.033746965 -0.09348383 -0.03278918
000150 87 ed b1 bc 3f c2 cc bd 4a 12 f6 bc 88 f1 93 bd
       -0.021719707 -0.09997987 -0.030038018 -0.07223803
000160 1c 23 2a 3e a6 b0 19 3e 24 91 96 be f8 8e 9f 3d
       0.16614956 0.15008792 -0.29407609 0.07790941
000170 fc 19 f2 bb c5 45 f6 bc 7f 7f 0d 3e 1b 8d 8f bd
       -0.0073883515 -0.030062566 0.13818167 -0.070093356
000180 58 47 c6 bd f9 4e 2d bc 87 6b 05 bd 68 79 09 bd
       -0.096815765 -0.010577911 -0.03257325 -0.033563048
000190 77 41 f2 bd ee 55 a4 be 76 ec fb bc b2 50 48 bc
       -0.11828893 -0.3209681 -0.030752402 -0.0122262705
0001a0 71 01 f9 bc 17 ea 6e 3d 09 eb fa bc f7 63 1f 3d
       -0.030396195 0.058328714 -0.030629652 0.038913693
0001b0 2a b1 a5 3d 58 32 9a bd 43 94 8d bc 6f af 08 3b
       0.08090432 -0.075291336 -0.01728261 0.002085652
0001c0 59 99 cb bd 7c a4 22 be f9 f1 c4 3d 82 17 86 bd
       -0.09941358 -0.15883058 0.09616465 -0.065474525
0001d0 0f b1 a2 be 70 28 27 be 5e 45 8c 3a 8e f8 7b be
       -0.3177571 -0.1632402 0.0010701825 -0.24606535
0001e0 fc 3c 26 be fc ac 15 bd 89 1b 45 bc d4 3d f9 bc
       -0.16234201 -0.036541924 -0.012030491 -0.03042499
0001f0 1d 55 23 bd 57 6c 21 be e2 d3 a0 3d 92 43 29 3d
       -0.039876092 -0.15763985 0.078529134 0.041324206

arith.constant1 f4 [7]
000000 77 d1 63 be 0d 0f 91 3d 27 10 51 3e 0d 03 8c bb
       -0.22247873 0.07082949 0.20416318 -0.0042728246
000010 b8 a4 e7 3c 15 94 bd 3d 3e 6d d0 3b
       0.028276786 0.0925676 0.006360679

arith.constant2 f4 [7, 128]
000000 1c 1c 29 3d b7 4c f0 bd d6 21 05 be 14 71 9a bc
       0.041286573 -0.11733382 -0.13001189 -0.018852748
000010 fb d0 cd bd f2 88 cb be 9b ba 50 3c a5 ad b0 bd
       -0.100496255 -0.39752918 0.012739803 -0.0862687
000020 f4 16 5a bd 93 42 86 be 6e b5 b9 be 27 90 6d 3f
       -0.053244546 -0.26222667 -0.36271232 0.92798084
000030 2d ef 7d be c4 55 3f bf 85 5c 43 bd ca 51 7d bc
       -0.2479827 -0.7474024 -0.047695655 -0.015461395
000040 fe b4 b3 3d 19 d1 81 bd 21 da 9a bc fd b9 a7 bd
       0.08774756 -0.0633871 -0.01890284 -0.08189771
000050 23 bb 0a be ca 62 d0 bc 93 cd 8c 3f f4 aa 86 3e
       -0.1354795 -0.025437731 1.1000236 0.26302302
000060 df 58 9f bd 9e d6 39 3f 15 23 7c 3f 85 67 69 bc
       -0.07780623 0.72593105 0.9849103 -0.014245872
000070 c5 cf ec be 78 89 54 be e9 78 82 3d af c2 cb bd
       -0.46252266 -0.20755565 0.06370718 -0.09949242
000080 4c 76 ac 3e 76 d8 6a be 9e 8d 20 be 04 57 17 bc
       0.33684003 -0.22934136 -0.15679023 -0.009237055
000090 11 84 27 3e 23 82 59 3d 03 bd 00 be d0 d7 e0 3c
       0.16358973 0.053102624 -0.12572102 0.027446657
0000a0 43 1b d6 3d 4a 6c aa 3e 11 80 b1 3e 73 59 bb be
       0.104544185 0.33285743 0.3466802 -0.36591682
0000b0 59 dc c4 bd 50 fd 22 be 10 6c 18 3f 86 30 71 3f
       -0.096123405 -0.15916944 0.5953989 0.94214666
0000c0 bf 5f 18 be 2a bc 5f bf 77 df 62 3d d6 c1 4c 3d
       -0.14880274 -0.8739649 0.055388894 0.049989544
0000d0 95 8d 81 bd 84 8b 0f 3e 35 f8 84 3f 40 8e a4 3d
       -0.06325833 0.14018065 1.0388247 0.080349445
0000e0 4d 48 32 3e 2b d0 72 3f a8 31 5e bd 32 d7 09 3c
       0.17410393 0.9484889 -0.054246575 0.008413123
0000f0 78 6d 2d bd fe ae ad 3e 17 a0 a1 be e0 83 59 3d
       -0.042340726 0.3392257 -0.3156745 0.05310428
000100 2d 42 d3 3e 63 03 18 ba de 3c be bd 82 23 23 3e
       0.41261426 -0.00057988445 -0.09288953 0.15931514
000110 1e 4a 86 3e 6a 86 9e 3d 2e ef 12 bd f3 d4 73 3d
       0.26228422 0.07740481 -0.03587263 0.059529256
000120 a2 18 8e 3e bb ae bf be 54 86 52 3d 76 a4 5d 3e
       0.27753168 -0.37437996 0.051397637 0.21644768
000130 33 43 80 3e a5 f7 a2 be 5d 82 13 3f 20 44 22 3f
       0.2505127 -0.31829563 0.57620794 0.633852
000140 68 78 ca 3e 5d fd ff 3d d9 0c 00 3d ab 10 cb 3c
       0.39544988 0.12499497 0.031262252 0.024788221
000150 28 a9 b4 ba ca 18 5b 3a e5 cd 80 3d 6d aa 2d bf
       -0.0013783323 0.0008357881 0.06289271 -0.67838174
000160 4b 23 8b be 90 50 25 3b d2 f9 5a 3d a1 25 83 3d
       -0.27175364 0.002522502 0.053460903 0.064036615
000170 7d 50 0d be 43 6a 59 3d a8 45 d5 be fa 30 29 bc
       -0.13800235 0.053079855 -0.41654706 -0.010326618
000180 25 45 56 3e 7f ae 47 3c 73 d9 7d 3c 27 54 3b bd
       0.20924814 0.012187599 0.015493738 -0.04573455
000190 dc 21 56 be 37 73 1b bf fe cc 01 bc 53 d4 cf bd
       -0.20911354 -0.6072268 -0.007922409 -0.101479195
0001a0 16 29 04 3d 04 0b 85 be 33 b8 a0 bc 36 99 ee 3e
       0.032265745 -0.25984967 -0.019619083 0.46601266
0001b0 49 e7 4d be bd 36 b0 be 97 e4 2b 3e b8 4d 5a be
       -0.2010776 -0.34416762 0.16786419 -0.2131871
0001c0 f4 17 f1 3e 5b f9 9d be 39 25 99 be cc f5 97 3e
       0.47088587 -0.30854306 -0.2991121 0.29679716
0001d0 f1 e9 ff bc a4 97 2d bf 2d bf 55 3f 59 7b a4 3e
       -0.031239482 -0.6780951 0.83494836 0.32125357
0001e0 1d 4b e6 be 96 0f 1b be 16 29 00 bf 9f dd 71 3d
       -0.44979182 -0.15142664 -0.5006269 0.059049245
0001f0 43 5e 9a be c5 6c ce be d7 70 3c 3f a8 13 25 3f
       -0.3015004 -0.4031736 0.7360968 0.6448312
000200 ab 47 b2 3c ae 5f f5 3e 90 37 e0 bd 53 1e d3 bd
       0.02176269 0.4792456 -0.10948098 -0.10308518
000210 ad b5 f8 3e 7d 21 19 be cc 3e bf 3e d7 cb 01 be
       0.48576108 -0.14954181 0.37352598 -0.12675415
000220 23 f7 90 bd 51 51 04 bd f0 a2 34 be cc 38 96 3e
       -0.070783876 -0.032304112 -0.1764028 0.29340208
000230 41 46 b2 bd 16 aa ce 3e 08 3b bf 3c 04 18 ec 3c
       -0.08704806 0.4036414 0.023343578 0.028820045
000240 67 b0 7a 3d 34 aa 34 3e 86 d2 9c 3d 31 1f a7 be
       0.061203387 0.17643052 0.07657342 -0.32640985
000250 33 4c 42 bd 92 29 86 bc 68 e9 9f 3d 66 0d db 3d
       -0.04743595 -0.016377244 0.078081906 0.10695915
000260 4f 7e 7b 3c 1b 23 6d 3e 6f cc db be 53 61 9c bd
       0.0153499385 0.23157923 -0.42929408 -0.076357506
000270 58 11 68 3e b3 d6 20 3d c8 f5 02 bf 64 da a5 3d
       0.22662866 0.039267253 -0.5115628 0.08098295
000280 ea f6 94 be ea 28 50 be 1e 29 bd bc db cf 33 bd
       -0.2909463 -0.20328107 -0.023090895 -0.0438994
000290 62 5a 00 3e 6c a6 86 bd 56 03 45 be 57 cb 8b bc
       0.12534478 -0.06574711 -0.19239554 -0.017064733
0002a0 85 60 8f be 88 f8 7a 3e 9f 87 56 bd ac 48 5e 3d
       -0.28003326 0.2450887 -0.052375432 0.054268524
0002b0 2a 0b 8a 3e c8 51 18 be 19 1f 32 bd 62 0f ac 3d
       0.26961643 -0.14874947 -0.04348669 0.084013715
0002c0 12 f5 b0 3e d5 f5 f4 be 57 cb a1 bc ef 44 9b 3c
       0.34561974 -0.47843805 -0.01975028 0.018953769
0002d0 c4 75 0a 3d 9f 1e 0e be a3 92 92 bd c8 cd 52 bc
       0.033803716 -0.13878869 -0.07156875 -0.012866445
0002e0 84 fd 38 3e 34 90 47 3e 65 6b b7 3e f2 cc 33 3d
       0.18065459 0.19488603 0.35824123 0.043896623
0002f0 8e 5a a1 3c c4 36 3b be 03 eb d6 3d ef eb ae 3d
       0.0196965 -0.1828261 0.10494044 0.085410945
000300 55 0a 67 3e 38 3b a4 3c 0f 50 de 3a da 55 14 3f
       0.22562535 0.020047769 0.0016961115 0.579435
000310 cf bb 53 3d 36 69 9e 3e 5c 10 92 bd 44 4a 0f bf
       0.05169278 0.30939645 -0.071320266 -0.55972695
000320 a7 44 15 bf c8 02 b8 be 76 54 7c be 8d 7b 07 bc
       -0.5830788 -0.35939622 -0.24641594 -0.008269203
000330 f1 e1 cb be 9f 09 ba 3e a5 d6 e1 3c 18 91 43 3e
       -0.39820817 0.36335465 0.02756817 0.19098318
000340 c6 d9 b1 be 66 e9 46 be 72 f3 bc bd 9d 75 f9 3c
       -0.3473646 -0.19424972 -0.09226121 0.03045159
000350 bd 3c 0f bd 18 5e 8a be dc 60 87 3c 8b cd 17 3d
       -0.034970034 -0.27024913 0.016525678 0.037061255
000360 80 a4 b1 be 1c 22 37 3d 17 ec 52 be 62 e6 06 bf
       -0.34695816 0.044710264 -0.20597874 -0.52695286
000370 cf 23 e9 3d 48 3c 5c bd d6 fb 0c be 89 03 1a bd
       0.11383783 -0.053768426 -0.13767943 -0.037601028
000380 ff 0f b7 be d9 c8 cb 3a 3a 44 8f 3c 13 27 22 3d
       -0.35754392 0.0015547528 0.017488588 0.039588045
000390 7c 9a 2f be dc f4 4f 3e 59 d8 80 bb 8b 0b d2 3b
       -0.17148775 0.2030825 -0.0039320407 0.0064100674
0003a0 09 96 1d bc 17 41 53 be 36 07 e9 3d 6c 10 6a bf
       -0.009618291 -0.20630299 0.113783285 -0.9143131
0003b0 67 1a 39 bd 0b 9a 8a bc 7b 84 3d be dd 7a 31 3e
       -0.045191195 -0.016919157 -0.18507569 0.17332025
0003c0 d6 ac af be 79 09 22 3e fe 38 ea bc 23 51 bb 3e
       -0.3431155 0.15823926 -0.02859163 0.3658534
0003d0 16 b4 81 3f b4 44 d1 3d ff 36 1e bd 34 dc 24 3f
       1.0133083 0.10218182 -0.038626667 0.64398503
0003e0 de ed f2 3d 64 82 05 3e 40 3a fb bd 0a 95 9a bc
       0.11861776 0.13038021 -0.1226697 -0.018869895
0003f0 ad 21 4b 3e 73 97 2f 3e b1 f1 c8 3c c2 2e 77 be
       0.19837065 0.17147617 0.02452931 -0.2413893

arith.constant3 f4 [128, 128]
000000 32 a3 f5 bc 3e f5 70 bd a8 1d 6c 3d d8 6b 8e 3c
       -0.029985044 -0.05882763 0.05764547 0.017385408
000010 1f 08 8a bd d5 20 cc bc 39 f6 24 bd f9 7c 00 3d
       -0.0673983 -0.024918 -0.04027388 0.031369183
000020 8a 98 2d 3c ee 7f b1 bb 10 bb 2d bd da e8 dd bc
       0.01059545 -0.0054168617 -0.042414725 -0.027088571
000030 fa 33 ad 3b fc 08 8a bd ee 9c a3 bd a1 b3 2e bc
       0.005285737 -0.06739995 -0.07988916 -0.010662944
000040 2f fd 7a 3c 60 22 3e bd f2 43 6f bd e5 ee 17 bd
       0.015319153 -0.0464195 -0.058414407 -0.037093062
000050 fe 9c 98 bd 2a 5a c9 3c a4 b0 98 bd 86 22 09 bd
       -0.07451819 0.024579126 -0.074555665 -0.03348019
000060 1e 5d 75 3c 6c b8 61 bd 2e 2f 6b 3d c6 68 87 bd
       0.014975814 -0.05510752 0.05741804 -0.06611781
000070 2a f1 1c bd 46 b6 84 bc 78 0a 5e 3d 17 b4 d5 bd
       -0.03831593 -0.016200196 0.054209203 -0.1043474
000080 f2 7f 97 bc a7 b0 a1 3c 21 c7 0d bd 06 ea a4 bd
       -0.018493626 0.019737555 -0.034613732 -0.08052449
000090 dd 14 2a bd 89 bb 18 3d 79 ce 88 bd 20 4a ac bc
       -0.041523803 0.037288222 -0.066800065 -0.02103144
0000a0 60 c0 c2 bd 66 18 40 bd 02 9a 09 3c 52 60 8f bc
       -0.09509349 -0.04689827 0.008398535 -0.017501984
0000b0 e1 cf fc bb 24 26 d1 bc bf 68 59 bd 7c 7a 8f bd
       -0.007715211 -0.025530882 -0.05307841 -0.07005784
0000c0 ab 37 24 3d a0 e9 60 bd 54 68 22 bd 74 f6 dc bd
       0.04009215 -0.054910302 -0.039650276 -0.10789195
0000d0 02 e8 9b bc 08 5b 17 3c fd fd 10 bc 15 50 0c 3d
       -0.019031528 0.009238012 -0.008849618 0.03425606
0000e0 8e 00 0b bd 77 30 fc 3b 7c bf ac 3c 3e 77 28 bd
       -0.033936076 0.007696207 0.0210874 -0.041129343
0000f0 7c 23 72 bd 99 37 27 3d 6d 8c 28 bd f0 47 b1 bd
       -0.05911587 0.040824506 -0.041149545 -0.08656299
000100 8b dc 04 bd cf 32 50 bd fc 20 fb bc ad 44 d3 3b
       -0.03243689 -0.050829705 -0.030655377 0.006447396
000110 e6 15 ba bc 28 11 23 bd cb 63 8a bd 98 38 f9 bc
       -0.02271552 -0.039811283 -0.06757315 -0.030422494
000120 14 cb 7b bd 9b d9 cc bb e1 4a 32 bd 5c 5c 35 bd
       -0.061472967 -0.0062515265 -0.04352844 -0.044277534
000130 31 3c 1d bd 97 92 ee bc 1d b8 22 bd 25 25 49 bd
       -0.03838748 -0.029122634 -0.039726365 -0.04910769
000140 d1 13 1a bd bc 89 49 bd 4f 35 a1 bd 76 6f 85 bd
       -0.037616555 -0.04920362 -0.07871496 -0.065154
000150 01 7e a7 bd 15 4e 36 bd ab a3 a4 bc f9 64 5a bd
       -0.0817833 -0.04450806 -0.020097574 -0.05331895
000160 1a 19 e5 3c 79 39 2e 3c b8 3a 21 bd 73 3d 29 bd
       0.02796607 0.01063382 -0.03936264 -0.04131837
000170 02 a5 2d 3c dc 86 87 bc b8 e9 32 bd b9 b7 90 bd
       0.010598423 -0.016543798 -0.043679923 -0.07066292
000180 da 9f 9b bd 50 13 b6 bd 4a 50 48 bd 11 09 60 bd
       -0.07598849 -0.08890402 -0.048904695 -0.054696146
000190 44 cb f6 bc 22 2c 27 bd 99 9a 5e bd 65 33 aa bc
       -0.030126221 -0.040813573 -0.054346655 -0.02077646
0001a0 46 88 90 bd 11 c8 38 bd cb 14 fb bc a8 be 86 bd
       -0.07057242 -0.045112673 -0.030649563 -0.065793335
0001b0 56 c8 c9 bd 94 05 28 bd ec b8 ab bd f0 06 1e bc
       -0.09852664 -0.041020945 -0.083848804 -0.009645209
0001c0 e6 ea cd bd 4f a6 dd 3c 4e 95 29 bd 8f 83 f6 3c
       -0.10054569 0.027056841 -0.041402154 0.030092029
0001d0 19 06 9d bd cd bf 05 bd c2 70 83 bd f7 1e cc bd
       -0.07667179 -0.03265362 -0.06417991 -0.099668436
0001e0 59 07 0d bd a0 25 84 3c ba 67 8f bd c4 f1 27 3d
       -0.034430835 0.016131222 -0.07002206 0.04100205
0001f0 94 63 f7 bc 90 2f 0b bd 20 67 e5 bc f6 ae eb bd
       -0.03019885 -0.033980906 -0.028003275 -0.115079805
000200 7b 34 8a 3e 4a 04 6a bd 6d 51 96 3e 32 80 f1 be
       0.26993164 -0.057132997 0.29358998 -0.47168118
000210 21 0d f6 bd 70 08 27 3e cc ff 59 3d a2 fb 51 3e
       -0.12014223 0.16311812 0.053222463 0.20506147
000220 ed 8c 45 bd 1b 43 13 3f 20 8a 96 be 7f 77 06 3f
       -0.0482301 0.5752427 -0.29402256 0.52526087
000230 21 45 87 be 7e 59 4d 3e 74 81 f0 be 33 54 0a be
       -0.2641993 0.2005367 -0.46973765 -0.13508682
000240 66 c6 0b bd 62 a5 90 3d 3e a6 3e 3d d0 14 50 be
       -0.034124754 0.07062794 0.04654526 -0.2032044
000250 ac 4f 4f 3e 0e 00 4b bd 3f 3b f8 be 30 95 00 3e
       0.20245236 -0.0495606 -0.484827 0.1255691
000260 05 9d f9 be 6b b2 46 bc 83 81 73 3e d9 4f a4 3d
       -0.4875261 -0.012127499 0.23779874 0.08023042
000270 bc 63 02 3e d3 f3 ad bc 50 5c d4 3c f8 7d 1a 3e
       0.12733358 -0.021234429 0.025922924 0.15087116
000280 46 98 1d 3d 12 80 a1 3d 52 d2 c9 3d 86 43 66 3e
       0.038475297 0.078857556 0.098545685 0.22486696
000290 1f fb a2 bc 2c d0 24 bd e0 84 60 3e ae ea c4 bc
       -0.019895134 -0.04023759 0.21925688 -0.024037685
0002a0 19 40 e1 3c a1 3c 7b 3d 8a 54 fe bd be f4 2a 3e
       0.027496384 0.061337117 -0.12418468 0.16694924
0002b0 47 31 45 be 06 4c 5d bd 95 6c 9d 3e 8c 10 df bd
       -0.19257079 -0.05402758 0.30746904 -0.10891828
0002c0 5d 22 c5 3b 11 0c df 3d 0c 3e cd bd e4 05 80 3c
       0.0060160593 0.10890973 -0.100216 0.015627809
0002d0 9a 9e c6 bd b7 15 bf be 7e 70 a9 3c 33 64 77 bf
       -0.096982196 -0.37321255 0.020683523 -0.96637267
0002e0 9b e5 08 3e 3d f6 25 3c 77 4c a0 3d 3d c9 b4 bd
       0.13368838 0.010129509 0.078270845 -0.08827446
0002f0 11 db 94 3c 3d 81 32 3c 9c cf 86 3d 8c 91 95 bd
       0.018170865 0.010895071 0.06582567 -0.073031515
000300 f4 80 1c 3e fe 5a 5c bb 50 96 fa 3d 1a 0b 39 be
       0.15283567 -0.0033623572 0.12235701 -0.18070641
000310 fb 95 11 be 4d c0 72 bd 23 d5 1b be 34 3d f8 3d
       -0.1421737 -0.059265424 -0.15218024 0.121210486
000320 83 cb 3d be 2d 66 20 3d c4 c2 fe bd c4 77 d1 3d
       -0.18534665 0.039159942 -0.12439492 0.102279216
000330 d5 5f 79 be 08 5c b7 be 57 99 4f bc 6d cb 02 bd
       -0.24352963 -0.35812402 -0.012670836 -0.031932283
000340 14 38 17 3b eb 1b e5 bd 32 ae 22 be c8 20 2c be
       0.0023074197 -0.111869656 -0.15886763 -0.1680938
000350 ec d2 54 3e fb 37 1e 3e 39 5d fc bd e3 83 31 bb
       0.20783585 0.15451042 -0.12322468 -0.0027086667
000360 d7 08 2f be ef e6 93 bb 4e 2f 18 3e e7 97 e4 3c
       -0.17093216 -0.0045136134 0.14861795 0.027904464
000370 86 09 0b bf ae 85 ac bd b1 a6 e3 bd 79 9a a0 bc
       -0.54311407 -0.08423935 -0.11115778 -0.019604908
000380 bb c0 37 3d c5 53 c6 bd de 0a 94 bd 4c 42 4f be
       0.044861536 -0.096839465 -0.07228635 -0.20240134
000390 5b 06 35 3e 69 13 10 3e aa 82 20 be ae 47 3b be
       0.17678206 0.14069904 -0.15674844 -0.18289062
0003a0 56 9a 11 3d ef ae 9f 3d 37 31 36 3e da 61 97 3c
       0.035547577 0.07797038 0.17792211 0.018479276
0003b0 b6 9a d5 3d 2a 53 c3 3d e9 d7 7e 3e d0 b8 ce bd
       0.104298994 0.09537347 0.2488705 -0.10093844
0003c0 4f f7 c2 3e 4b dd b5 bc 33 91 42 be eb ea 7a 3d
       0.38079306 -0.022200247 -0.19000702 0.06125919
0003d0 7e cf 7d bb 8b 58 a3 3e a1 95 50 be e9 1e 15 3d
       -0.0038728411 0.3190349 -0.20369579 0.03640643
0003e0 85 c5 18 3d 6d a7 ab bc 2a 2e 6e 3c 92 da 98 bc
       0.037297744 -0.020953858 0.014537374 -0.01865891
0003f0 08 81 2f bc bb c8 c0 3d c0 d7 19 bf 44 65 be 3d
       -0.010711916 0.09413286 -0.60094833 0.09296659

sequential_1/dense_0_1/MatMul f4 [128, 650]
000000 4f e5 8f bd 9f ba a8 3d a8 99 16 3e 6c d4 b9 3d
       -0.07026159 0.0823872 0.14707053 0.090737194
000010 8d 84 39 bd 24 1d 1f be 72 d3 0d be 30 3e 52 3d
       -0.045292426 -0.1553846 -0.13850191 0.051328838
000020 be d8 ab 3d e4 ac 28 be 93 84 38 be c4 17 56 bd
       0.0839095 -0.16472203 -0.18019323 -0.05226876
000030 6c a3 69 3d 42 32 27 bd 01 84 b8 3d 18 b1 21 3e
       0.057040617 -0.040819414 0.09009553 0.15790212
000040 05 66 c6 3d 57 21 bd bd db 4a f8 bd da 23 cf bd
       0.096874274 -0.09234875 -0.121236525 -0.1011426
000050 c0 8b 08 3d 3c 70 9f 3d 5b e0 39 be 06 0e 40 be
       0.0333364 0.07785079 -0.18151991 -0.1875535
000060 81 33 18 bd 72 11 1c 3e ee 90 1c 3a 2d 14 13 3d
       -0.037158493 0.1524103 0.0005972524 0.035907913
000070 2a 14 c7 3d 01 c7 31 3d 9e 85 c1 bd c6 71 00 be
       0.09720643 0.043402676 -0.094493136 -0.12543401
000080 aa 56 21 be ad 05 09 bd d6 d3 ef 3d 6c 8c 16 be
       -0.15755716 -0.03345268 0.117103264 -0.14702004
000090 88 92 29 be 15 28 e9 bd 74 a6 0b 3e 20 51 48 bd
       -0.16559803 -0.11384598 0.13637716 -0.04890549
0000a0 6a 7f 30 3d 96 c1 03 3e f8 1a 41 3d df 03 89 bd
       0.04309026 0.12866816 0.04714486 -0.066901915
0000b0 a3 49 01 be 96 f5 2a bd 61 55 9e 3c 7b 53 0b 3e
       -0.12625746 -0.041738115 0.019327821 0.13606064
0000c0 38 9b 4e be 10 2d 13 be 68 17 84 bd 00 d3 10 3e
       -0.20176399 -0.14372659 -0.06449777 0.1414299
0000d0 2f aa c3 3b 6c da 21 3d 79 1b 91 3d 00 7d 2d 3d
       0.005971215 0.039514944 0.07085318 0.042355537
0000e0 e0 ad a7 bd a7 16 1a be 41 9a 37 bd 60 80 40 bc
       -0.08187461 -0.15047704 -0.044824842 -0.011749357
0000f0 0d 8b c2 3d 40 56 0d be 41 2f 28 be 4f c2 d8 bd
       0.09499178 -0.13802433 -0.16424276 -0.105839364
000100 af 1f de 3d fc 0a 0a bd f2 09 24 bc d2 95 9c 3c
       0.10845887 -0.03370188 -0.010012137 0.019114409
000110 4e a8 83 3b 42 f2 d1 bd c2 5d f9 bd 5a ac b0 bd
       0.004017866 -0.10251285 -0.12176086 -0.086266235
000120 d7 b6 7c bc de 1c be 3d a2 2f 06 be d6 47 43 be
       -0.015424452 0.0928285 -0.13104108 -0.19070372
000130 bb 7b 72 bd 4c 7b 11 3e d8 a0 57 bd 87 03 a3 bc
       -0.05920003 0.1420719 -0.052643627 -0.019899143
000140 7a 5c 4c 3c 29 6e 43 3d 6b 50 f1 bd 7d 16 96 bd
       0.01247322 0.04771248 -0.11782917 -0.07328508
000150 a1 4a 9b bc 85 57 48 bc 31 ba d6 3d af 4b 04 be
       -0.018956484 -0.0122278975 0.10484732 -0.12919496
000160 e9 ea 11 be 42 ff af bd a8 9c 23 3e 30 c1 61 bd
       -0.14249767 -0.085936084 0.15977728 -0.05511588
000170 c3 43 24 bd d3 d5 52 3d ef 30 fd 3c 93 bf eb bd
       -0.040103685 0.05147345 0.030907122 -0.11511149
000180 5b c1 f1 bd 3e e7 a4 38 d4 56 dd 3c 1f 59 c5 3d
       -0.11804458 7.8632016e-05 0.027018942 0.09636139
000190 e0 24 b8 bd 9c d1 e4 bd e3 03 e6 bd c6 dd 1a 3e
       -0.08991408 -0.11172792 -0.1123121 0.15123662
0001a0 7a 21 27 bc 55 9d d6 bc 04 70 43 bd 12 d3 88 3d
       -0.0102008525 -0.026198069 -0.04771425 0.066808835
0001b0 29 98 a8 bd 32 ff 07 be 8d 01 93 bc 9b cd e6 bc
       -0.08232147 -0.13280943 -0.017945075 -0.028174212
0001c0 7c 4d e0 3c b1 b2 0d be 2e ac 09 be 45 fe 98 bc
       0.027380697 -0.13837697 -0.13444588 -0.018675933
0001d0 6b f9 49 3e 86 ac 3a bd d4 aa 76 bc 1f d3 d1 bc
       0.19724052 -0.045574687 -0.015055377 -0.025613366
0001e0 91 87 9c 3d cd 30 52 bd ae 1f 10 be 79 87 96 3d
       0.07643045 -0.05131607 -0.14074585 0.07350058
0001f0 c2 81 32 3d 32 66 d7 3d 53 5b f5 bd 85 a6 1f be
       0.043580778 0.10517539 -0.11980309 -0.15590866
000200 45 39 bf bc c9 5c 4e 3e 6e c8 6e bc dc 71 97 3b
       -0.023342738 0.20152582 -0.014574153 0.0046217274
000210 25 e5 a5 bd bc fc 3c 3d ff f9 65 bd 5d 5d 15 bd
       -0.081003465 0.046139464 -0.056146618 -0.03646599
000220 87 4e 96 3d 3a 32 74 3c 9f 30 74 3d 4d 12 1e be
       0.07339197 0.014904553 0.05961668 -0.15436669
000230 ae 6e 24 be 51 f0 c0 bc e2 38 37 3e 10 19 32 bd
       -0.16057846 -0.023552092 0.17892793 -0.043480933
000240 43 02 d2 bc 28 43 75 bd 7c b5 fe 3c 15 15 06 bd
       -0.025635844 -0.0598785 0.031092398 -0.03273495
000250 11 b0 bb bd 2a 2f 8b 3d 28 5a 1e bd cf 57 85 3d
       -0.091644414 0.06796105 -0.0386602 0.06510889
000260 be cb f5 bd 95 98 3e be 08 31 17 bc c6 dd 4b 3e
       -0.12001751 -0.18612893 -0.009227999 0.19908819
000270 76 5f de bc fd 8a 59 bd d4 a8 8c bd e3 e3 ff 3c
       -0.027145129 -0.053111065 -0.06868139 0.031236595
000280 d6 91 62 bd 7c 32 93 bd 4b 11 ca 3d 48 55 cb 3c
       -0.05531486 -0.071873635 0.098665796 0.024820939
000290 37 56 35 3d 79 ee 15 be 39 c0 37 be b5 72 17 bd
       0.044271674 -0.14641751 -0.17944421 -0.036974628
0002a0 b1 1c 51 3e 9f 13 a5 bd 91 31 6c bd 90 ab 85 bd
       0.20421101 -0.08060383 -0.057664458 -0.065268636
0002b0 e6 56 0e 3d 41 b0 91 bd 6c cb bf bd 93 f2 10 3e
       0.03475084 -0.07113696 -0.093649715 0.14155035
0002c0 1e 5a ed 3b a4 ac 48 3d b8 30 f2 bd 3a 69 69 be
       0.007243409 0.048992768 -0.118256986 -0.22794047
0002d0 4d f1 fc bc 6a 4c 53 3e 0e 96 53 bd 63 c8 89 bc
       -0.03087678 0.20634618 -0.051656775 -0.016819185
0002e0 86 3c ea bd c2 f6 e0 3d 09 80 61 bd a5 9b ab bd
       -0.11437325 0.10984565 -0.055053744 -0.08379296
0002f0 27 6f 29 3e 5b 04 22 3d 06 97 5a 3d 48 e2 04 be
       0.16546308 0.039554935 0.053366683 -0.12976944
000300 f8 3c 3b be f3 e0 30 bd 0d 08 68 3e 42 0f 1c bd
       -0.18284976 -0.04318328 0.22659321 -0.03810049
000310 e9 4c e1 bc a2 27 2d bc 96 d9 9f 3d 56 fc 89 bd
       -0.027502494 -0.010568531 0.07805173 -0.067375824
000320 5e 79 19 bd d1 a0 1d 3e 1d 2a 00 3d ae 1e 7e 3d
       -0.03746926 0.15393378 0.031290162 0.062040977
000330 f6 75 d7 bd f0 05 4c be d0 48 5a 3d 53 70 5d 3e
       -0.10520546 -0.1992414 0.053292096 0.2162488
000340 18 dc 40 bd 1a c2 50 bc 65 21 69 bd 6b eb 84 3d
       -0.047084898 -0.01274159 -0.056916613 0.06490215
000350 e0 3e 93 bd 8b 9a 87 bd d1 b0 11 3e e1 98 0b 3d
       -0.07189727 -0.066212736 0.14227606 0.034081344
000360 00 08 86 3d ca 82 d3 bd f3 db 5a be f8 fc a5 bb
       0.06544495 -0.103276804 -0.21372966 -0.0050655566
000370 25 a7 5c 3e a3 03 b0 3b e0 20 eb bc 14 75 f0 bd
       0.21548136 0.0053715273 -0.0287022 -0.11741081
000380 8c 68 55 3d 14 e0 6b bd e2 55 1a bd fb 8d 51 3e
       0.052101657 -0.057586744 -0.03767956 0.20464318
000390 d4 06 80 3d 3e d9 bc 3d 11 5c 39 be 04 de 8c be
       0.06251302 0.09221123 -0.18101527 -0.27513134
0003a0 61 69 61 b9 8f 50 60 3e 30 74 d6 bc 51 1d 29 3d
       -0.00021496929 0.2190573 -0.02617845 0.041287724
0003b0 d1 3b 80 bd b1 5c a6 3d 3c 5d 48 bd 7f e4 bd bd
       -0.06261409 0.08123148 -0.04891704 -0.09272098
0003c0 23 63 58 3e 48 7c 4d 3c 7f b0 35 3d 9d df e7 bd
       0.21131568 0.012541838 0.044357773 -0.11321948
0003d0 17 fc 8e be df 28 0a 3e 55 24 cd 3d a2 7c af bc
       -0.27926704 0.13492154 0.100166954 -0.021421734
0003e0 33 a6 d9 3d 27 29 cb bc 35 a3 5f 3d 4b 30 3f bd
       0.10627403 -0.024799896 0.054599006 -0.046676915
0003f0 dc 1a 22 bd 03 92 45 3e 2d 79 09 bd 3b 37 25 3c
       -0.039576396 0.1929398 -0.033562828 0.010083969

sequential_1/dense_0_1/Relu;sequential_1/dense_0_1/BiasAdd f4 [128]
000000 09 3e 62 bf 87 69 ad be 85 d2 38 bf 87 59 80 3d
       -0.8837591 -0.33869573 -0.7219623 0.06267076
000010 8e 4e 08 3d 8c 55 58 bf 04 a4 87 bd 66 34 98 be
       0.03327804 -0.84505534 -0.066230804 -0.29727477
000020 8f 71 82 be 8c 4b 45 bf 65 a0 04 3c 89 4b 8d be
       -0.25477263 -0.770684 0.008094882 -0.2759669
000030 31 81 18 bf f8 b5 a5 bd 29 a9 2f bf 5c a1 b9 3d
       -0.5957213 -0.080913484 -0.6861749 0.0906398
000040 27 41 3f be 20 12 3c be 03 3e 22 bc 93 d1 05 bb
       -0.18677197 -0.18366289 -0.00990248 -0.0020419105
000050 59 3c db 3d fb db d1 bc 12 61 74 3d ea 20 ca be
       0.1070487 -0.02561759 0.059662886 -0.39478236
000060 bb a0 b6 bd 88 f8 83 bb 17 5c 26 3d fd ec 0d bf
       -0.08917376 -0.00402743 0.040615167 -0.5543974
000070 2b 6c 00 bd 37 d2 a1 bd 2d 41 7b bf 6a d4 45 3e
       -0.031353157 -0.079014234 -0.98146325 0.19319311
000080 98 b7 49 be 79 28 c9 be 10 b2 8c bd 97 18 1b be
       -0.19698942 -0.3928869 -0.068699 -0.15146099
000090 91 23 dc bd f1 46 cc bd f3 8a 49 bc c8 c6 c5 be
       -0.10748971 -0.099744685 -0.0123011945 -0.3862822
0000a0 3f 19 97 3c 91 66 92 be c9 c9 55 be d4 2c 93 3d
       0.018444655 -0.28593877 -0.20877756 0.07186285
0000b0 52 56 e2 bd 0c 23 f0 bd 78 c3 cb 3d d6 6b 17 bf
       -0.110516205 -0.11725435 0.09949392 -0.5914892
0000c0 55 80 0f bf 12 80 03 3d 79 24 f6 be 00 ed b1 3d
       -0.56055194 0.03210456 -0.480747 0.08687782
0000d0 58 90 17 be a2 d6 ae be 16 d2 19 be 73 a0 5a bf
       -0.14801157 -0.34148127 -0.15021548 -0.85401076
0000e0 d8 cf 85 bc a5 87 5e be 09 32 44 be 66 73 15 3d
       -0.01633446 -0.21731432 -0.19159712 0.036487006
0000f0 44 b0 08 be ad e6 91 be 08 98 6b 3c fe 3d af 3d
       -0.1334849 -0.28496304 0.014379509 0.08556746
000100 24 9d a3 bd f6 56 3a be de 65 3c 3d 68 70 75 3d
       -0.079889566 -0.18197235 0.045995586 0.059921652
000110 64 aa d5 bd 1f 35 79 be 63 e7 a1 bc a9 10 c6 3c
       -0.1043289 -0.2433667 -0.019763654 0.024177866
000120 37 e8 04 3d 73 53 19 be c1 37 66 be ce 64 a1 bc
       0.03244802 -0.1497324 -0.22482206 -0.019701388
000130 15 d5 ba 3d 10 ee ca 3d 46 6b 64 be 75 91 64 bf
       0.091226734 0.09908688 -0.22306547 -0.8928445
000140 4e f1 f7 bc 7f a7 c8 be 60 41 a0 3d df 55 cb 3d
       -0.03026643 -0.3919029 0.07824969 0.09928488
000150 2a 29 03 be e3 d2 bc 3e e0 f0 b3 bc 55 a9 f6 3b
       -0.12808672 0.36879644 -0.021965444 0.00752751
000160 be d8 ea be fb d1 a7 bd 7b 11 97 be 3e 23 ff bd
       -0.45868486 -0.081943475 -0.29505524 -0.12457894
000170 87 a9 e4 bd d7 f7 b0 bd 87 46 e0 3c 13 cb 02 be
       -0.11165147 -0.08641022 0.02737738 -0.12772779
000180 42 60 cb be 66 bd 9a bd 02 c7 69 be 98 e3 b8 be
       -0.39721876 -0.07555656 -0.22829822 -0.3611114
000190 ea 5e 24 bf 68 f1 89 bc 7f 31 7f bd f2 17 b3 bd
       -0.6420733 -0.016838744 -0.062303063 -0.087448016
0001a0 40 b8 0a be c3 bd 39 be 23 f6 f1 3b ec cc b4 3d
       -0.13546848 -0.18138795 0.007384078 0.08828148
0001b0 2d b4 3a bd 3a 17 8d 3c 70 9e fe bc 07 5b 16 bf
       -0.045581985 0.01722299 -0.031081408 -0.58732647
0001c0 64 39 a8 bd 63 b5 f4 bc 3e 92 96 3d 1b 2f a4 ba
       -0.082140714 -0.029871648 0.07352112 -0.0012526246
0001d0 0d 5a 7d bd 00 71 98 3d e1 1b 01 bc 6d 33 fb 3d
       -0.061853457 0.07443428 -0.007880182 0.12265668
0001e0 27 f7 7f be 86 c5 27 be 4f 1e 0b 3d ba 7d d5 3c
       -0.24996625 -0.16383943 0.03396445 0.026060928
0001f0 03 d2 92 be d9 51 3d be 7e ea cc 3d a3 46 3d bf
       -0.2867585 -0.18488254 0.10005663 -0.7393591
