src/track_test/config/trackVer13_policyVer4.tflite (tflite, 403500 bytes, 6 tensors)

arith.constant f4 [128]
00000000: b79f e53d ca29 4cbe cca9 e03d d612 38bd
00000010: 1ad0 9c3d 73f7 25bd 8cc0 b0bc d1d3 acbd
00000020: 1977 aebd 25c6 5ebd 4031 893d d57f 77bd
00000030: 0329 d53d 87bf 953c e0d4 f4bb 319d b3bd
00000040: eb15 12bd cc35 b83c ff30 b83d 6412 bfbb
00000050: 8faf 7b3d 7107 debc 5588 9ebd 3329 3bbd
00000060: 4efa f5bc 1ead 8039 da15 54bd 4008 03bd
00000070: 3a04 fdbc 8353 293e 9a64 22bd bd0c 8d3c
00000080: 2ed4 283d 3549 dabd f6b9 2a3e 78c9 adbc
00000090: 0a63 bdbd 887a 6b3d 6472 8c3d a471 2dbd
000000a0: b9d9 58bd 6043 673c 9173 1a3d 9b82 25bd
000000b0: 6936 95bd 861b 05bd fb30 643d 8d42 11bd
000000c0: 4690 31bd b150 f4bc 544b 96bc 19d0 153d
000000d0: a882 33bd 7a4e c63a 78c9 303e c9c3 55bd
000000e0: da31 babd 439d 02be 3456 86bd cc13 1f3e
000000f0: f8da 2e3c ab65 133d caa0 03bd 05f5 f0bd
00000100: 1c09 c9bb c212 4cbd cdc6 8e3d 48e5 a4bd
00000110: 3f2a f4bd 8ffb b3bd 21a8 e2bc 3574 5fbd
00000120: 8c63 323e 23bf cc3d 53ce d2bd 7c06 63bd
00000130: 9b2a 9f3c ebb3 91bd f6c4 54bd ce75 c23c
00000140: 859d 893d f357 58bd 8e39 8bbd 66b3 5a3d
00000150: 1483 4ebd 6512 a5bd 5a32 623e a39a 473e
00000160: 68a8 dabc 381c 29bc 5d18 743c f999 57bd
00000170: 7fdc f5bc a29a 9dbd 2dc7 9fbc 2cf6 f53c
00000180: 83a0 25bd ace0 8ebc eb07 00bd c2a9 c1bd
00000190: df37 113e b8b5 5fbe 23a5 be3c b0ef 723e
000001a0: 98a5 0dbd f0ff 12bd 349d 66bd 6c11 fcbb
000001b0: 1d36 cd3c 25b2 3fbd deff 6fbd b896 bfbd
000001c0: 8d1d c63c a2be a3bd dc86 583d 0f1a 55bd
000001d0: d706 06bd 2d2b afbd 82ff a5bc 67dc 01bc
000001e0: 6a16 22bd a81a 07bd 0bf4 3c3d 3475 a2bc
000001f0: 2b9a aebc 0d1c 23bd 8c56 12bd b577 7dbd
0.11212104 -0.19937816 0.10969886 -0.04493984 0.0765688 -0.04051919 -0.021576189 -0.08438838
-0.0851881 -0.054388184 0.06698847 -0.060424645 0.10408213 0.018279804 -0.0074716657 -0.08770216
-0.035665434 0.02248659 0.0899372 -0.0058310498 0.061446723 -0.027103158 -0.07740847 -0.045693588
-0.030026581 0.00024543045 -0.05177865 -0.03199029 -0.030885804 0.16535763 -0.039646722 0.017217988
0.041217975 -0.106584944 0.16672501 -0.021214232 -0.09247406 0.0574899 0.06857756 -0.042344704
-0.05294201 0.014115185 0.03770787 -0.04040776 -0.072857685 -0.03249695 0.055710774 -0.03546386
-0.04335048 -0.029823633 -0.018346466 0.03657541 -0.043825775 0.0015129589 0.17264354 -0.05218867
-0.0909154 -0.12755303 -0.06559411 0.15534896 0.010672323 0.03598563 -0.032135762 -0.11765484
-0.006135119 -0.049822576 0.06971512 -0.080515444 -0.1192212 -0.08788215 -0.02766806 -0.054554183
0.17420787 0.09997394 -0.102932595 -0.055426106 0.019429496 -0.07114395 -0.05194565 0.023737814
0.067194976 -0.05281825 -0.06798087 0.053393744 -0.050417975 -0.08060149 0.2208952 0.19492583
-0.02669163 -0.010321669 0.014898387 -0.052637074 -0.030012367 -0.076955095 -0.019504154 0.03002461
-0.04043628 -0.017441116 -0.03125755 -0.09456207 0.1418147 -0.21846664 0.023272103 0.23724246
-0.03458175 -0.035888612 -0.056302264 -0.0076925065 0.025050217 -0.04680075 -0.058593623 -0.09354919
0.024184013 -0.07995345 0.052862987 -0.052026805 -0.032721367 -0.08553157 -0.020263437 -0.007926083
-0.039572157 -0.032984406 0.046131175 -0.019831277 -0.021313747 -0.039821673 -0.03572707 -0.06188174

arith.constant1 f4 [4]
00000000: aebb bb3d b159 96bd 2f08 9e3c c836 26bc
0.091666564 -0.07341326 0.019291012 -0.010144897

arith.constant2 f4 [4, 128]
00000000: 36fd 0b3f ba15 38be fc73 9f3d e125 6ebc
00000010: 054d bd3e fb19 5f3d 237b 16bd aa8f c2be
00000020: 6e04 e3be b453 01be 37a0 8e3e 4c97 23be
00000030: e7b8 013f 23d1 d43c c627 5cbd 4eb6 263d
00000040: f016 94bc 05e7 80be 682f ff3e 2745 41be
00000050: c66d 79be d00d a4be f6d6 0b3e dc30 043c
00000060: 8502 ec3c d947 433c 9949 57bd 834f 37bb
00000070: 2142 c53c f715 d73e 92fc 613d de14 95bd
00000080: d8eb ec3d a8db 74be 7f30 7f3e be87 b8be
00000090: d2f7 563d 8b86 483e 09c7 f03e acfe 4dbb
000000a0: 5275 04bd f6c1 d6be aea1 0bbe 8ef3 693d
000000b0: 087f adbb b76f 78be 7272 ff3d a011 193e
000000c0: 6512 a23c 10ac bbbc b06a ec3a 0a80 22be
000000d0: e8f1 08be 4e80 fb3d 794e 793e a670 15be
000000e0: 52cb 293d adb5 ba3b b665 70be 31c2 aa3b
000000f0: 4f67 3ebb 44d4 6d3c 6d7f b53c 0c42 f1be
00000100: 7d8e 0a3c 0284 e23c 1692 973e 2c94 6ebd
00000110: b52d 25be 07d7 97be 3f61 b9bb 7a7e 78bd
00000120: 113b a93e 0225 af3e 6623 283e 26cc fcbd
00000130: db58 8dbe 9554 79be ddfa 1c3d a0fd 17be
00000140: 6156 74bc 7923 2bbe d265 a3be 80e1 a73d
00000150: 0cb7 7a3c 276f b1bd 2759 803e df59 ed3e
00000160: 2f6e 113e ab54 5fbd a85a cd3d ebf5 cfbd
00000170: 5306 18bb bb32 8fbe a44c 793a 0670 1f3f
00000180: 48d7 09bd b377 0cbc 8eea eb3c cc89 b1be
00000190: 7812 df3d 1585 62bd 47fa ccbd 3cc1 033f
000001a0: 2a25 82bd 4ea7 f2bd 790d 783d 8cfb 053e
000001b0: 5fc2 86be c9b8 28be e9ef bc3d 816d 59be
000001c0: 1a0d 963e b792 16be 4f02 d63d ac85 17bd
000001d0: 185d 143d 00ca 5abe b71f cc3d 4a47 49be
000001e0: 874f ecbc 2037 533c 69b9 8ebd 039a 4c3e
000001f0: c3eb 54be be19 803b e9c7 043e b48f cd3d
00000200: 8b9c 28be f118 9e3e a59a 09be 438a 59bd
00000210: 2c9f 4abe 0b02 5b3d 9f1b 00bc 7b2d a03e
00000220: d74f 12be 998b 833c ff55 e7be ae3a 073e
00000230: 0b68 873d c888 493d 189d b1bd 5df1 2f3e
00000240: 100f 9cbd 1bcf c5bd e65c 7dbe 7768 593e
00000250: ff0e c33d 939a e63d ded9 5bbd b73c 1bbd
00000260: a1a5 e5bb 5ccc 913e 1d2e fc3d c7e7 793d
00000270: 9ca4 c93c f715 a4be 70a1 2f3d 9c35 933d
00000280: 29ff 9b3e dfe9 603e e7d2 2dbf 6cb0 c4bd
00000290: 3be5 b53e b8ce b8be fc18 13bf b319 1ebd
000002a0: 5311 ad3d 30da e4bd e840 1a3e be7a 17bd
000002b0: 89cc 833c 731b 8a3e e800 c9bd 1886 86bd
000002c0: 7a10 50be ecc2 56bd 9e22 853d dc9f 243e
000002d0: 7db2 453e 4c1d c4be a41e 0cbf 4cf2 1ebd
000002e0: 0b71 d7bd 0f26 0dbe e459 1d3d 619d d2be
000002f0: 4dc9 f7bd 55cc 9e3d f25b 983e 285e 7ebe
00000300: 568b 66bd 8f1b 653d f08d 01bf c29a 1d3f
00000310: 1322 5c3e 3ae8 973c 6774 14bd 5a92 7d3e
00000320: 44bf 60be a762 aebe 1020 4a3e 2c7d 2f3e
00000330: 70f1 3c3e 7e77 aa3e f55d 22bd 4445 d73e
00000340: 38a8 e6be 2eb1 973e 9f9e f63d 4302 85be
00000350: 117e 203e 07c5 d13e e6b6 d2be f467 f3be
00000360: 73ab b4bc 005d ae3d 8ccd dabe c379 853d
00000370: 014d 763b 954c 7d3e 27a4 7e3d 5028 16be
00000380: 9c02 31bd 4871 46bd 9ed5 b8bc 2129 be3e
00000390: 3baf 24be 3fcb 123e 11e4 6fbe ab8d 17be
000003a0: ab76 81bc ba59 e7bc 1480 803e 765b a5be
000003b0: b54a b83d 5c65 9fbd 68bd a9bc 4821 293d
000003c0: c8dc 553e d67c 183f 8eeb 0bbe 67df 653d
000003d0: e422 89bc e73a 943d d40e a13a 3e74 c43c
000003e0: 7fdb 1dbe 9ae2 af3d 7d0d 263d ee66 d73c
000003f0: c9d2 a03e 9b9e 12be c202 05bd bfa3 7f3d
0.54683244 -0.17977038 0.07785794 -0.014535398 0.36972824 0.054468136 -0.036738526 -0.38000232
-0.44339317 -0.12629586 0.2785661 -0.15975684 0.50672764 0.02597863 -0.05374887 0.040701203
-0.018077344 -0.25176254 0.49840856 -0.18874036 -0.24358281 -0.32041788 0.1365622 0.00806829
0.028809795 0.011918985 -0.052560423 -0.0027970977 0.024079384 0.42008945 0.05517251 -0.07279371
0.11568421 -0.23911917 0.24920844 -0.36041063 0.052482434 0.19582574 0.47026852 -0.0031432314
-0.032338448 -0.41944855 -0.13635895 0.057117037 -0.0052946843 -0.24261366 0.124730006 0.1494813
0.019784162 -0.022909194 0.0018037166 -0.15869156 -0.1337353 0.122803316 0.24346341 -0.14593753
0.041453667 0.005697927 -0.234763 0.0052111377 -0.0029053276 0.01451594 0.022155488 -0.47120702
0.008456823 0.027650837 0.29603642 -0.058246776 -0.16130717 -0.2965624 -0.0056573446 -0.060667492
0.33052877 0.34207922 0.16419753 -0.12343626 -0.27606854 -0.24348672 0.03832518 -0.14842844
-0.014913172 -0.1671275 -0.3191362 0.081973076 0.015302431 -0.08663779 0.25068018 0.4635763
0.14202188 -0.054524105 0.10027057 -0.10154327 -0.002319713 -0.27968392 0.00095100165 0.6228031
-0.033652574 -0.00857346 0.028798368 -0.34675443 0.108921945 -0.0553027 -0.10008674 0.5146673
-0.06354745 -0.11848317 0.060559724 0.13084239 -0.26320168 -0.1647674 0.09225447 -0.21233179
0.2930687 -0.14704405 0.10449659 -0.036992714 0.036221594 -0.2136612 0.099669866 -0.19656101
-0.028846515 0.012891561 -0.06968958 0.19980626 -0.20793061 0.0039093187 0.12966885 0.10037175
-0.16465966 0.30878404 -0.13437898 -0.053110372 -0.19787282 0.053468745 -0.007819085 0.312847
-0.14288269 0.016057776 -0.45182797 0.13205978 0.066116415 0.04920271 -0.086725414 0.17181917
-0.076200604 -0.09658643 -0.24742469 0.21231256 0.09524345 0.112599514 -0.05367457 -0.0378997
-0.00700827 0.28476226 0.12313483 0.061012056 0.024614625 -0.32048008 0.04287857 0.071879596
0.3046811 0.21964215 -0.67899936 -0.09603962 0.3552645 -0.36095214 -0.5746 -0.038598727
0.0845057 -0.111744285 0.15063822 -0.03698229 0.01608874 0.26974067 -0.09814626 -0.06568545
-0.20318785 -0.052431986 0.06500743 0.16076607 0.19306369 -0.38303602 -0.54734254 -0.03880529
-0.10519608 -0.1378405 0.038415805 -0.41135696 -0.12098942 0.07753817 0.2975765 -0.24840605
-0.056285225 0.055934485 -0.50607204 0.61564267 0.21497373 0.018543351 -0.036243822 0.2476286
-0.21947962 -0.3405964 0.19738793 0.17137593 0.18451476 0.3329429 -0.039640386 0.42045033
-0.45050216 0.29627365 0.12041973 -0.25978288 0.1567309 0.40970632 -0.41155165 -0.47540247
-0.02205441 0.08513832 -0.42734945 0.06517365 0.003758252 0.24736245 0.062168267 -0.14663815
-0.04321538 -0.048447877 -0.022562798 0.37140754 -0.1608247 0.14335345 -0.23426844 -0.14800136
-0.015803656 -0.028241027 0.25097716 -0.32296342 0.08998624 -0.07783005 -0.020720199 0.041291505
0.20885003 0.59565485 -0.13664076 0.056121256 -0.01674027 0.07237797 0.0012287744 0.02398121
-0.15415762 0.08588143 0.040540207 0.026294198 0.31410816 -0.14318316 -0.032473333 0.06241202

arith.constant3 f4 [128, 128]
00000000: 19f8 85bd f701 7bbd 55e0 503e da2b b0be
00000010: 1e74 abbe 96da 123c 68fa ae3e f1ef fc3d
00000020: e9c9 4dbe 9d47 a13e b222 80be e76d 013c
00000030: 9c1c 09be 37a8 19be da0a a43d 65cb 0abe
00000040: f7d2 5dbb 0ec3 0dbe 7590 ba3c 415e af3d
00000050: c227 b3bd 1c31 7abd c085 cfbd 8ab6 b53d
00000060: 080f 39be 066c 34bb 8f64 dbbc c5cd bc3d
00000070: 89c5 8dbe 51a1 50be a002 b93d 9686 82be
00000080: a3f9 81bd fa8f ca3d 8948 fdbd ee7a 713d
00000090: 75fe aabd d3ad 713e 4b75 8abd bf5c a73e
000000a0: e587 833c a002 9c3e 0f4f 83bc 82b0 4b3e
000000b0: 7e14 5bbd f313 3f3d c8be f13d e527 bf3d
000000c0: 8f3e c13d aede 91bc 4e13 16be 3edf 86bc
000000d0: 25db 31be 2cff 263e d5a7 293d 8bc3 96bc
000000e0: c509 963e 56d8 643e 9e34 32be 6c31 c0be
000000f0: 546d 143d 5113 253e 9403 52bd 8593 a1bd
00000100: 1167 29bd 08f7 9ebe 3d07 c4bd 6b20 01bd
00000110: c17e ac3d 3d22 723e e4a8 973e 3cee 033e
00000120: 9ff0 afbd eee9 873e c6bc ccbc 1c07 f43e
00000130: d79b 66bd ea57 a2bc 4174 aabd d702 083d
00000140: 190c 3d3e aab9 46be c3ea f43d 2efb 1e3e
00000150: 71a9 003e 8bb4 91be 8387 2fbe f0ba 8d3d
00000160: 2ce3 f13d 33ea 7f3e 256e 47bd d106 d5be
00000170: 890d 1fbd f720 273c f035 ee3e 8d89 42be
00000180: 8153 21bd 28c4 6e3d c1be 2abe 1693 88be
00000190: dacf e93e 71b1 be3e 935d bcbd c282 e63d
000001a0: 7f36 453c e9b6 c73d b59a 6f3d 3e45 ec3d
000001b0: 143c 28be 9d7c 423e ac4d 4a3d be50 cd3c
000001c0: d217 c3be 337f 693d c1f2 a73e 95bb 413d
000001d0: 56d8 08be 0ad5 123e 7aa9 2d3d c8af 2fbe
000001e0: b8d3 093c b630 89be 8481 143d af36 bebc
000001f0: 1f79 b83c df2d a93e ba6b 99bd 9639 04be
00000200: 3839 533e a6b9 eb3d 251d a0bd 08c8 39bd
00000210: c0f9 3d3e baf1 65bd 0e06 d7be 15ea fdbb
00000220: 78c9 9fbe a459 9c3d a4dd 763e 4cf5 60bd
00000230: 97b4 a03d 2d96 8f3d 7fd6 393d 4119 a63e
00000240: 1774 1ebe 6cff 53be ce6f 2ebe c463 edbd
00000250: dfaa 393e ff4b 51be 6456 973e 97d5 533d
00000260: ddd8 103d f143 f93d acad 2a3d d211 033e
00000270: ab70 c43d 0133 7c3e dd9c 283d eed7 613e
00000280: 93c3 253e f8d7 d43d b07a ccbd 4f6a 233e
00000290: 039c 063e 8e67 e0bd db70 9a3d 9243 a43b
000002a0: fb2c 12bf d727 81bd b305 c53e e7ac 8ebc
000002b0: cae5 1b3e e38c 8e3e 1743 b3bc 9b20 0ebd
000002c0: a918 d83d e40e 553d 6fe2 3d3e f89c 003d
000002d0: 37a5 3b3e ca1a 8c3e 25b0 9a3e f36b 463e
000002e0: 6315 02bd 3844 00be 9f74 ce3e ae51 c73d
000002f0: f5d2 4b3e 24e8 f5bd 3b61 a03e 0b16 00bd
00000300: 5e11 cc3e 10a5 b63e 0fd2 e83e c6a2 3d3e
00000310: ba13 033d ce53 8a3e 8150 c8bb 8471 94bc
00000320: 8a9f 543e 2058 d1bd 0d5e c93d e9b1 ae3b
00000330: e67f d1bc 0d03 143c bd7c dd3d afdf 0c3e
00000340: 8737 89be 9c11 563e 1fd2 1c3d 29b3 86bc
00000350: 536a b9bc 0397 e53e 0699 3a3e 2880 e0bd
00000360: 857a f03d a183 573e 5fd4 d13d 022e 563e
00000370: 4aa7 5abd 16cb ab3d 05c5 6bbe 8b78 cc3d
00000380: 1ae8 1abd b130 27be 269e 373e f0ea 5d3e
00000390: 1dee 0ebf 8adc 55bc e72f 1f3e 8519 893d
000003a0: a353 843d 20d4 343d c11a 433e 43d6 193d
000003b0: c785 963e 3833 debe d2c4 70bd cbec 73bd
000003c0: b182 9f3e ebcc aa3e ebaf bbbe 1745 28be
000003d0: 9501 913e a36f c5be 29ef 6c3e f09f e13d
000003e0: 1b26 3d3e f65e 6d3e b19a 113e be9e 7b3e
000003f0: a35d 103d 687f 08bf d4aa 9c3e 3d30 d8bc
-0.065414615 -0.06128117 0.20398076 -0.34408456 -0.33487028 0.008963248 0.3417542 0.12350453
-0.20096554 0.3149995 -0.2502647 0.007899738 -0.1338982 -0.15005575 0.08009882 -0.13554151
-0.0033847669 -0.13843939 0.02277396 0.085628994 -0.087478176 -0.06108199 -0.10132933 0.08872707
-0.1807214 -0.0027530207 -0.026781349 0.09218935 -0.2768977 -0.20374037 0.09033704 -0.25493306
-0.063464426 0.098907426 -0.123673506 0.058955126 -0.08349315 0.23601465 -0.06760653 0.32687947
0.01605601 0.30470753 -0.016028909 0.19891551 -0.05348634 0.046649884 0.11803967 0.09333781
0.0943576 -0.017806377 -0.14655802 -0.016463872 -0.17368753 0.16308278 0.041419823 -0.018403789
0.2930433 0.2234815 -0.17402884 -0.37537706 0.036237076 0.1612065 -0.051272944 -0.07889465
-0.041358057 -0.31047845 -0.09571693 -0.031525057 0.08422614 0.23645873 0.2962104 0.12883848
-0.08590817 0.26545662 -0.024992358 0.47661674 -0.056300964 -0.019817311 -0.08322955 0.033205833
0.18461646 -0.19406763 0.1195884 0.15525505 0.12564637 -0.28458056 -0.17141537 0.06920421
0.11810908 0.24991684 -0.048689026 -0.41606763 -0.038831268 0.0102007305 0.46525526 -0.18997784
-0.039386276 0.058292538 -0.1667433 -0.26674718 0.4566639 0.37244752 -0.09197535 0.11255409
0.012036919 0.09751684 0.05849715 0.115366444 -0.16429168 0.18992849 0.04939048 0.025062915
-0.3810411 0.057006072 0.32802394 0.047298033 -0.13363776 0.1433908 0.042397954 -0.17156899
0.008412294 -0.26794976 0.03625633 -0.023219435 0.022518693 0.3304281 -0.0749125 -0.12912592
0.20627296 0.11510019 -0.07818059 -0.04535678 0.18552303 -0.05613873 -0.41996807 -0.007748852
-0.31208396 0.07634285 0.24107987 -0.054921433 0.07846945 0.07011066 0.045370575 0.32441142
-0.15473972 -0.20702904 -0.17034838 -0.115912944 0.18131588 -0.20439146 0.29558098 0.051717367
0.035363067 0.12171162 0.041669533 0.12799767 0.09591802 0.24628831 0.04116522 0.22055027
0.16187887 0.10392755 -0.09984338 0.15958522 0.13145451 -0.109572515 0.07541057 0.005012938
-0.57099885 -0.06306427 0.3848091 -0.01741643 0.15224376 0.27841863 -0.021882577 -0.034699064
0.105515786 0.052016154 0.18543409 0.031399697 0.18324743 0.27364188 0.30212513 0.19377117
-0.031758677 -0.12526023 0.4032335 0.09732376 0.19904692 -0.12007168 0.3132418 -0.03127102
0.39857 0.35672808 0.45472762 0.18519124 0.032001235 0.27017063 -0.0061131124 -0.018120535
0.20763984 -0.10221887 0.09832392 0.005331267 -0.025573682 0.0090339305 0.108148076 0.13757204
-0.26800177 0.20905155 0.038286325 -0.016442852 -0.022633707 0.44841775 0.18222436 -0.10961944
0.11742119 0.21046306 0.10245585 0.20915988 -0.053382196 0.08388345 -0.23024376 0.09983929
-0.037819006 -0.16327168 0.17931423 0.21671653 -0.5583208 -0.013053069 0.15545617 0.066943206
0.06461265 0.04414761 0.19053175 0.03755785 0.2939894 -0.43398452 -0.058781452 -0.059551995
0.31154397 0.33359465 -0.36657652 -0.16432606 0.2832152 -0.38561735 0.23138107 0.11016834
0.18471567 0.23180756 0.14219166 0.24572274 0.03524555 -0.53319407 0.30599082 -0.02639019

sequential_1/dense_0_1/MatMul f4 [128, 650]
00000000: 82b1 bbbc adf8 9a3d 04ae 403e e0b1 c23d
00000010: 5e32 a83e 9a08 c4bd a147 4cba 465d 523d
00000020: 1ef5 cfbe 9889 28be d9ae 92bc bf61 3bbd
00000030: bc80 8c3d 6722 3dbd e1cc c73c 9712 283e
00000040: cf29 ec3d 929f 913e ae01 7dbd ac7c 9e3c
00000050: fac8 913d 21ae cebe 327e 3fbe 4046 573b
00000060: f73d 76bb 1500 173e 1e3e b1bd 77ab d73d
00000070: 50b2 293d 675a 913d 870b 923e 2bec 89bd
00000080: 98ae 60bd eef3 a43c 77f9 b2be 319e 1cbe
00000090: 7955 383d 532a 81bd f652 f93d fcf1 9fbd
000000a0: 71ca b13d 294b 9a3d b184 c43d 2637 a13e
000000b0: c94e 93bd f708 323d 8135 9a3d 7374 9cbe
000000c0: 9d33 60be 23c4 8d3d b83d 00bc 920e 043e
000000d0: 5c29 b0bb 6247 133e c5cc 313d 3523 eb3d
000000e0: 3e0c 993e bf70 cfbd 22f2 da3c 1da5 343d
000000f0: 899b a7be 5050 2cbe 1f68 4a3d 47c1 21bd
00000100: 28a3 d63d 03f4 4e3c 0e59 023e 3bac 10bc
00000110: 1612 953d b968 8c3e e6a6 9fbd 0e58 e5bc
00000120: 3dc8 023d 7a2f 9ebe d55d 2dbe fe6c dc3c
00000130: 0755 893c baad 153e 10c0 343d 6b98 883d
00000140: 4200 9f3b 223f d53d a158 813e 5a76 0bbd
00000150: ae13 cf3c d7be 053d 316e 89be e143 24be
00000160: e0ea 963d 9c42 50bb 9de2 2c3e 4643 583c
00000170: a28f dc3d 5045 ec3d 343f ab3d ca05 803e
00000180: d077 a8bd f886 013d e3ec 943d fa46 82be
00000190: 50ec f2bd 00e5 d03d 78c4 a6bc d243 213e
000001a0: aeb4 8b3d 3028 93bc eaa3 c3bd 58f0 083e
000001b0: 32a0 8e3e e0fa c6bd 0cda 96ba 1ae1 173c
000001c0: 9ace 95be 32f3 4bbe 8a7c 9f3d 03fe 9f3d
000001d0: 7362 453e aaae eb3c 0fe3 be3c d33c eebd
000001e0: e0c5 033e 8e4d 9b3e d583 d3bd 2c65 973d
000001f0: fc39 793d f3bb 4bbe f409 33be 1b0d 5f3d
00000200: 6c59 943d 6dfe 3e3e 4cf6 a43d bf3a af3d
00000210: 13e8 42be 461e c83d 1ff8 943e 03f6 143b
00000220: 7263 703d 26c1 093d 9d58 69be 32a1 5dbe
00000230: dc95 4b3d eafb a23d 6254 173e ae25 9a3d
00000240: 1874 593d f0bf 02be a6ca aa3d 95aa 9c3e
00000250: 8ee5 4bbd ed2b 1c3d 1250 cdbc 00de 53be
00000260: 0bda 32be 4b6b d63c 6306 c93d e24a 1f3e
00000270: f512 ec3d d445 513d 5bc8 be3b 3a52 9e3d
00000280: 2ee2 8b3e c406 c5bc 4a51 4a3d c831 073d
00000290: 35d7 58be 4427 38be ec28 103d 6838 8c3d
000002a0: 70fc 1a3e 7e31 c33b a575 bc3c d14d cc3c
000002b0: 2eac a73d 8afd 7a3e 6fe5 1dbd a57a 8f3d
000002c0: 5e90 fa3b e239 41be aae8 15be fed0 81bc
000002d0: 91ac 933d 452b 163e 8bd8 823b e78c e63d
000002e0: 3bc9 78bb da57 2a3e bd44 7e3e 9828 92bc
000002f0: 5fb8 933d e0a7 f93c d257 26be eb5f 19be
00000300: 2b74 b33c e425 703d ad4e 253e ed8c dc3c
00000310: b88a 1c3e 1a4a 783d cc8b 283e 882d 643e
00000320: 001d 333d 51f7 283d 1a35 b83c 6045 f2bd
00000330: 16d8 f9bd eea4 313c fdbe f83d e651 223e
00000340: a064 163d 0d1f f0ba 2912 71bd eada 403e
00000350: 72bf 533e 48c0 043d cbd7 683c ccf2 e63c
00000360: e08d cebd 7ae6 0cbe a7eb 08bc fd0f 853d
00000370: e0f4 203e 884b a03c 5ee0 75bd a850 debd
00000380: 29d0 483e 6513 543e c2f9 a73d 7806 6e3d
00000390: f838 223d f67f 91bd 159a 65be b47d 88bd
000003a0: befb 523d d21c 2d3e 2a36 cdbc c07b ccbc
000003b0: b550 88bd f5d7 533e d05e 513e c8d7 4e3d
000003c0: 98de 773d 1237 f73c f96d 7cbd 5c2d 18be
000003d0: 4ca8 bebc b6b9 b43d 0a15 e83d e4d9 7abd
000003e0: 1fc0 e4bc b28e 2cbd bcd1 383e bbda 463e
000003f0: 17ce 013e 5096 f03c 57ea b53c ffbb 72bd
-0.02291179 0.075669624 0.18816382 0.09506583 0.32850927 -0.09571953 -0.0007792656 0.051358484
-0.40616697 -0.16458738 -0.01790564 -0.045747515 0.06860492 -0.046175387 0.024389686 0.16413341
0.11531412 0.28442055 -0.06176918 0.019346558 0.07118411 -0.40367225 -0.18700483 0.0032848269
-0.0037573555 0.14746125 -0.08654426 0.10530751 0.041429818 0.07097321 0.2852442 -0.067344986
-0.054854006 0.020135846 -0.34955952 -0.1529472 0.045003388 -0.06306901 0.12174027 -0.07809827
0.08681191 0.07533867 0.095956214 0.31487387 -0.071927615 0.04346558 0.07529736 -0.30557594
-0.21894689 0.06922176 -0.007827215 0.12896183 -0.005376024 0.14382699 0.043408174 0.114813246
0.29892153 -0.101289265 0.026726786 0.044102777 -0.3273585 -0.16827512 0.049415704 -0.039490964
0.10480338 0.012631419 0.12729284 -0.008830125 0.0727884 0.27423647 -0.07795505 -0.02799609
0.031929243 -0.30895597 -0.16930325 0.02690744 0.016764177 0.14617053 0.044128478 0.066696964
0.0048523257 0.10412432 0.2526293 -0.034048416 0.025277939 0.032652702 -0.26841882 -0.16041519
0.073690176 -0.0031777984 0.16883321 0.013199633 0.10769583 0.11536658 0.083616644 0.25004417
-0.082259774 0.031622857 0.07271745 -0.25444776 -0.11861479 0.10199928 -0.020357355 0.15748528
0.06821571 -0.017963499 -0.095527485 0.13372934 0.27856594 -0.09715819 -0.0011509075 0.009269977
-0.29259187 -0.1991699 0.07787426 0.07812121 0.19275837 0.02876981 0.02330163 -0.11632695
0.12868452 0.30332607 -0.10327879 0.07392344 0.060846314 -0.19895916 -0.17484266 0.054455858
0.07243618 0.18651743 0.0805479 0.08556127 -0.19033842 0.09771399 0.2909555 0.0022729642
0.05868859 0.033631466 -0.2278771 -0.21643522 0.049703464 0.07958205 0.14778283 0.07526718
0.05308923 -0.12768531 0.08339433 0.30598894 -0.049779467 0.03812783 -0.025062595 -0.20690155
-0.1746599 0.026174208 0.09815671 0.1555591 0.11527053 0.051091984 0.005822224 0.07730527
0.27321 -0.024051078 0.04939393 0.03300646 -0.21175845 -0.17983729 0.035195276 0.06846696
0.1513536 0.0059568277 0.023005316 0.02493945 0.081871375 0.2451078 -0.038548883 0.070058145
0.0076466044 -0.18869737 -0.14639536 -0.015846726 0.07210649 0.14664944 0.003993099 0.11257344
-0.003796174 0.16635075 0.24830909 -0.017841622 0.072129 0.030475557 -0.16244438 -0.14977996
0.02190598 0.058629885 0.16143294 0.026922667 0.15287292 0.060617544 0.16459578 0.22282994
0.04372883 0.041251484 0.022486258 -0.118296385 -0.12199418 0.010842545 0.12145803 0.15851554
0.036717057 -0.0018319801 -0.05885521 0.18833509 0.206785 0.032409936 0.014211605 0.028191946
-0.10085654 -0.13759795 -0.008356965 0.0649719 0.15718412 0.019567266 -0.060028426 -0.10855228
0.19610657 0.20710523 0.082019344 0.058111638 0.03960511 -0.07104485 -0.22422059 -0.06664601
0.05150961 0.16905525 -0.025050242 -0.024961352 -0.06656019 0.2068785 0.20446324 0.050498754
0.060515016 0.030177627 -0.061628316 -0.14861053 -0.02327361 0.08824484 0.11332138 -0.061242953
-0.027923642 -0.042128272 0.18048757 0.19419377 0.12676273 0.02936855 0.022206469 -0.05926132

sequential_1/dense_0_1/Relu;sequential_1/dense_0_1/BiasAdd f4 [128]
00000000: bbda a2be 48be ebbc ca68 8cbe ebe5 99bd
00000010: 3c8c 42bd 2d97 04be 9a9a 423e 23d7 69be
00000020: afc9 eabd fcca 99be 82d5 07be a1f5 f7be
00000030: 86b0 75be 76a8 ee3b b3ef dabe ead2 dabc
00000040: b39d d7bd fc5d 403e 3efb 0b3e d8e8 3e3e
00000050: 6b4d adbe 15c8 f8bd 94f2 63bd eb21 93bd
00000060: a39c b5bd a565 a9be f476 1cbe 5cd8 56be
00000070: 251d 943d d8ab 1b3d 6e2d c1bd 790d ff3a
00000080: e362 c1bd f2b5 6fbe 610d ccbd 72b8 e53d
00000090: 9b0c 94be 3421 613a c255 d2be f567 89bd
000000a0: 4c98 be3d 643d dc3d e0e3 24be 84ca c6be
000000b0: f227 6dbe 194d cabd b0e3 2fbf 1758 82be
000000c0: 7ac4 82bd 300e e0be 2b22 12be 40f3 863c
000000d0: 5c74 b3bd 98da 8cbd a0f4 32be 491f 79be
000000e0: 991e d9be cfb0 adbe 642d c1bd 0436 3bbe
000000f0: dcf3 a0be a644 373e 3c0d 0bbd 2122 c0bd
00000100: 4014 e43b 10e2 4dbe 9dd1 b6bd bf8f e3be
00000110: 4ac6 723d d474 dabd 0ec3 d8bd bc45 b7bc
00000120: 6ee3 88bc ad0e 23be 0003 84be a493 d03c
00000130: a1af 8ebd 0569 73bd e624 2c3e 5035 94be
00000140: ce42 433e 0dc5 9dbe 8048 cabd 2add 80be
00000150: f4b7 76be 25e3 7abd e8f8 f83d b394 debd
00000160: 82b8 c3be 260a b1be 47c5 c7be c2d2 1abd
00000170: 8cda 0fbb 0656 c5be 26dd 6b3e 83a6 cfbd
00000180: 21af dabd 3f66 84be 83fc 51bd 61ec 66bd
00000190: ebe9 8c3e 787d 39bf fd4b 31bd f5c1 6bbe
000001a0: 8fbf 46be c220 d8bc 8184 25bd 9294 e5bd
000001b0: 8d67 b53c 433b 8c3e 8ab7 a83c 8331 8cbd
000001c0: 6027 8fbc 4990 90bd 4de1 d53d f7b2 dd3e
000001d0: dd43 d6bc 06e2 4e3e 8801 65be bf16 a6bd
000001e0: 12d7 c0be 3762 44bd e553 12be ac7a 5cbe
000001f0: ad3a 5bbd 3716 943e 4385 93bd 6b3f 773e
-0.31807503 -0.028777257 -0.27423698 -0.075145565 -0.04749702 -0.12948294 0.19004288 -0.22835974
-0.11464249 -0.30037677 -0.1326504 -0.48429587 -0.2399312 0.0072832657 -0.42761 -0.0267119
-0.105281256 0.18785852 0.1367006 0.1864351 -0.33848128 -0.121475376 -0.055651262 -0.07184204
-0.08867767 -0.3308536 -0.15279752 -0.20980972 0.072321214 0.03800568 -0.09432493 0.0019458971
-0.09442689 -0.2340925 -0.09963489 0.11216821 -0.28915867 0.00085880165 -0.41081053 -0.06709281
0.09306392 0.10753897 -0.16102552 -0.38826382 -0.23159769 -0.098779865 -0.687068 -0.25457832
-0.06385131 -0.43760824 -0.14270847 0.016473413 -0.08762428 -0.06877631 -0.1747613 -0.2432834
-0.42406157 -0.33923957 -0.09432486 -0.18282324 -0.3143605 0.17897281 -0.03394817 -0.093815096
0.006960422 -0.20105767 -0.08926699 -0.44445607 0.059271134 -0.106668144 -0.10584079 -0.02237212
-0.01671001 -0.15923567 -0.2578354 0.025461026 -0.06967092 -0.059426326 0.1681095 -0.28946924
0.19068453 -0.308144 -0.098771095 -0.25168735 -0.2409361 -0.06125178 0.1215685 -0.10868206
-0.38226706 -0.34578055 -0.39017698 -0.03779865 -0.0021950332 -0.38542193 0.2303358 -0.101391815
-0.106779344 -0.25859258 -0.051266205 -0.056377772 0.27522215 -0.72457075 -0.04328536 -0.23023207
-0.19409011 -0.026382808 -0.04040957 -0.11209978 0.022144103 0.27388963 0.02059533 -0.06845381
-0.01747483 -0.0705877 0.10443363 0.43300602 -0.026155407 0.20203409 -0.22363865 -0.08109807
-0.37664086 -0.047945227 -0.14289816 -0.2153117 -0.053522754 0.289232 -0.07203152 0.24145286
