src/track_test/config/trackVer17_policyVer1.tflite (tflite, 405048 bytes, 6 tensors)

arith.constant f4 [128]
-0.029224651 0.019788643 0.0039122337 -0.013115508 0.019466538 -0.0062037064 0.039964072 0.019668968
-0.013185272 -0.0049300627 0.023305189 0.014338974 0.018609816 0.04304181 -0.01619472 -0.013704475
-0.009536812 0.017471217 0.03320378 0.021001263 -0.00349716 0.014418875 -0.022215638 0.026760293
-0.013565359 0.0050688884 -0.0004762262 0.01557401 0.005763578 -0.00826293 -0.00699516 0.019581456
0.034294233 0.0020757064 -0.0052849744 0.028316418 0.008049273 0.013590829 0.0018483902 0.016285393
-0.060592093 -0.02769203 -0.0069544776 -0.0025757323 0.007804568 0.021189816 0.016635194 -0.016093254
-0.0022392764 -0.014311879 0.1067205 -0.0021109034 0.02095656 0.012324079 0.014638522 0.026390996
0.022845965 -0.0074282913 -0.006094965 -0.00997675 -0.0123358 -0.0040669865 0.021167114 0.041346423
-0.03169224 -0.0034743724 0.02126093 0.00777212 0.0065294043 0.016035626 -0.021272996 0.04118066
0.014736479 0.01559165 0.003734403 -0.0032684908 0.0114056 0.01187242 0.012238792 0.0006135278
0.033046536 0.016369078 -0.008369694 0.029959548 0.019200517 -0.02167227 0.0058682095 -0.00013481402
0.00014210441 0.022803387 0.036967102 0.027139148 0.027636915 -0.0042203334 0.029380195 0.016978733
0.0040935827 -0.032287095 0.01528473 -0.0017433675 0.01896473 0.016661528 -0.0009803479 0.042179853
-0.011714558 0.012990749 -0.020707533 0.008999142 0.01895244 0.012501957 0.024315521 -0.004841757
0.07737638 0.010486411 0.016597142 0.0046047596 -0.007993478 0.012150994 -0.013051554 -0.06338122
-0.020952294 -0.0010812924 0.0059942715 -0.019717483 0.009994861 0.01247608 0.034723688 0.010058507
00000000: 8968 efbc cb1b a23c 3232 803b 6de2 56bc
00000010: 4a78 9f3c 7648 cbbb 5eb1 233d d120 a13c
00000020: 0a07 58bc 5d8c a1bb 86ea be3c 04ee 6a3c
00000030: 9d73 983c 9c4c 303d caaa 84bc bc88 60bc
00000040: 4a40 1cbc cc1f 8f3c b000 083d d70a ac3c
00000050: 9c30 65bb 253d 6c3c 92fd b5bc 6738 db3c
00000060: 3d41 5ebc eb18 a63b 00ae f9b9 222a 7f3c
00000070: 66dc bc3b 3e61 07bc a837 e5bb 4a69 a03c
00000080: 1c78 0c3d 9308 083b 942d adbb d5f7 e73c
00000090: 19e1 033c 12ac 5e3c af45 f23a f268 853c
000000a0: 6a2f 78bd 65da e2bc 63e2 e3bb 9ecd 28bb
000000b0: 76bd ff3b 4496 ad3c 8846 883c 00d6 83bc
000000c0: d3c0 12bb 5f7c 6abc 4790 da3d 1557 0abb
000000d0: 17ad ab3c efea 493c 69d6 6f3c ee31 d83c
000000e0: 7627 bb3c 0669 f3bb 46b8 c7bb 8675 23bc
000000f0: 181c 4abc 5b44 85bb a866 ad3c de5a 293d
00000100: b9cf 01bd 4cb2 63bb 672b ae3c 45ad fe3b
00000110: 9df4 d53b 255d 833c b544 aebc 0dad 283d
00000120: 4671 713c 1f74 7f3c e3bc 743b 2d34 56bb
00000130: 8ede 3a3c 8a84 423c 3785 483c 27d5 203a
00000140: ce5b 073d 7218 863c 0b21 09bc ba6d f53c
00000150: 674a 9d3c 0b8a b1bc 1c4a c03b dd5c 0db9
00000160: dd01 1539 2bce ba3c d16a 173d eb52 de3c
00000170: d066 e23c b94a 8abb bcae f03c fc16 8b3c
00000180: 7623 863b 793f 04bd ce6c 7a3c b581 e4ba
00000190: ec5b 9b3c c27d 883c 047f 80ba c8c4 2c3d
000001a0: 6bee 3fbc 27d7 543c d8a2 a9bc 2371 133c
000001b0: 2642 9b3c 02d5 4c3c 5831 c73c 9aa7 9ebb
000001c0: 8277 9e3d 32cf 2b3c bbf6 873c 86e3 963b
000001d0: 14f7 02bc f614 473c 2fd6 55bc 03ce 81bd
000001e0: 25a4 abbc 27ba 8dba 986b c43b 8f86 a1bc
000001f0: 7cc1 233c 7968 4c3c 6d3a 0e3d 70cc 243c

arith.constant1 f4 [7]
-0.009593049 0.00075245835 0.017856024 -0.0042915093 0.0973643 -0.14037722 -0.03379324
00000000: 2a2c 1dbc a040 453a cc46 923c ca9f 8cbb
00000010: ef66 c73d 0cbf 0fbe c86a 0abd

arith.constant2 f4 [7, 128]
0.08186199 -0.18079373 -0.04882983 0.12409105 -0.15838304 -0.10682068 -0.2202917 0.101480365
-0.009541786 -0.30555913 -0.07127909 -0.014135224 -0.22923763 -0.28121728 -0.027729375 0.027320953
0.124519005 0.036978614 -0.0654394 0.004563637 -0.6751347 -0.26660973 0.26963824 0.018407235
-0.055063713 0.24183209 -0.0712235 -0.037330635 -0.01226617 0.027680455 -0.054518122 -0.15643199
0.12663412 -0.17329468 0.07063124 0.041917853 0.027132839 0.14230871 0.19231543 0.24713694
-0.01630408 0.1408262 0.3421562 -0.11753434 -0.160025 -0.028539168 0.090370454 0.24048091
0.05908872 -0.47377428 0.0017990964 0.3069122 -0.23825735 -0.034928247 0.15906963 -0.046866935
0.10642566 0.43037614 -0.08262072 0.027640369 -0.022156568 0.11371821 -0.14391245 0.083281815
1.0012182 -0.014123379 -0.110451765 0.109823555 -0.16619837 0.053791564 -0.06822479 -0.06763113
0.15496996 -0.0025602237 -0.050298057 0.1583748 -0.032336198 -0.2229813 0.10914795 -0.029272063
0.113160886 0.051314026 -0.13282363 -0.32322246 -0.11731147 -0.095703974 0.28357264 -0.21586657
-0.060840916 0.13532059 0.058031354 0.033880483 -0.0244377 0.31359038 -0.039884735 -0.1417318
0.12880005 0.03465631 -0.030274859 -0.06443678 -0.14553457 -0.0822745 0.2849549 -0.18808995
0.048820797 -0.14404239 -0.018057274 0.049395025 -0.2006758 -0.29048684 0.09171087 -0.065546155
-0.67058456 -0.23828726 -0.17339744 0.05626492 -0.28836578 -0.21936777 0.08526588 -1.0713196
-0.01875663 -0.05888574 -0.20713414 0.40173 -0.1809441 0.059669226 0.12383954 -0.005367739
-0.027984299 0.1234905 0.21527737 -0.040959965 0.24233046 -0.19234955 0.41474843 -0.06599295
-0.09916599 -0.04218821 -0.15441714 0.2516747 0.089595295 -0.018184492 0.04521978 -0.019635906
-0.061996743 0.16278945 0.17765279 -0.071076386 -0.12911052 -0.16932084 0.008168058 0.11916005
-0.010520679 0.013651446 -0.046446815 -0.42525104 0.12381657 0.042896938 -0.23387061 0.020977382
-0.14279927 -0.06444132 -0.035814587 -0.05826234 -0.010669474 0.07636501 -0.14896522 0.03996968
-0.5186235 0.20628831 0.04072689 0.20919469 0.252234 -0.14398187 -0.43733045 0.06143319
0.16747735 0.096271075 -0.45739323 -0.0143298935 0.042180438 -0.14327776 0.03722575 0.03840642
0.016665353 0.067129835 0.0745423 0.063150845 -0.003506511 -0.07153097 -0.041317824 0.44970098
0.5846717 0.0985494 0.046999063 0.13834146 0.041053593 0.088775955 0.25108084 -0.216623
-0.05278711 -0.20237361 0.017766953 0.037426118 -0.32317865 0.22093791 0.10236668 0.013593923
-0.30800828 -0.19115399 -0.41789943 0.047304 -0.015784739 0.043994647 0.07669055 0.028474106
-0.25814107 -0.1377213 -0.027469007 -0.19118606 0.09965394 -0.07418599 -0.060631834 -0.15691915
-0.08516869 0.14253452 0.13347602 0.1582781 -0.271756 -0.010750075 0.053147975 -0.20536916
0.009145824 -0.18687822 0.29399505 -0.25687042 0.005096297 0.05758274 -0.197094 0.22989666
-0.20518802 0.013861417 -0.22297467 0.15661697 0.10040425 0.08463843 -0.031415258 0.63222504
0.08409595 0.23309958 -0.022291256 -0.1496382 0.16027735 0.012722138 0.008790791 -0.1503436
00000000: 42a7 a73d fe21 39be ca01 48bd 7323 fe3d
00000010: 2a2f 22be cdc4 dabd 2694 61be f0d4 cf3d
00000020: 2755 1cbc 3f72 9cbe c6fa 91bd 6d97 67bc
00000030: 45bd 6abe b6fb 8fbe b728 e3bc 31d0 df3c
00000040: d203 ff3d e376 173d 1805 86bd 908a 953b
00000050: a1d5 2cbf 1281 88be 060e 8a3e c5ca 963c
00000060: 7d8a 61bd d5a2 773e a0dd 91bd 02e8 18bd
00000070: 0cf8 48bc 1fc2 e23c 654e 5fbd b52f 20be
00000080: 60ac 013e 2974 31be 1da7 903d 0eb2 2b3d
00000090: b045 de3c 60b9 113e 56ee 443e 7711 7d3e
000000a0: 2290 85bc be34 103e 192f af3e d8b5 f0bd
000000b0: 98dd 23be f9ca e9bc 2514 b93d a140 763e
000000c0: 0307 723d 8b92 f2be a8cf eb3a 9923 9d3e
000000d0: bcf9 73be ec10 0fbd 26e3 223e 8bf7 3fbd
000000e0: b2f5 d93d 435a dc3e 0d35 a9bd 0e6e e23c
000000f0: b181 b5bc 18e5 e83d c95d 13be a88f aa3d
00000100: eb27 803f bf65 67bc 8934 e2bd 2ceb e03d
00000110: e82f 2abe 8b54 5c3d 70b9 8bbd 3182 8abd
00000120: 72b0 1e3e 6dc9 27bb 5605 4ebd 012d 223e
00000130: f672 04bd 3655 64be f688 df3d f7cb efbc
00000140: e5c0 e73d a82e 523d eb02 08be 6a7d a5be
00000150: ff40 f0bd 7200 c4bd 6f30 913e 200c 5dbe
00000160: 5334 79bd 7b91 0a3e 49b2 6d3d 43c6 0a3d
00000170: 9231 c8bc eb8e a03e 2d5e 23bd 2422 11be
00000180: 29e4 033e c6f3 0d3d fb02 f8bc 6ef7 83bd
00000190: 0407 15be 887f a8bd 9ce5 913e a79a 40be
000001a0: 51f8 473d d97f 13be d9ec 93bc 7052 4a3d
000001b0: f57d 4dbe b1ba 94be e9d2 bb3d 103d 86bd
000001c0: 6eab 2bbf 9301 74be 198f 31be 0b76 663d
000001d0: aea4 93be f2a1 60be e19f ae3d 0021 89bf
000001e0: 81a7 99bc 2c32 71bd f91a 54be 8eaf cd3e
000001f0: 6949 39be b867 743d 969f fd3d dce3 afbb
00000200: 543f e5bc 96e8 fc3d ac71 5c3e a3c5 27bd
00000210: 7a25 783e 48f7 44be e859 d43e 5027 87bd
00000220: 8a17 cbbd 8bcd 2cbd 871f 1ebe 82db 803e
00000230: bd7d b73d a5f7 94bc 6038 393d 7bdb a0bc
00000240: 4cf0 7dbd 47b2 263e 9dea 353e 7f90 91bd
00000250: 8c35 04be 7162 2dbe 51d3 053c 2f0a f43d
00000260: ed5e 2cbc 51aa 5f3c 043f 3ebd 81ba d9be
00000270: 8b93 fd3d b3b4 2f3d c77b 6fbe c2d8 ab3c
00000280: f939 12be d0f9 83bd 51b2 12bd 7ea4 6ebd
00000290: 04cf 2ebc 4265 9c3d 578a 18be 3fb7 233d
000002a0: 82c4 04bf 3e3d 533e 3dd1 263d 2237 563e
000002b0: d124 813e fc6f 13be c7e9 dfbe 5ea1 7b3d
000002c0: 2f7f 2b3e c529 c53d 722f eabe eec7 6abc
000002d0: 65c5 2c3d 68b7 12be 077a 183d 0d50 1d3d
000002e0: c785 883c 5e7b 893d a2a9 983d 3b55 813d
000002f0: 7ecd 65bb d47e 92bd e13c 29bd 353f e63e
00000300: 0bad 153f 45d4 c93d 1782 403d 62a9 0d3e
00000310: d027 283d 2bd0 b53d ab8d 803e 6bd2 5dbe
00000320: 4c37 58bd 073b 4fbe 008c 913c 214c 193d
00000330: ac77 a5be 8c3d 623e 9fa5 d13d 0cb9 5e3c
00000340: 43b3 9dbe dfbd 43be eaf6 d5be d7c1 413d
00000350: ff4e 81bc bb33 343d ef0f 9d3d 8742 e93c
00000360: 112b 84be d006 0dbe af06 e1bc 47c6 43be
00000370: 5d17 cc3d d3ee 97bd 1659 78bd 6aaf 20be
00000380: ec6c aebd 92f4 113e f0ad 083e a713 223e
00000390: 9a23 8bbe 1521 30bc b1b1 593d 4b4c 52be
000003a0: 5ed8 153c 015d 3fbe 8586 963e 8584 83be
000003b0: d6fe a63b e1db 6b3d 02d3 49be 086a 6b3e
000003c0: cf1c 52be ff1a 633c 7953 64be 3360 203e
000003d0: bea0 cd3d ea56 ad3d 49ad 00bd 80d9 213f
000003e0: 7f3a ac3d a8b1 6e3e 279c b6bc c23a 19be
000003f0: bf1f 243e 8470 503c 4007 103c acf3 19be

arith.constant3 f4 [128, 128]
-0.024172133 -0.038870078 0.068070814 0.00956747 -0.067510314 0.001615105 -0.033977818 0.020871462
0.016183889 0.01518775 -0.029670222 -0.02083066 0.025419317 -0.038013875 -0.06191864 -0.011038677
0.014288854 -0.028304163 -0.038987286 -0.049186897 -0.0666054 0.0134382015 -0.084211916 -0.0031409906
0.018536352 -0.040355965 0.062137846 -0.0237297 -0.03190539 0.005481199 0.05554674 -0.057624213
0.015934268 0.056464445 -0.023953224 -0.02977019 -0.04493261 0.052443948 -0.016278768 -0.025200611
-0.05703454 -0.0030910263 0.027060738 0.03499475 -0.008623849 -0.020614574 -0.01808956 -0.018891804
0.06285303 -0.048103437 -0.033808373 -0.082990035 -0.010140215 0.0039220513 0.014337671 0.031063111
0.020334158 0.054213807 0.061724015 -0.024777433 -0.023945041 0.060279526 -0.039806794 -0.06585187
-0.022458056 -0.024901407 -0.004229036 0.012164064 -0.0069530536 -0.025817627 -0.07219038 -0.004936766
-0.046838336 -0.016162975 -0.0116665615 -0.018625628 -0.011668504 0.0043809633 -0.020569414 -0.04848208
-0.0026578591 -0.027693707 -0.07778383 -0.05540599 -0.07882518 -0.03262913 -0.0033280607 -0.031973522
0.029834809 -0.07960847 -0.024422055 -0.044848483 0.031986546 -0.01542386 -0.031961758 -0.064383574
-0.07648994 -0.06125596 -0.014040694 -0.097826734 0.014254582 -0.028799802 -0.041618545 0.00066473713
-0.05978237 -0.043349788 -0.034425482 -0.057391185 -0.100155085 -0.017831486 -0.08112706 -0.003123629
-0.103456594 0.042412005 0.006878026 0.034674183 -0.044199828 0.0026315714 -0.05866125 -0.07507122
-0.035473708 0.013689621 -0.06969839 0.08175383 0.018917155 -0.041302368 4.896342e-05 -0.101324305
-0.030472018 0.093087845 0.12287918 0.08538094 0.09815854 -0.062144145 0.055958718 0.03972732
0.13694967 0.21636318 -0.00031324872 -0.01846593 -0.046743575 0.029535867 0.15869966 0.07091837
-0.12657054 -0.025314515 -0.049729213 -0.09970325 0.18622498 0.12483324 -0.0781568 -0.057470627
0.009863746 0.0352571 -0.0063772337 -0.11512912 0.10469162 0.073877275 0.118051246 -0.05989812
-0.0016780802 -0.24676356 -0.07599425 0.14089948 0.010156316 -0.03809543 0.028696833 -0.07361261
-0.036228754 0.0053740856 0.015817467 0.07281291 -0.12149572 0.020828117 -0.009988337 -0.03251988
-0.071033984 0.055383205 -0.005392098 -0.014766423 -0.0015673472 0.08498356 -0.049289573 -0.07890259
0.04482636 -0.044976685 0.02277952 0.01291534 0.0683825 -0.08134826 -0.021607835 -0.03872052
0.017375803 -0.0030909106 0.11509847 0.058199346 -0.12516737 0.06460078 -0.033335555 0.0875927
-0.002926994 -0.10223595 0.019321915 0.16529131 0.0939318 -0.14025679 -0.025664015 -0.0151220225
-0.058718797 0.014810423 -0.09582103 -0.10232682 -0.003584858 0.09174734 -0.051263858 0.007839765
-0.10508923 0.03478669 0.06624081 -0.048144784 0.0052010687 0.10396453 -0.021788193 0.1699455
-0.005959946 -0.00077336095 0.048874747 0.018157657 0.024927055 0.033608023 0.05025559 0.06351293
0.012470894 -0.079869896 -0.16875781 0.040739473 0.11267883 0.05140017 0.032561958 -0.035056632
0.036674425 0.0721256 -0.13030338 0.0077694645 0.058661643 -0.04111256 -0.0060863933 0.09748816
0.075014144 -0.12111467 0.066369474 0.079633474 0.009798384 0.25382516 -0.035243325 -0.019588538
00000000: a304 c6bc 3b36 1fbd b668 8b3d e1c0 1c3c
00000010: d942 8abd eeb1 d33a 532c 0bbd a1fa aa3c
00000020: 1394 843c 0ad6 783c f70e f3bc 0fa5 aabc
00000030: 2c3c d03c 70b4 1bbd 669e 7dbd 91db 34bc
00000040: cc1b 6a3c 22de e7bc 22b1 1fbd 3378 49bd
00000050: 6968 88bd e72b 5c3c 4c77 acbd 14d9 4dbb
00000060: 8cd9 973c 4c4c 25bd 4184 7e3d ca64 c2bc
00000070: 3aaf 02bd a19b b33b fa84 633d 5e07 6cbd
00000080: 9588 823c 4347 673d 8d39 c4bc 9de0 f3bc
00000090: 420b 38bd 77cf 563d 0d5b 85bc 8371 cebc
000000a0: 0d9d 69bd d192 4abb 7bae dd3c a856 0f3d
000000b0: 0b4b 0dbc e5df a8bc 8f30 94bc fcc2 9abc
000000c0: 17b9 803d 1c08 45bd a67a 0abd aef6 a9bd
000000d0: 2523 26bc 8d84 803b 8de8 6a3c 1178 fe3c
000000e0: d293 a63c 4c0f 5e3d 52d2 7c3d 0bfa cabc
000000f0: 6428 c4bc aae7 763d 730c 23bd 58dd 86bd
00000100: f5f9 b7bc 09fe cbbc ba93 8abb c84b 473c
00000110: 71d6 e3bb 7d7f d3bc 8dd8 93bd 98c4 a1bb
00000120: 8ed9 3fbd 3768 84bc 1b25 3fbc c694 98bc
00000130: 412d 3fbc 2f8e 8f3b 3081 a8bc 2595 46bd
00000140: 7a2f 2ebb eadd e2bc 214d 9fbd 64f1 62bd
00000150: 196f a1bd 1fa6 05bd 981b 5abb abf6 02bd
00000160: 2168 f43c c409 a3bd c310 c8bc 0bb3 37bd
00000170: 5304 033d 5cb4 7cbc 55ea 02bd 89db 83bd
00000180: c2a6 9cbd 88e7 7abd f00a 66bc 6259 c8bd
00000190: 0d8c 693c 90ed ebbc 3578 2abd c141 2e3a
000001a0: 5cde 74bd 8c8f 31bd bc01 0dbd 0513 6bbd
000001b0: 1c1e cdbd 5613 92bc f225 a6bd ccb5 4cbb
000001c0: 0de1 d3bd 36b8 2d3d 1061 e13b 8406 0e3d
000001d0: e10a 35bd 7176 2c3b c746 70bd f1be 99bd
000001e0: e14c 11bd 6f4a 603c 08be 8ebd 8d6e a73d
000001f0: 26f8 9a3c ac2c 29bd 125e 4d38 1e83 cfbd
00000200: 74a0 f9bc d7a4 be3d 14a8 fb3d 34dc ae3d
00000210: 5807 c93d dc8a 7ebd f834 653d 1db9 223d
00000220: 893c 0c3e 4f8e 5d3e 883b a4b9 dd45 97bc
00000230: 3176 3fbd 34f5 f13c 2a82 223e a63d 913d
00000240: b59b 01be 6360 cfbc dcb0 4bbd 3831 ccbd
00000250: c3b1 3e3e 92a8 ff3d ac10 a0bd 5266 6bbd
00000260: 8d9b 213c c069 103d 1df8 d0bb d1c8 ebbd
00000270: 8f68 d63d f84c 973d dac4 f13d bb57 75bd
00000280: 07f3 dbba 96af 7cbe e0a2 9bbd f447 103e
00000290: ad66 263c f409 1cbd 9f15 eb3c 35c2 96bd
000002a0: 9a64 14bd 1919 b03b a293 813c ef1e 953d
000002b0: c0d2 f8bd ba9f aa3c 1fa6 23bc 9133 05bd
000002c0: 447a 91bd 80d9 623d 32b0 b0bb deee 71bc
000002d0: 726f cdba dc0b ae3d dde3 49bd ae97 a1bd
000002e0: d89b 373d 7939 38bd 1e9c ba3c dd9a 533c
000002f0: 200c 8c3d eb99 a6bd ea02 b1bc 6899 1ebd
00000300: b357 8e3c e090 4abb bfb8 eb3d 7062 6e3d
00000310: e02b 00be 6a4d 843d dd8a 08bd cd63 b33d
00000320: d0d2 3fbb 1561 d1bd fe48 9e3c 2042 293e
00000330: 515f c03d 7a9f 0fbe 573d d2bc 5cc2 77bc
00000340: 1f83 70bd 6ba7 723c d13d c4bd b990 d1bd
00000350: f0ef 6abb 08e6 bb3d 0dfa 51bd 5c72 003c
00000360: 0639 d7bd 7d7c 0e3d 43a9 873d 7733 45bd
00000370: ba6d aa3b 5beb d43d 277d b2bc 3106 2e3e
00000380: a74b c3bb 60bb 4aba e330 483d 5ebf 943c
00000390: d333 cc3c 91a8 093d ced8 4d3d 1113 823d
000003a0: b852 4c3c d492 a3bd d9ce 2cbe 6fde 263d
000003b0: 29c4 e63d fc88 523d b05f 053d 8b97 0fbd
000003c0: ec37 163d 96b6 933d 406e 05be fe96 fe3b
000003d0: 3147 703d a565 28bd 5e70 c7bb dfa7 c73d
000003e0: 04a1 993d f80a f8bd b8ec 873d e016 a33d
000003f0: 6789 203c 5ff5 813e 4e5b 10bd 2478 a0bc

sequential_1/dense_0_1/MatMul f4 [128, 650]
-0.053031076 -0.018697985 0.004746718 -0.0054816403 0.04147952 -0.036665604 0.043474257 -0.012818924
-0.024144474 -0.013489681 0.003600343 -0.106169604 0.04604859 -0.0121283615 0.0009051427 0.0361711
0.008491838 0.018797014 -0.0276757 0.061057497 0.0065443884 -0.037828524 -0.020616086 -0.019016435
-0.031668592 0.1269667 0.026611146 -0.020989347 -0.011275645 -0.02790316 0.0072695464 -0.026468903
-0.015580549 -0.03889469 0.0024963333 0.019940583 -0.0025734792 -0.09588288 0.093669474 -0.026125409
0.009980416 0.030441985 -0.0031722833 0.023792444 -0.0157015 0.0786625 0.016758395 0.030064043
-0.042182885 0.025236627 -0.05542684 0.08847921 0.026162125 0.032334186 -0.006097359 0.0013251909
0.005208368 -0.038572703 0.056489896 -0.021634378 -0.004009419 0.010726423 -0.006965946 -0.089069635
0.039042447 -0.010448596 -0.006855761 -0.020516241 -0.035699785 -0.016161414 -0.01605673 -0.0045646676
-0.010677477 0.0022061253 0.00449917 -0.051137388 -0.049887236 0.058271814 -0.025881914 -0.012945845
-0.009988745 0.008194625 -0.033779997 0.028166369 0.041114956 0.0006017723 0.025450347 0.0063966024
0.0032845698 -0.08388848 0.062916026 -0.021404833 -0.022197742 0.04185468 -0.0059661404 -0.03456668
-0.01727237 0.03711546 0.032775115 0.02355447 0.048388027 0.044621438 -0.09840262 0.048537195
0.025071628 -0.008311587 -0.026603483 0.030795192 -0.006758499 -0.035349187 -0.006258331 -0.01917663
-0.03697821 0.0021169689 0.021204382 -0.014599522 0.09028716 -0.011328544 0.009252452 0.018928932
0.035428677 0.017628947 -0.05015401 0.060075454 0.043485712 0.037606552 0.017880484 0.008376568
-0.051404923 0.08632841 0.018334143 0.03276609 -0.015509349 0.0049454127 0.005436575 0.04394859
0.035816018 0.019158583 0.008114533 -0.014302194 0.01305797 -0.057778537 0.043481104 -0.012763864
0.014055535 0.004660411 -0.007349248 0.02256159 -0.017512012 0.008815417 -0.03630598 0.006894326
0.012957015 0.018813897 -0.068766184 0.049315825 0.005037092 -0.010107764 0.001001874 -0.013513532
-0.0048968834 -0.0012456604 0.019118555 0.0209423 -0.016205443 -0.0075107827 0.040731065 -0.10868018
0.03991581 -0.04202595 -0.019209621 0.008726068 -0.026051119 -0.023407863 -0.026352052 0.042190574
-0.007794742 -0.009227494 0.010487105 0.0048440606 -0.1044809 0.029086977 -0.015139693 0.010659196
-0.04509136 0.034812942 -0.008476366 -0.01833096 0.047780883 0.016215868 -0.006060314 0.0027362134
0.06599026 -0.1390047 0.042099234 -0.0049415347 -0.022132285 0.0376502 0.004506756 -0.021390399
0.027737489 0.019118542 0.00812986 0.012000094 0.028747106 0.08721611 -0.11137631 0.0369048
-0.020469015 -0.000115836614 0.0040488048 -0.0059538856 -0.02547333 -0.0031328108 -0.009398048 0.009823691
-0.0008463252 0.02964757 0.093294024 -0.17426908 0.030011103 0.028733391 -0.024112243 -0.025435071
-0.0005316212 -0.015276776 0.024636813 0.033670068 0.02190683 0.014702077 -0.046842594 0.05292814
-0.20485869 0.027323913 0.0014901648 -0.00092345977 0.0030604356 0.01096684 -0.010304374 -0.02592175
0.04059538 0.007739502 0.0036445518 0.026433825 0.12502682 -0.19489472 -0.032057617 0.0022089393
0.023690883 0.028677184 0.008090553 -0.01141475 0.033313695 0.023154978 -0.01579724 -0.006364518
00000000: 1d37 59bd 842c 99bc 5b8a 9b3b 559f b3bb
00000010: 6ee6 293d ac2e 16bd 1012 323d 7706 52bc
00000020: a2ca c5bc d303 5dbc bbf3 6b3b 736f d9bd
00000030: 729d 3c3d 09b6 46bc 1947 6d3a 2628 143d
00000040: 5a21 0b3c 32fc 993c 26b8 e2bc 6d17 7a3d
00000050: 4f72 d63b 15f2 1abd 11e3 a8bc 5bc8 9bbc
00000060: edb6 01bd 8f03 023e 9eff d93c daf1 abbc
00000070: 7cbd 38bc 2b95 e4bc 6035 ee3b 50d5 d8bc
00000080: 8f45 7fbc 0a50 1fbd 8699 233b 6f5a a33c
00000090: d1a7 28bb 3e5e c4bd c8d5 bf3d f404 d6bc
000000a0: e684 233c 7861 f93c 15e6 4fbb 5fe8 c23c
000000b0: 6fa0 80bc ce19 a13d e748 893c de48 f63c
000000c0: f6c7 2cbd 0bbd ce3c 4107 63bd 9734 b53d
000000d0: f451 d63c da70 043d 5bcc c7bb 07b2 ad3a
000000e0: f5aa aa3b 69fe 1dbd f361 673d 943a b1bc
000000f0: 7261 83bb e1bd 2f3c 9742 e4bb 246a b6bd
00000100: f9ea 1f3d 9730 2bbc 4ba6 e0bb ad11 a8bc
00000110: f039 12bd f164 84bc 6789 83bc 3593 95bb
00000120: 96f0 2ebc a494 103b c66d 933b 7075 51bd
00000130: 8f56 4cbd 6dae 6e3d 4f06 d4bc cf1a 54bc
00000140: d5a7 23bc c042 063c e55c 0abd 28bd e63c
00000150: 2868 283d 41c0 1d3a 3f7d d03c 979a d13b
00000160: f041 573b b9cd abbd 1eda 803d 3059 afbc
00000170: 0ad8 b5bc d06f 2b3d 9d7f c3bb cb95 0dbd
00000180: c97e 8dbc 6106 183d 333f 063d 4ef5 c03c
00000190: 8632 463d f8c4 363d 5087 c9bd f0ce 463d
000001a0: 0463 cd3c 532d 08bc 8cef d9bc 3346 fc3c
000001b0: 6676 ddbb 4fca 10bd af12 cdbb 4f18 9dbc
000001c0: 7776 17bd d8bc 0a3b d0b4 ad3c d532 6fbc
000001d0: 79e8 b83d 5b9b 39bc 9997 173c d910 9b3c
000001e0: a91d 113d 956a 903c 4b6e 4dbd ae11 763d
000001f0: 131e 323d 5409 1a3d 187a 923c df3d 093c
00000200: f88d 52bd f3cc b03d 7c31 963c bc35 063d
00000210: ed1a 7ebc 210d a23b 4c25 b23b 7003 343d
00000220: d1b3 123d 76f2 9c3c d1f2 043c c053 6abc
00000230: 19f1 553c 30a9 6cbd 3e19 323d 871f 51bc
00000240: 3049 663c 5cb6 983b f6d1 f0bb 15d3 b83c
00000250: 5a75 8fbc 8a6e 103c 94b5 14bd cce9 e13b
00000260: a949 543c 9a1f 9a3c 49d5 8cbd 64ff 493d
00000270: 310e a53b 099b 25bc 5051 833a dc67 5dbc
00000280: 0976 a0bb 6d45 a3ba 849e 9c3c 308f ab3c
00000290: 47c1 84bc 031d f6bb 9ed5 263d b793 debd
000002a0: c37e 233d 6723 2cbd 7f5d 9dbc c8f7 0e3c
000002b0: 2869 d5bc d9c1 bfbc 42e0 d7bc 06d0 2c3d
000002c0: 096b ffbb ea2e 17bc 1bd2 2b3c edba 9e3b
000002d0: 15fa d5bd d047 ee3c 7a0c 78bc e9a3 2e3c
000002e0: b8b1 38bd 0498 0e3d 75e0 0abc cf2a 96bc
000002f0: e3b5 433d 24d7 843c 9995 c6bb 0b52 333b
00000300: e725 873d 4057 0ebe 3f70 2c3d 99ec a1bb
00000310: c44e b5bc 1937 1a3d 69ad 933b eb3a afbc
00000320: bb39 e33c 7d9e 9c3c 1b33 053c 0b9c 443c
00000330: 0d7f eb3c 5c9e b23d 4319 e4bd 7d29 173d
00000340: a3ae a7bc 4fed f2b8 d6ab 843b d018 c3bb
00000350: 72ad d0bc d84f 4dbb 45fa 19bc 8cf3 203c
00000360: ecdb 5dba 76df f23c f010 bf3d 9873 32be
00000370: d8d9 f53c 4a62 eb3c 0a87 c5bc 365d d0bc
00000380: 7f5c 0bba 714b 7abc 24d3 c93c a0e9 093d
00000390: f475 b33c fbe0 703c 05de 3fbd 2dcb 583d
000003a0: 7ac6 51be 66d6 df3c a251 c33a 5614 72ba
000003b0: 9791 483b 43ae 333c add3 28bc da59 d4bc
000003c0: 5747 263d a69b fd3b 6fd9 6e3b c08b d83c
000003d0: 0807 003e 7b92 47be d94e 03bd dac3 103b
000003e0: 6213 c23c 6aec ea3c 3d8e 043c ee04 3bbc
000003f0: f173 083d 82af bd3c 3769 81bc 728d d0bb

sequential_1/dense_0_1/Relu;sequential_1/dense_0_1/BiasAdd f4 [128]
0.032691732 0.018178709 0.011571724 0.01903132 -0.0031037845 -0.13516872 0.009700908 -0.008407197
0.020869995 0.016486432 0.037624706 0.0057525593 0.06487633 0.0074373893 -0.013309097 0.015530309
0.030250082 0.014537831 0.015252987 4.6077574e-05 -0.023424797 0.00047088208 -0.03521819 0.0012852772
-0.027630132 0.015613079 0.008075275 0.033756204 0.008032702 -0.010487003 -0.004469422 -0.019645777
-0.037814032 -0.033999525 0.023882974 0.073187724 -0.004232687 -0.1932226 -0.011560863 0.029736264
0.026254632 0.019065974 0.027372055 0.0016978044 -0.0028572867 -0.023188919 0.049412552 0.017726747
0.08077211 -0.01086437 0.022231 -0.00048353375 0.022904987 -0.008977313 0.04225737 -0.045682088
0.03383356 0.013946833 -0.0056034937 0.012958678 0.087192774 -0.013424163 -0.006153211 -0.00031864905
0.009706419 -0.005542375 0.026589587 -0.013438808 0.006233274 0.010582306 0.00633347 0.010334956
0.02307921 -0.010288568 0.0073750527 -0.041179597 0.03705393 0.046276744 -0.045374747 -0.017104795
0.034671433 0.015473701 0.020291002 0.013230709 0.014898312 0.03222431 0.030346202 -0.015683021
0.021892585 -0.026609471 0.010383785 0.058826607 0.012488802 0.017216433 0.019085914 0.03145313
0.010149727 0.007771516 -0.025551299 0.024580464 0.009850495 -0.011921515 -0.0024631794 -0.011757493
0.017559739 0.013692311 0.011573222 -0.0010487589 -0.01777421 0.00155207 0.014258868 0.014859229
-0.00610608 0.009671138 -0.0075756987 0.006397713 0.044549268 0.027686885 0.02751535 0.012692609
0.012419913 -0.08313743 0.027138952 0.018894933 4.9314778e-05 0.03695708 0.035353582 -0.025085494
00000000: c4e7 053d 84eb 943c 5497 3d3c 92e7 9b3c
00000010: dd68 4bbb ab69 0abe 8ff0 1e3c 57be 09bc
00000020: 8df7 aa3c 8e0e 873c 5d1c 1a3d f77f bc3b
00000030: e2dd 843d 58b5 f33b 660e 5abc d672 7e3c
00000040: 05cf f73c 1530 6e3c aae7 793c 6b43 4138
00000050: 5ce5 bfbc b9e0 f639 f340 10bd bf76 a83a
00000060: 9658 e2bc 00ce 7f3c 294e 043c f243 0a3d
00000070: 989b 033c aed1 2bbc 3b74 92bb 2ef0 a0bc
00000080: e3e2 1abd 1643 0bbd 3aa6 c33c 72e3 953d
00000090: 5ab2 8abb 25dc 45be c669 3dbc 7799 f33c
000000a0: f413 d73c 3f30 9c3c 5c3b e03c dd88 de3a
000000b0: 5141 3bbb b0f6 bdbc d164 4a3d af37 913c
000000c0: d96b a53d 7800 32bc c91d b63c cd82 fdb9
000000d0: 3da3 bb3c 9415 13bc 1016 2d3d 241d 3bbd
000000e0: 0f95 0a3d 4281 643c 839d b7bb a350 543c
000000f0: 2092 b23d 05f1 5bbc e0a0 c9bb 5a10 a7b9
00000100: ac07 1f3c d09c b5bb 68d2 d93c 722e 5cbc
00000110: 7e40 cc3b 6961 2d3c ff88 cf3b f353 293c
00000120: 9d10 bd3c 6291 28bc 6daa f13b f0ab 28bd
00000130: ddc5 173d af8c 3d3d dfda 39bd 5b1f 8cbc
00000140: a203 0e3d 6885 7d3c 5139 a63c 9ec5 583c
00000150: 0d18 743c a3fd 033d 9998 f83c ae79 80bc
00000160: 1458 b33c 1bfc d9bc c020 2a3c 2bf4 703d
00000170: d59d 4c3c 7a09 8d3c 105a 9c3c ffd4 003d
00000180: 0a4b 263c 34a8 fe3b f550 d1bc f85c c93c
00000190: f863 213c 7552 43bc 4b6d 21bb 80a2 40bc
000001a0: 71d9 8f3c b755 603c 9c9d 3d3c 8276 89ba
000001b0: 389b 91bc d46e cb3a 079e 693c 2074 733c
000001c0: 8315 c8bb b173 1e3c 913d f8bb e8a3 d13b
000001d0: 4b79 363d 9bcf e23c df67 e13c a9f4 4f3c
000001e0: e47c 4b3c f543 aabd 8252 de3c 8cc9 9a3c
000001f0: 57d7 4e38 4f60 173d ebce 103d 1880 cdbc
