src/track_test/config/trackVer13_policyVer0.tflite (tflite, 403500 bytes, 6 tensors)

arith.constant f4 [128]
0	0x3df6a420	0.12043023
1	0xba44a0f0	-0.0007500788
2	0x3d3a5e53	0.04550011
3	0x39ebbb1f	0.0004496211
4	0x3d1efac9	0.038813386
5	0xbd06a702	-0.032874115
6	0xbd3f7206	-0.0467396
7	0xbcf9144e	-0.03040519
8	0xbc0647cf	-0.008195831
9	0xbc9b9162	-0.018990222
10	0x3d30f4cf	0.043202218
11	0xbca3fbc4	-0.020017512
12	0x3dd1bab8	0.10240692
13	0xbd5bd9a7	-0.053674366
14	0x3d39f766	0.045401953
15	0xbcf691d0	-0.030098826
16	0xbcfb38c1	-0.03066671
17	0x3ce6ae7f	0.028159378
18	0x3dee158a	0.11625202
19	0xbca0aa97	-0.019612594
20	0x3d911edf	0.07085966
21	0xbcdd6cfd	-0.027029509
22	0x3e0e9ef3	0.13927822
23	0xbd314497	-0.043278303
24	0xbcffdb20	-0.031232417
25	0x3b320425	0.0027163115
26	0xbcd48b71	-0.025945397
27	0xbcf98ec8	-0.030463591
28	0x3e0db39a	0.13838044
29	0x3da7fc45	0.082024135
30	0x3d38ed2c	0.04514806
31	0xbcccfbe6	-0.025022458
32	0xbd02cdc4	-0.031934515
33	0x3c38d6f8	0.011281721
34	0x3cb8b1ea	0.022545774
35	0xbd862cc1	-0.06551505
36	0x3d373d87	0.04473641
37	0xbd29ab36	-0.041423045
38	0x3d5d18c0	0.05397868
39	0xbd4459b7	-0.04793712
40	0x3d021bf3	0.031764936
41	0xbd0fd265	-0.035112757
42	0x3ca0875a	0.01959579
43	0xbd07b2fa	-0.03312967
44	0xbcf68069	-0.030090528
45	0x3d2e3328	0.042529255
46	0x3c939ac7	0.01801814
47	0x3d07e3d8	0.033176273
48	0xbd0e082d	-0.034675766
49	0xbcc95bde	-0.024579939
50	0xbd07d21b	-0.033159357
51	0xbd15fd88	-0.03661874
52	0x3d061ec8	0.0327442
53	0x3d0379b0	0.032098472
54	0xbd6dea95	-0.058085043
55	0xbae3cb84	-0.0017379378
56	0x3de033f5	0.1094741
57	0xbd25589b	-0.040367704
58	0xbac5a219	-0.0015078216
59	0x3d8a0672	0.067395106
60	0x3cf3f63e	0.029780503
61	0x3b7e3420	0.0038788393
62	0xbcd25eba	-0.025679935
63	0xbcde6c1d	-0.027151162
64	0x3e6aea60	0.2294097
65	0x3d534db5	0.05158778
66	0x3d911cf5	0.07085601
67	0x3bf72955	0.007542769
68	0xbb0fb4d7	-0.0021927857
69	0xbd1d8465	-0.03845634
70	0xbda477f9	-0.080306955
71	0x3cc10f6b	0.023566922
72	0x3da96aff	0.08272361
73	0x3da28d48	0.079371035
74	0x3da7fb70	0.08202255
75	0xb947496e	-0.00019005474
76	0xbcf622e1	-0.030045928
77	0xbbe1144a	-0.0068688737
78	0x3df1b23a	0.11801572
79	0xbd806e5e	-0.06271051
80	0xbaa0dd4e	-0.0012272985
81	0x3b65226c	0.0034963144
82	0xbc7d0bab	-0.015444676
83	0x3d3046ce	0.043036275
84	0x3cd7647a	0.026293028
85	0xbc810c53	-0.015752947
86	0x3d8edd1c	0.06975767
87	0x3c54b8e4	0.0129835345
88	0xbd869af0	-0.06572521
89	0xbdad4030	-0.084595084
90	0xbc5ffbfe	-0.013670919
91	0xbdc247a4	-0.094863206
92	0xbcff65fe	-0.031176563
93	0xbc251d7d	-0.010077831
94	0x3dd03d3c	0.101679295
95	0x3d84d88f	0.06486618
96	0xbd1ce5c6	-0.038305067
97	0x3bddee95	0.006772826
98	0xbcfbde69	-0.030745702
99	0xbc71d647	-0.01476056
100	0x3d56914a	0.052384652
101	0xbdc9d5da	-0.09855242
102	0xbca4ca4a	-0.02011599
103	0x3c9ebcf8	0.019377217
104	0xbcf4bd31	-0.02987537
105	0xbd3ee27c	-0.04660271
106	0x3cfc7ba5	0.030820677
107	0xbb5f9d47	-0.0034120844
108	0x3d3302c0	0.043703794
109	0xbd2f7893	-0.042839598
110	0xbc1d419a	-0.00959816
111	0xbd3448ee	-0.044014864
112	0x3ca40495	0.020021716
113	0xbcd581b7	-0.02606283
114	0x3c555f4b	0.013023208
115	0xbcd5d9c2	-0.026104812
116	0xbcf54f61	-0.029945077
117	0xbd493a43	-0.04912783
118	0x3d3e0280	0.046389103
119	0xbd188884	-0.037239566
120	0x3d31d6f8	0.0434179
121	0xbd072c1b	-0.033001047
122	0xbdd303d1	-0.10303462
123	0xbbff460d	-0.007790333
124	0x3be4b200	0.006979227
125	0x3d2dff98	0.04248008
126	0xbcf5f7e6	-0.030025434
127	0x3c819266	0.015816879

arith.constant1 f4 [4]
0	0x3d686c36	0.056743823
1	0xbc70bcde	-0.014693467
2	0x3d15095c	0.03638588
3	0xb8c270b0	-9.2716306e-05

arith.constant2 f4 [4, 128]
0	0x3f395d76	0.72408235
1	0xbe75013d	-0.23926254
2	0xbd9f746c	-0.077858776
3	0xbc2af082	-0.010433318
4	0x3df487ea	0.11939986
5	0x3d637d6c	0.055539533
6	0xbcffdc0a	-0.031232852
7	0xbdcfd429	-0.10147888
8	0xbeaa0843	-0.33209428
9	0xbdbe7bb4	-0.09300938
10	0x3bb28511	0.0054479917
11	0xbd8e006d	-0.06933675
12	0x3e628960	0.22122717
13	0x3c998ec3	0.018744832
14	0xbcd4c0b8	-0.025970802
15	0x3da586a5	0.08082322
16	0xbda0f96c	-0.078600734
17	0x3c654167	0.013992644
18	0x3e8d83ec	0.2763971
19	0xbd4b576c	-0.04964392
20	0x3df8341c	0.12119314
21	0xbdffd257	-0.12491291
22	0x3dd3d7a6	0.10343866
23	0x3bcfb393	0.0063385456
24	0x3c9bd607	0.019022955
25	0x3d7ddfaf	0.0619809
26	0xbdffafaa	-0.12484677
27	0xbbfe4b31	-0.0077604284
28	0x3e450f5d	0.19244142
29	0x3e4ac4e7	0.19801675
30	0x3eaea95e	0.34113592
31	0xbda05370	-0.078284144
32	0x3d28be8a	0.041197337
33	0xbdaff329	-0.08591301
34	0xbbad8a66	-0.0052960394
35	0xbf265433	-0.6497223
36	0x3dbfdb17	0.0936796
37	0xbe02849e	-0.12745902
38	0x3d88e8da	0.06685038
39	0xbd04580e	-0.032310538
40	0x3e09585e	0.13412616
41	0xbdf0e70e	-0.1176282
42	0xbd80f4dd	-0.06296704
43	0x3d3473f0	0.04405588
44	0xbc883abf	-0.016629575
45	0xbe77c247	-0.24195205
46	0x3dc2e23b	0.09515806
47	0x3e3040a3	0.17212157
48	0xbe566301	-0.20936204
49	0x3d94dc8c	0.072686285
50	0xbcbab16d	-0.022789681
51	0xbc0deb06	-0.008661991
52	0xbda5338d	-0.08066473
53	0xbd8aed8c	-0.0678359
54	0xbedb101c	-0.42785728
55	0xbe156505	-0.14589317
56	0x3d68a04f	0.056793507
57	0xbbfe032b	-0.0077518425
58	0xbdd49dea	-0.10381682
59	0xbf85547f	-1.0416411
60	0xbdcad70b	-0.099042974
61	0x3bc74ab3	0.006081903
62	0x3bdc51e4	0.0067236293
63	0x3d242417	0.04007348
64	0x3ee01904	0.43769085
65	0x3dcc5a2d	0.09978137
66	0xbe02360e	-0.12715933
67	0xbc9bc67c	-0.019015543
68	0xbd40b9de	-0.047052257
69	0xbec859dd	-0.3913106
70	0xbd95d7b6	-0.07316534
71	0x3d6f769b	0.05846272
72	0x3e60d95f	0.2195792
73	0xbe268e2d	-0.16265173
74	0x3e6d0528	0.23146498
75	0xbdd8477d	-0.1056051
76	0x3cf312a1	0.029671969
77	0xbdd28f8f	-0.10281288
78	0xbe3b2414	-0.18275481
79	0xbd0c25ff	-0.034215923
80	0x3c3afb1c	0.011412408
81	0x3d35af2b	0.044356506
82	0xbe2f6f10	-0.1713221
83	0xbd4a0505	-0.049321193
84	0x3dd2d668	0.10294801
85	0x3c99f23e	0.018792268
86	0x3e310f9a	0.17291108
87	0x3c322093	0.010872024
88	0x3c4fe118	0.012687944
89	0xbd90782e	-0.070541725
90	0xbe6740d7	-0.22583328
91	0xbea74db9	-0.32676485
92	0xbb3de588	-0.0028975923
93	0xbe11d5bc	-0.1424169
94	0x3e1c5f03	0.15270619
95	0x3e8cf3a7	0.27529642
96	0xbe2b5088	-0.16729939
97	0xbe4a9870	-0.19784713
98	0x3c882e25	0.016623566
99	0xbde870e0	-0.11349654
100	0x3df602a5	0.12012223
101	0x3c26d1c6	0.01018185
102	0xbded54e4	-0.11588457
103	0x3daba71d	0.08381484
104	0xbd8682c3	-0.065679096
105	0xbd194639	-0.037420485
106	0x3ab9fa58	0.0014188988
107	0xbdd52bd5	-0.10408751
108	0xbce97876	-0.028499823
109	0x3d0ca8ff	0.034340855
110	0xbe34a57d	-0.17641254
111	0xbe887745	-0.26653495
112	0x3e7cf9d4	0.24704677
113	0x3cabe955	0.020985285
114	0x3c9d9470	0.01923582
115	0x3cd1144a	0.02552237
116	0x3d176910	0.03696543
117	0xbe26ad33	-0.16277008
118	0x3f62ae80	0.88547516
119	0xbd1e3eaf	-0.038634
120	0xbe55e94a	-0.20889774
121	0x3c6a9c3e	0.014319478
122	0xbea894f2	-0.32926136
123	0x3dcf468d	0.10120878
124	0xbd81273f	-0.06306314
125	0x3c6b927c	0.014378186
126	0x3d0b2384	0.033969417
127	0xbe75cebd	-0.24004646
128	0xbd62227f	-0.05520868
129	0x3e181531	0.14851834
130	0xbeb90b10	-0.36141253
131	0xbda84d41	-0.0821786
132	0x3dc1bb76	0.094595835
133	0x3d94f4ab	0.07273229
134	0xbb85bc14	-0.0040812586
135	0x3d481be7	0.048854735
136	0xbd46776f	-0.048453745
137	0xbd17f93d	-0.037102927
138	0xbe3008df	-0.17190884
139	0x3d8f57dc	0.0699918
140	0x3de38959	0.11110181
141	0x3e0f3479	0.1398486
142	0xbec2a638	-0.3801744
143	0x3d81929d	0.063267924
144	0xbecde959	-0.40217093
145	0xbdd5a4a9	-0.10431797
146	0xbd6c2b2a	-0.057658352
147	0xbc0c3700	-0.008558035
148	0x3d7d1dec	0.061796114
149	0x3dcf33c2	0.10117294
150	0xbeb7c7dc	-0.35894668
151	0xbd864897	-0.06556814
152	0x3ba8a933	0.0051471232
153	0x3e02e162	0.12781289
154	0x3f285ba8	0.65764856
155	0x3daf6699	0.08564491
156	0xbe877290	-0.26454592
157	0xbd505043	-0.050857794
158	0x3dcd5a14	0.10026947
159	0x3e333242	0.1749964
160	0x3dd853a6	0.1056283
161	0xbd8ed100	-0.06973457
162	0xbe720034	-0.2363289
163	0x3d11014f	0.03540164
164	0x3e66ff0d	0.22558232
165	0xbd4384ed	-0.04773419
166	0xbeeb407a	-0.4594763
167	0xbcf52bf8	-0.029928192
168	0x3e3ebd47	0.18626891
169	0xbe6c5fd1	-0.23083426
170	0xbdf29f2a	-0.118467644
171	0x3cb8dd1a	0.022566367
172	0xbc5d12cc	-0.013493251
173	0x3ca15e49	0.019698279
174	0xbda5a313	-0.080877446
175	0x3d6dad09	0.058026347
176	0xbe0af47e	-0.13569829
177	0xbb159927	-0.0022826882
178	0x3d912817	0.07087725
179	0xbd856992	-0.065142766
180	0x3f395390	0.7239313
181	0xbe311c67	-0.17295991
182	0xbe5ae376	-0.21375832
183	0x3dc9dd10	0.098566175
184	0xbeae3f29	-0.34032562
185	0xbd636cb5	-0.055523593
186	0xbe2d52de	-0.16926143
187	0x3e2a01f0	0.16602302
188	0xbe9b8a9b	-0.30379185
189	0x3db1dcae	0.086846694
190	0x3e892293	0.2678419
191	0xbda780c6	-0.081788585
192	0x3ca9cc43	0.020727282
193	0x3d89736c	0.06711468
194	0xbefe1c81	-0.49631122
195	0x3ecfef19	0.40612105
196	0x3eaacb36	0.33358163
197	0x3d2f35eb	0.04277603
198	0x3e162e14	0.14666015
199	0x3e0c20cd	0.13684388
200	0xbe3c0b6c	-0.18363732
201	0x3d484c40	0.048900843
202	0x3d32ec79	0.04368255
203	0x3e109cd4	0.14122325
204	0x3ca79bdd	0.020460064
205	0x3ebb9dd4	0.3664385
206	0xbf7d9d32	-0.99067986
207	0x3c813776	0.015773516
208	0xbf647bb8	-0.8925128
209	0x3eccad87	0.3997614
210	0x3e945834	0.28973544
211	0xbe4bacf3	-0.19890194
212	0x3e367d76	0.17821297
213	0x3e8f6eb8	0.2801416
214	0xbe566385	-0.20936401
215	0xbdead1e5	-0.114658155
216	0x3d2cccd7	0.042187538
217	0x3f0ab708	0.54185534
218	0xbdcb46f8	-0.099256456
219	0x3e378d0f	0.17924903
220	0x3b75f4f6	0.0037530041
221	0xbd6c380d	-0.05767064
222	0x3daec89a	0.085343555
223	0x3d849944	0.064745456
224	0xbd4f5faa	-0.05062834
225	0xbe7204a1	-0.23634578
226	0xbcd87795	-0.026424209
227	0x3df21ce7	0.11821919
228	0xbe6c49aa	-0.23074976
229	0x3c241a8f	0.010016098
230	0xbea9e04b	-0.33178934
231	0x3d7b01f5	0.061281163
232	0xbc610b10	-0.013735548
233	0x3ca74e00	0.020422935
234	0x3f052de6	0.5202316
235	0xbdd069ee	-0.101764545
236	0xbdbfc41c	-0.09363577
237	0xbd95ac1b	-0.07308217
238	0x3e2c4bc2	0.16825774
239	0x3e3bd5e1	0.18343307
240	0x3de5a5a5	0.11213235
241	0x3edeb64c	0.43498456
242	0xbea978dd	-0.33100024
243	0x3d649f69	0.055816088
244	0xbc8ac71f	-0.016940651
245	0x3e528635	0.20559008
246	0x3d3293cf	0.043597993
247	0xba2392b7	-0.0006239819
248	0xbdf03dd3	-0.11730542
249	0x3da17eae	0.0788549
250	0xbe9f5867	-0.31122133
251	0x3e7e5507	0.24837123
252	0x3de2e67b	0.11079117
253	0xbefbfb6e	-0.49215263
254	0x3c17a738	0.009256177
255	0xbdcaaa40	-0.09895754

arith.constant3 f4 [128, 128]
0	0xbcbb6e27	-0.022879673
1	0x3e0b3ad8	0.13596666
2	0x3d0424e9	0.032261763
3	0xbe078432	-0.13234022
4	0x3c076080	0.0082627535
5	0xbd61da03	-0.055139553
6	0x3e28a85b	0.16470473
7	0x3d7f392e	0.06231039
8	0x3e47e446	0.19520673
9	0x3e8b2d05	0.27182785
10	0xbcb89502	-0.02253199
11	0xbd761de8	-0.060087115
12	0x3dd75ee0	0.10516143
13	0x3aac259e	0.0013133769
14	0xbb7a9174	-0.003823367
15	0x3eb8e1f8	0.361099
16	0xbc70c283	-0.014694813
17	0xbde71722	-0.11283709
18	0x3bfdd822	0.0077467123
19	0x3cce7016	0.025199931
20	0xbe5a2a2e	-0.21305153
21	0xbd8ba5f1	-0.0681876
22	0x3d77f441	0.060535673
23	0x3cc22ee4	0.023704
24	0x3e350ca5	0.17680605
25	0x3e067b4f	0.13132976
26	0xbc60f4f3	-0.013730275
27	0xbd30d0e3	-0.04316796
28	0x3dc44cb6	0.09584944
29	0xbc46431a	-0.012100959
30	0x3d1206df	0.035651084
31	0xbdce246c	-0.10065541
32	0x3d8444cf	0.06458437
33	0xbea134a5	-0.31485477
34	0x3e6aaaae	0.22916672
35	0xbd91de9d	-0.07122538
36	0xbdc62c1a	-0.096763805
37	0x3e1ea3cc	0.15492171
38	0xbd3ef784	-0.046622768
39	0x3d10ab6e	0.035319738
40	0xbed5da0a	-0.41767913
41	0xbd4dcc75	-0.050243814
42	0x3da869b2	0.08223285
43	0x3c543e47	0.012954301
44	0xbde7b002	-0.11312868
45	0xbe3c64eb	-0.18397872
46	0xbe13aa32	-0.14420393
47	0x3c09c8ff	0.008409738
48	0x3dfe1994	0.124072224
49	0xbb7bf4ee	-0.003844555
50	0xbe95ad79	-0.29233912
51	0xbd4f6700	-0.050635338
52	0xbe10f7bb	-0.14157002
53	0x3dabcbae	0.08388458
54	0x3bc7b5b5	0.006094659
55	0xbf0c5e96	-0.54831827
56	0x3d5ecf55	0.054396946
57	0x3d6154e2	0.05501259
58	0xbeacb2bb	-0.3373011
59	0xba294b06	-0.0006458018
60	0x3dae2b98	0.085044086
61	0x3e161174	0.14655095
62	0xbddaa70d	-0.10676394
63	0xbd4b5446	-0.049640916
64	0xbdb5e3f0	-0.08881366
65	0xbcffea9d	-0.031239802
66	0x3cd9e083	0.026596313
67	0x3cba2e20	0.022727072
68	0xbae77a4c	-0.0017660349
69	0xbe718b94	-0.23588401
70	0x3d851aad	0.064992286
71	0x3e074df2	0.13213328
72	0xbd679655	-0.056539852
73	0x3ca61050	0.02027145
74	0xbe3e7e86	-0.18602952
75	0x3e22ac0b	0.15885942
76	0xbdfdb52f	-0.12388074
77	0x3dbcfaaf	0.092275016
78	0x3c3bc90c	0.0114615075
79	0x3eaaccb2	0.33359295
80	0xbeb56469	-0.3542817
81	0xbefb0694	-0.49028456
82	0xbcb9442e	-0.022615518
83	0xbd140126	-0.036133908
84	0xbe71a75a	-0.23598996
85	0xbe7e1714	-0.24813491
86	0xbddf8faa	-0.109160736
87	0xbdf92dd9	-0.12166948
88	0x3e2da092	0.16955784
89	0x3cb3aac5	0.021932015
90	0xbe5f3a39	-0.21799554
91	0xbbd8a162	-0.006611035
92	0xbe82fda7	-0.25584146
93	0xbc899110	-0.016792804
94	0x3d8ea9e3	0.06965997
95	0xbe0c4632	-0.13698652
96	0x3c0f8856	0.008760532
97	0xbecbb272	-0.3978458
98	0xbca14ce6	-0.019689988
99	0xbdf479c8	-0.119372904
100	0x3d96da90	0.07365906
101	0x3e1dd72d	0.15414114
102	0xbe1305d3	-0.1435769
103	0x3e92366e	0.28557152
104	0xbe15d2b3	-0.14631157
105	0x3ce0a884	0.027424105
106	0xbe1b680a	-0.15176407
107	0xbc498a6a	-0.012301067
108	0xbb09179d	-0.0020918616
109	0x3c8f8d27	0.017523361
110	0xbbc3cf14	-0.0059756134
111	0x3d2fdf67	0.042937662
112	0xbec0bf27	-0.37645838
113	0x3d8bd98c	0.06828603
114	0x3e931287	0.28725073
115	0xbb81ef48	-0.003965292
116	0x3d475a17	0.0486699
117	0x3ca28bdd	0.019842083
118	0xbdc32c59	-0.09529943
119	0xbe401f3c	-0.18761915
120	0x3c7cef77	0.015437952
121	0xbcd7c4ee	-0.02633902
122	0xbdda0258	-0.10644978
123	0xbeec1db5	-0.46116415
124	0xba9fae32	-0.0012182652
125	0x3e03a984	0.12857634
126	0xbe410292	-0.18848637
127	0xbe08284f	-0.13296627
128	0xbe161a41	-0.14658453
129	0xbdbaae78	-0.091153085
130	0x3d5f14c7	0.054463174
131	0xbde3095f	-0.11085772
132	0x3cfa1a3f	0.030530093
133	0x3e6e9ddf	0.2330241
134	0xbeeb861d	-0.46000758
135	0xbd1daefd	-0.03849696
136	0xbe03f8c2	-0.12887862
137	0xbda79661	-0.081829794
138	0x3d987d9f	0.07445835
139	0xbddab96d	-0.106798984
140	0x3cc5bded	0.024138415
141	0x3a166747	0.00057374354
142	0xbe16ef0c	-0.14739627
143	0x3e0e4432	0.13893202
144	0xbe9016b8	-0.28142333
145	0xbdee64fe	-0.116403565
146	0xbd40aaf2	-0.047038026
147	0xbd44e646	-0.04807117
148	0x3df46857	0.11933964
149	0x3e2ad7db	0.16683905
150	0x3b7b8d19	0.0038383661
151	0xbd03db55	-0.032191593
152	0xbed44568	-0.41459203
153	0xbdc807e9	-0.09767134
154	0xbe8a3b57	-0.26998398
155	0xbd09a8cc	-0.033608243
156	0xbda34b12	-0.07973303
157	0xbc093d9e	-0.008376507
158	0x3e5a43c5	0.21314915
159	0xbd583c06	-0.052791618
160	0xbcb5a638	-0.022173986
161	0x3de126bb	0.109937154
162	0xbdd23ba2	-0.1026528
163	0xbbc077cc	-0.005873656
164	0x3e834d93	0.25645122
165	0xbe23096b	-0.15921561
166	0xbd9f81d5	-0.07788435
167	0xbdf46231	-0.11932791
168	0xbeb8f4d3	-0.36124286
169	0xbe9fdbc7	-0.31222364
170	0x3d956ed1	0.07296527
171	0xbcc79f47	-0.024367942
172	0xbe486b5a	-0.19572201
173	0xbf0c5b46	-0.5482677
174	0xbd9680e9	-0.073488064
175	0xbe03d622	-0.12874654
176	0xbc3fe3c0	-0.011712015
177	0x3d45c06a	0.048279203
178	0x3f188de6	0.5959152
179	0x3db534e9	0.088479824
180	0xbd4d51ce	-0.050126843
181	0x3e93eb05	0.28890243
182	0xbd4ca56e	-0.049962454
183	0x3d143827	0.036186364
184	0x3d024f63	0.03181399
185	0xbe70cb3b	-0.23515026
186	0x3c8f0922	0.01746041
187	0xbdc103a7	-0.09424525
188	0xbca100b5	-0.019653657
189	0xbe3ae01a	-0.1824955
190	0x3c3a759c	0.011380579
191	0x3d37c64c	0.044866845
192	0xbd1638d0	-0.036675274
193	0xbe81ba60	-0.25337505
194	0xbd77d519	-0.06050596
195	0x3da65722	0.08122088
196	0xbd5d22e9	-0.05398837
197	0xbe74a916	-0.23892626
198	0xbe863e38	-0.26219344
199	0xbe4def34	-0.2011078
200	0x3df2e061	0.11859203
201	0x3cb608b5	0.022220949
202	0xbdbcc5d2	-0.09217419
203	0x3e00ebbe	0.12589929
204	0x3e7942ed	0.24341936
205	0xbdea0487	-0.11426645
206	0x3d78cebd	0.060744036
207	0xbd9e22f0	-0.077215075
208	0xbd474538	-0.048649997
209	0x3d8600b0	0.065431
210	0xbe3afbd8	-0.18260133
211	0xbe4fc552	-0.20290115
212	0xbd6597ca	-0.05605296
213	0x3d8c0f89	0.068389006
214	0x3da4ec36	0.08052866
215	0xbe6a9658	-0.22908914
216	0xbe84880a	-0.2588504
217	0x3d6f7222	0.058458455
218	0xbc9c1542	-0.019053105
219	0xbeb0ec9f	-0.34555528
220	0xbe1d77c1	-0.15377714
221	0x3d9d0b51	0.07668174
222	0xbdb85f52	-0.09002556
223	0x3e82b979	0.2553213
224	0xbdd74779	-0.10511679
225	0xbd8c22ed	-0.06842599
226	0x3d3e1753	0.046408962
227	0xbe5ce958	-0.21573389
228	0xbf04963c	-0.5179174
229	0xbd3302d3	-0.043703865
230	0xbd680476	-0.05664488
231	0xbe89ff2a	-0.26952487
232	0xbe199324	-0.14997536
233	0x3d0cdbce	0.03438931
234	0x3ed1c3e4	0.40969765
235	0x3cb6511f	0.022255478
236	0xbe0460c3	-0.12927537
237	0xbedd77c9	-0.4325545
238	0xbc25789c	-0.010099556
239	0xbde42b6b	-0.11141094
240	0x3ebae7b9	0.36504915
241	0x3e363942	0.1779528
242	0xbd3af170	-0.04564041
243	0xbdb3d87a	-0.08781524
244	0x3dcf2aad	0.10115562
245	0xbec126ea	-0.37725002
246	0x3e1b2024	0.1514898
247	0x3e17a15d	0.14807649
248	0x3d08bdef	0.03338426
249	0x3e16a9d3	0.1471322
250	0x3e628cc5	0.22124012
251	0xbe77a9d1	-0.24185874
252	0xbd836993	-0.06416621
253	0xbe1db078	-0.15399349
254	0x3dcf0a7c	0.101094216
255	0x3e0c7040	0.13714695

sequential_1/dense_0_1/MatMul f4 [128, 650]
0	0xbcc71a3e	-0.024304505
1	0x3c5b7498	0.013394497
2	0xbd0646c9	-0.03278235
3	0x3d05d45a	0.032673217
4	0xbe298077	-0.16552912
5	0x3eb228a9	0.34796646
6	0xbe89cad3	-0.26912555
7	0x3d7d9484	0.061909214
8	0xbd7ea686	-0.062170528
9	0x3d95bda7	0.07311564
10	0x3e9d3001	0.30700687
11	0xbd666a0d	-0.05625348
12	0xbcb20e7e	-0.021735426
13	0x3c0fb634	0.008771468
14	0x3c377365	0.011196946
15	0x3c600b5f	0.013674586
16	0x3d353c5f	0.044247027
17	0xbe30f89f	-0.17282341
18	0x3eac2db1	0.3362861
19	0xbe464a3a	-0.19364253
20	0x3d5850f2	0.05281157
21	0xbcdeb227	-0.027184559
22	0x3d5acca5	0.05341782
23	0x3e9a0eb9	0.30089357
24	0xbd295c8c	-0.041348025
25	0x3d68bc48	0.056820184
26	0x3cd6b1c5	0.026207814
27	0xbc83d004	-0.0160904
28	0xbd28d8e2	-0.04122246
29	0x3c6d7c49	0.014494964
30	0xbe1ece2d	-0.15508337
31	0x3e9c6244	0.3054372
32	0xbe737734	-0.23775941
33	0x3a3aa982	0.00071205955
34	0x3c25be8d	0.010116232
35	0x3db7ba5b	0.08971091
36	0x3e9c22df	0.30495355
37	0xbdd2889c	-0.102799624
38	0x3cc35580	0.02384448
39	0xbcfa6505	-0.030565748
40	0xba508614	-0.00079545495
41	0x3c73a014	0.014869709
42	0x3cf2514c	0.029579781
43	0xbde71196	-0.11282651
44	0x3e90d115	0.28284517
45	0xbdf16a5c	-0.117878646
46	0x3d46d146	0.048539422
47	0x3cda51df	0.026650367
48	0x3cf08471	0.029360028
49	0x3e95f813	0.29290828
50	0xbd280df5	-0.041028935
51	0x3c62fbe2	0.013853999
52	0x3cfcf22b	0.030877193
53	0x3cbd77d5	0.02312843
54	0xbc8bf760	-0.017085731
55	0x3cf6d6ba	0.030131686
56	0xbdf20f0e	-0.11819278
57	0x3e73d7e5	0.23812826
58	0xbdfc8f66	-0.123320386
59	0x3c9335d5	0.017970005
60	0x3c6be684	0.014398221
61	0x3d898c39	0.067161985
62	0x3e86c9cd	0.26325837
63	0xbd84aac0	-0.064778805
64	0xbcecdc49	-0.028913634
65	0xbc0c81d2	-0.008575873
66	0xbba9375b	-0.0051640696
67	0xbcd1731d	-0.025567586
68	0x398bd3de	0.0002667
69	0xbe06bc09	-0.13157667
70	0x3e7f4624	0.249291
71	0xbe337587	-0.17525302
72	0x3c662c00	0.014048576
73	0x3bbbd2cc	0.005731916
74	0x3d80eeb2	0.062955275
75	0x3e71b04e	0.23602411
76	0xbc542963	-0.0129493205
77	0xbb836156	-0.004009406
78	0xbc8f78da	-0.017513681
79	0x3a35bbf9	0.0006932612
80	0xbccf6f32	-0.025321577
81	0x3d040267	0.032228854
82	0xbe11863e	-0.14211366
83	0x3e8d46d3	0.27593097
84	0xbdf98134	-0.12182847
85	0x3c344254	0.011002142
86	0x3d127564	0.035756484
87	0x3d896d7e	0.06710337
88	0x3e8e386e	0.27777427
89	0xbd17f742	-0.037101038
90	0x3bd22843	0.006413491
91	0xbc9c2cf9	-0.019064413
92	0xbccd7d12	-0.025084052
93	0x3aa1a1ca	0.0012331542
94	0x3c8921d6	0.016739767
95	0xbe0a1bac	-0.13487118
96	0x3e588473	0.21144275
97	0xbdfac148	-0.12243897
98	0x3d3a8274	0.045534566
99	0x3d19c513	0.03754146
100	0x3dc0ef6a	0.094206646
101	0x3e9a339f	0.3011751
102	0xbd5f5646	-0.054525636
103	0xbc3ed380	-0.011647105
104	0x3c5c4efe	0.013446568
105	0xbc3a8ef4	-0.011386622
106	0xbd46903c	-0.048477396
107	0x3d729b15	0.05922993
108	0xbdcbf4c4	-0.09958795
109	0x3e3736b6	0.17891964
110	0xbe2166f7	-0.15761934
111	0xba35eb01	-0.00069396204
112	0xbba9c985	-0.0051814937
113	0x3d50249f	0.050816175
114	0x3e8ca6d3	0.27471027
115	0x3d272989	0.040811095
116	0x3cef1011	0.029182466
117	0xbcf1d99c	-0.02952271
118	0xbbdc5b18	-0.0067247264
119	0x3c383808	0.011243828
120	0x3d6ffcf9	0.058590863
121	0xbd86d1d6	-0.06582992
122	0x3e1f46af	0.15554307
123	0xbda65439	-0.08121533
124	0x3d5d7c38	0.054073542
125	0x3d76f2d7	0.060290184
126	0x3d8082c6	0.06274943
127	0x3e7c8715	0.24660905
128	0x3d104493	0.035221647
129	0x3cc89326	0.024484228
130	0x3b8bc778	0.004265722
131	0xbb74f70b	-0.0037378694
132	0xbd0f698c	-0.035012767
133	0x3ce748d3	0.028232967
134	0xbd8f3542	-0.0699258
135	0x3e77b6a7	0.2419077
136	0xbdc0b484	-0.094094306
137	0x3cb67fe3	0.022277778
138	0x3cb99e4a	0.022658486
139	0x3cc9bee2	0.024627153
140	0x3e76d6ff	0.24105452
141	0x3d1abf46	0.03778007
142	0xbbf3109c	-0.0074177515
143	0xbc9ce936	-0.019154172
144	0xbc72560a	-0.014791021
145	0xbc4e1185	-0.012577419
146	0x3cc253b7	0.023721559
147	0xbd3fca80	-0.04682398
148	0x3e30a3e1	0.17250015
149	0xbdda97f1	-0.10673512
150	0xbcc1dcfe	-0.023664948
151	0x3cd7d8ac	0.026348434
152	0x3d3d3414	0.046192244
153	0x3e6096fe	0.21932599
154	0x3d842959	0.06453199
155	0x3bc58f73	0.0060290634
156	0x3b994f39	0.0046786335
157	0xbc9b5052	-0.018959198
158	0xbc6c7cb0	-0.014434025
159	0x3cd6b7b0	0.026210636
160	0xbd897dba	-0.067134336
161	0x3e36fc2a	0.1786963
162	0xbdab1e3d	-0.08355377
163	0x3cfb4a32	0.030675028
164	0x3c8d6dc7	0.01726426
165	0x3ccfc53f	0.025362609
166	0x3e66854d	0.22511788
167	0x3d1ca8a9	0.038246784
168	0x3b9cb86c	0.004782727
169	0xbd13131e	-0.035906903
170	0xbccbb215	-0.02486519
171	0xbcb04f59	-0.02152221
172	0x3c9a795d	0.018856699
173	0xbda63554	-0.0811564
174	0x3e139617	0.14412723
175	0xbd45dd74	-0.048306897
176	0x3c24ea37	0.010065607
177	0x3c842df8	0.0161352
178	0x3d4101d1	0.047120873
179	0x3e36c5b3	0.17848854
180	0x3d2cb5c9	0.04216555
181	0x3b81b623	0.00395848
182	0xbbc57c17	-0.0060267556
183	0x3c129769	0.008947232
184	0xbd36421d	-0.044496644
185	0x3d9dcf10	0.0770551
186	0xbd83063b	-0.06397673
187	0x3e122661	0.14272453
188	0xbd05355c	-0.03252159
189	0x3d0c0e29	0.03419319
190	0x3d04143e	0.032245867
191	0x3d302b67	0.04301014
192	0x3e558759	0.20852412
193	0x3cd7017f	0.02624583
194	0x3cc564e4	0.02409596
195	0x3ad46f75	0.0016207533
196	0xbc2ffc4f	-0.010741307
197	0x3c461ecb	0.012092303
198	0x3d534950	0.051583588
199	0xbd993f46	-0.074827716
200	0x3e355f8a	0.17712227
201	0xbd62de7e	-0.055387966
202	0x3c8bd41a	0.017068911
203	0x3cf80758	0.03027694
204	0x3d6b4b31	0.057444755
205	0x3e53be05	0.20677955
206	0x3dc86580	0.097849846
207	0x3cb4351e	0.021997984
208	0xbb02cfe9	-0.001996035
209	0x3bd0bdf7	0.006370302
210	0xbc3953c8	-0.011311479
211	0x3d5d145e	0.0539745
212	0xbd9ccd3f	-0.07656335
213	0x3e08cff3	0.13360576
214	0xbda1a29b	-0.07892343
215	0x3c760ea7	0.015018142
216	0x3d083afd	0.03325938
217	0x3d5ca018	0.053863615
218	0x3e2f5574	0.17122442
219	0x3d5bdc53	0.053676914
220	0x3caa2637	0.020770175
221	0x3d02c714	0.031928137
222	0xbc8997a2	-0.016795937
223	0xbd35a857	-0.044349995
224	0x3d70dd83	0.058805
225	0xbd7fa898	-0.062416643
226	0x3e1bb554	0.1520589
227	0xbd11b09e	-0.035568826
228	0x3c802ef3	0.015647387
229	0x3d369731	0.04457778
230	0xbca2ec62	-0.019888107
231	0x3db485f6	0.088146135
232	0x3d4642ad	0.04840343
233	0x3d087ca8	0.033322006
234	0x3c11bae7	0.008894659
235	0x3a97ef29	0.0011591661
236	0xbb77d5ff	-0.003781676
237	0x3d76fa2b	0.060297173
238	0xbd54a231	-0.05191249
239	0x3dbd0cb3	0.09230938
240	0xbcf4c156	-0.029877346
241	0x3bb731e8	0.005590666
242	0x3ca155ab	0.01969417
243	0x3d2c5530	0.04207343
244	0x3df61e75	0.12017528
245	0x3de03383	0.10947325
246	0xbcd5b3ed	-0.026086772
247	0x3c923121	0.017845692
248	0x3c16d387	0.0092057055
249	0x3b8e706c	0.004346898
250	0x3d567e07	0.052366283
251	0xbd3d571d	-0.046225656
252	0x3e100705	0.14065178
253	0xbd41c345	-0.047305364
254	0xbc0004f8	-0.007813685
255	0x3be8dbf8	0.0071063004

sequential_1/dense_0_1/Relu;sequential_1/dense_0_1/BiasAdd f4 [128]
0	0x3c8132bf	0.015771268
1	0xbd245c16	-0.040126882
2	0xbef55d45	-0.47922722
3	0xbd4bf917	-0.049798097
4	0xbcdd1ee5	-0.02699227
5	0x3db2d611	0.08732236
6	0x3d58b3e8	0.052905947
7	0xbe005798	-0.12533414
8	0xbd4f0912	-0.05054576
9	0xbe1be9d9	-0.15225925
10	0xbe29ae71	-0.1657045
11	0xbccc5105	-0.024940977
12	0xbe3680cb	-0.17822568
13	0x3ac92f1c	0.0015349123
14	0xbe685530	-0.22688746
15	0xbe3175b3	-0.17330055
16	0xbe8e0147	-0.2773535
17	0xbe7cbf7b	-0.24682419
18	0xb7ce7688	-2.4612309e-05
19	0x3cdcf7df	0.026973663
20	0xbda142a9	-0.078740425
21	0x3d8dca5f	0.06923365
22	0x3cbf58f2	0.023357842
23	0xbd1cd691	-0.038290564
24	0xbef5ae78	-0.47984672
25	0xbeb000e0	-0.34375668
26	0xbc4da0be	-0.012550531
27	0xbdbd4f94	-0.09243694
28	0xbd792ae3	-0.060831916
29	0x3c5ac43c	0.01335245
30	0x3d707ee0	0.058714747
31	0x3c981268	0.018563464
32	0x3d00b875	0.031425912
33	0xbdcad86b	-0.0990456
34	0x3d6ae445	0.0573466
35	0xbe2c970c	-0.16854495
36	0x3d307f05	0.043089885
37	0xbc93a548	-0.018023148
38	0xbdbda8a2	-0.0926068
39	0x3cdc94a5	0.026926348
40	0x3da4de1f	0.08050179
41	0xbe95a32f	-0.29226062
42	0xbe378953	-0.17923479
43	0xbde72412	-0.11286177
44	0x3bc6f3ce	0.0060715443
45	0x3d5ecf9a	0.054397203
46	0xbe63a6e8	-0.22231638
47	0xbe8476f4	-0.25872004
48	0xbdd18ff5	-0.10232536
49	0xbebbaa21	-0.36653236
50	0xbc18e189	-0.0093311155
51	0xbe716c91	-0.23576571
52	0xbe12a76b	-0.14321677
53	0xbdb0e7fd	-0.08637998
54	0xbcde552d	-0.027140224
55	0x3e12e3f5	0.14344771
56	0xbe936f96	-0.2879607
57	0xbd221ad1	-0.039576355
58	0xbc8ed18e	-0.017433908
59	0xbe0e4e9d	-0.13897176
60	0xbd97bdc5	-0.074092425
61	0x3d1fdb69	0.039027605
62	0xbe346dd2	-0.17620018
63	0xbd156cbe	-0.036480658
64	0xbe44770c	-0.19186038
65	0xbd69c7c2	-0.05707527
66	0xbd8aaea7	-0.067715935
67	0xbe1a8e0d	-0.1509325
68	0xbd9413aa	-0.07230313
69	0xbea84c15	-0.32870546
70	0xbe6b2592	-0.2296355
71	0x3d2578b1	0.040398303
72	0xbd9ccbc1	-0.076560505
73	0xbd2df429	-0.042469177
74	0xbe0a3097	-0.13495098
75	0xbf176d50	-0.5915117
76	0x3d85dfbf	0.06536817
77	0xbdd12884	-0.10212806
78	0xbdd9f676	-0.10642712
79	0xbe3ee24e	-0.18641016
80	0xbe5b8e95	-0.2144111
81	0xbeb6b58d	-0.35685387
82	0xbe6f34e2	-0.23360017
83	0xbdb13c2e	-0.086540565
84	0xbcc4122c	-0.023934446
85	0xbd17cb01	-0.037058834
86	0xbdbae773	-0.09126177
87	0xbcf94086	-0.030426275
88	0x3e0c5781	0.13705255
89	0xbd939b6b	-0.07207378
90	0xbe85200f	-0.2600102
91	0xbe4c9717	-0.19979511
92	0xbe9b84bd	-0.3037471
93	0xbe24070c	-0.16018313
94	0xbbe60ee3	-0.0070208176
95	0x3ce90620	0.028445303
96	0x3c7f3a1a	0.015577817
97	0xbe00ae84	-0.12566572
98	0xbc683058	-0.014171682
99	0xbe4c445a	-0.19947949
100	0x3d027a8d	0.031855155
101	0xbf3e719f	-0.7439212
102	0xbe413ead	-0.18871565
103	0xbec81fbc	-0.3908671
104	0xbe136bb1	-0.1439655
105	0xbce055fe	-0.027384754
106	0x3d844f63	0.06460454
107	0xbd21494d	-0.039376546
108	0xbe8030c9	-0.2503722
109	0x3d2842ed	0.04107945
110	0xbe3acc9d	-0.18242116
111	0x3d95d88a	0.07316692
112	0xbc0a2a41	-0.008432926
113	0x3c015a04	0.007894997
114	0xbd714884	-0.058907047
115	0xbe577ea6	-0.21044406
116	0x3b443440	0.002993837
117	0x3d2ac8e6	0.041695498
118	0xbe32b67c	-0.17452425
119	0xbcee0a3c	-0.029057615
120	0xbda9d935	-0.08293382
121	0xbdade55b	-0.08491012
122	0x3c376f3a	0.011195952
123	0xbaa2d8c9	-0.0012424226
124	0xbe4963cb	-0.19666974
125	0xbaaf504c	-0.0013375371
126	0xbb46728a	-0.0030280673
127	0x3c2c9040	0.010532439
