src/track_test/config/trackVer13_policyVer3.tflite (tflite, 403500 bytes, 6 tensors)

arith.constant f4 [128]
0	0x3dab0daf	0.08352219
1	0xbcf8bef6	-0.030364495
2	0x3b0ad989	0.002118679
3	0x3c72887e	0.01480305
4	0x3c348f06	0.011020428
5	0xbd254860	-0.040352225
6	0xbcf3e780	-0.029773474
7	0xbd05a564	-0.032628432
8	0x3d95681a	0.072952464
9	0xbdb2bebc	-0.08727786
10	0x3d2ae5df	0.04172313
11	0xbd8a77b8	-0.06761116
12	0x3d8065fd	0.06269453
13	0x3d80ec6a	0.062950924
14	0x3cdd2e3b	0.026999583
15	0x3b3b8924	0.0028615678
16	0xbc6a5daf	-0.0143045625
17	0xbccb07e9	-0.024784045
18	0x3dc4b5a7	0.0960496
19	0xbc420b2f	-0.011843487
20	0x3d428d3f	0.047497984
21	0x3c3b1cbd	0.011420426
22	0x3d232339	0.039828513
23	0xbd2a74de	-0.04161536
24	0xbcf45920	-0.029827654
25	0x3b97c0c4	0.0046311338
26	0x3d2880bc	0.041138396
27	0xbcfa389b	-0.03054457
28	0x3d9852d3	0.074376725
29	0x3d85428d	0.06506834
30	0x3d6b6ef0	0.057478845
31	0xbd304fe5	-0.043044943
32	0x3c28a98c	0.010294329
33	0xbcabd5e4	-0.020976014
34	0x3d3676b0	0.044546783
35	0xbca0bc95	-0.019621173
36	0x3d6aac36	0.05729314
37	0xbcefe51f	-0.029284058
38	0x3ccaabf3	0.024740195
39	0xbde2dc12	-0.11077131
40	0x3bea1de8	0.0071446784
41	0xbcb3627c	-0.021897547
42	0x3b846238	0.004040029
43	0xbd379d1d	-0.04482757
44	0xbd1865ac	-0.037206337
45	0x3d843c7b	0.06456848
46	0x3d09e9dc	0.03367029
47	0xbd0ca191	-0.03433377
48	0xbc12f8df	-0.008970468
49	0xbd0eba61	-0.034845714
50	0xbca58778	-0.020206198
51	0x3c8a5d1e	0.016890105
52	0x3ccd7b6b	0.025083264
53	0xbaf3929f	-0.0018583125
54	0xbdc164f3	-0.09443083
55	0xbbac1492	-0.0052514756
56	0x3da6648e	0.08124648
57	0xbd098810	-0.033577025
58	0x3b7a9137	0.0038233527
59	0x3bbf7f61	0.005844042
60	0x3d20ac1b	0.039226633
61	0x3d2d369a	0.0422884
62	0x3d381d65	0.044949908
63	0x3cb4afce	0.022056486
64	0xbc923538	-0.017847642
65	0xbc81ad78	-0.015829787
66	0x3d03de33	0.032194328
67	0x3db9b16b	0.09067043
68	0xbcd725ae	-0.026263084
69	0xbdbc1afe	-0.09184836
70	0xbb92ce4b	-0.0044801584
71	0x3cc04b6c	0.023473464
72	0x3d638e83	0.05555583
73	0x3d117c3d	0.035518873
74	0x3dead2ab	0.11465963
75	0x3d0c85de	0.034307353
76	0xbd084c1c	-0.03327571
77	0xb9cf5fa3	-0.00039553372
78	0x3c4677e2	0.012113543
79	0xbd40403b	-0.046936255
80	0xbc293c9d	-0.010329393
81	0x3bddbbf0	0.0067667887
82	0xbcb3cd41	-0.021948459
83	0x3cbaecb5	0.022817949
84	0x3d8d4365	0.0689762
85	0xbc189cd7	-0.009314737
86	0x3d65d76a	0.056113638
87	0xbc8c86eb	-0.017154178
88	0x3d33646a	0.043796934
89	0x3d5013d2	0.050800152
90	0xbcb46dfb	-0.022025099
91	0xbd411a95	-0.04714449
92	0xbcf5f9e0	-0.030026376
93	0x3cb4a417	0.0220509
94	0xbe0be925	-0.13663156
95	0x3d343b37	0.044001784
96	0xbd0d1a4d	-0.03444891
97	0x3c9b385d	0.018947775
98	0xbd24fbc4	-0.040279165
99	0xbae441b4	-0.0017414601
100	0x3d8a8ec7	0.06765514
101	0xbd557bcc	-0.052120015
102	0xbdb23468	-0.08701402
103	0xbd3448b9	-0.044014666
104	0xbd19db21	-0.037562493
105	0xbd0636a0	-0.03276694
106	0x3dbf8ade	0.09352659
107	0xbbf13859	-0.0073614535
108	0x3dc9cb48	0.09853226
109	0xbd31acb1	-0.043377582
110	0x3c4fbd18	0.012679361
111	0xbd322399	-0.04349098
112	0xbbfe1f3e	-0.007755189
113	0x3c611be5	0.013739561
114	0xbcf56985	-0.029957542
115	0xbc9a6310	-0.018846065
116	0xbcf613e1	-0.030038776
117	0xbcf328f5	-0.029682616
118	0xbc494757	-0.012285075
119	0xbc96129b	-0.018319419
120	0xbaca8071	-0.0015449655
121	0xbd000f1f	-0.03126442
122	0xbc9de10b	-0.019272348
123	0x3d365647	0.044515874
124	0xbcdbc446	-0.026826989
125	0xbcc5bd54	-0.02413813
126	0xbcf5f643	-0.030024653
127	0xbd7b2de6	-0.06132307

arith.constant1 f4 [4]
0	0x3d65f8fc	0.056145653
1	0x3b0a1b49	0.0021073392
2	0x3ca5d75a	0.02024429
3	0xb63ee640	-2.844623e-06

arith.constant2 f4 [4, 128]
0	0x3ea26263	0.31715688
1	0xbda0c902	-0.07850839
2	0x3e6e46c2	0.2326918
3	0x3d9e6848	0.07734734
4	0x3d8d97ed	0.06913743
5	0x3d627b9b	0.05529366
6	0xbe9f9d0e	-0.3117451
7	0xbdcfd8bf	-0.10148763
8	0xbe78af2c	-0.24285573
9	0xbe09dc48	-0.13462937
10	0xbe8aa4fc	-0.27078998
11	0xbf1a4869	-0.6026674
12	0x3f021bf9	0.5082393
13	0x3e4ce5aa	0.20009485
14	0xbcb3f28b	-0.02196624
15	0xbef94553	-0.48685703
16	0xbd94667a	-0.07246108
17	0xbe43e79b	-0.19131319
18	0x3f12ba91	0.5731593
19	0xbe78814e	-0.24268076
20	0x3de86749	0.11347825
21	0xbe894cce	-0.2681641
22	0x3e1eb11a	0.15497246
23	0xbd34ead3	-0.04416926
24	0x3cee0b8b	0.029058238
25	0x3dedc9c6	0.11610751
26	0x3d05581c	0.03255473
27	0xbc024f8f	-0.007953539
28	0x3ec594ac	0.3858999
29	0x3e8ceb61	0.2752333
30	0x3f19d26c	0.60086703
31	0xbdd663df	-0.10468268
32	0x3e63ddad	0.22252531
33	0xbd60ebb1	-0.054912273
34	0xbe1e9c5a	-0.15489331
35	0xbeba2cb2	-0.36362225
36	0x3e8eac8c	0.27866018
37	0xbe360b03	-0.17777638
38	0x3df8a5c9	0.12140996
39	0xbd043e27	-0.032285836
40	0xbdb9de71	-0.090756305
41	0xbe22849d	-0.158709
42	0xbf27f0d3	-0.65601844
43	0x3d240f81	0.04005385
44	0xbc15da7d	-0.00914633
45	0xbe964a19	-0.29353407
46	0x3d033dcb	0.032041352
47	0x3e6cb6fa	0.23116675
48	0xbe84be6e	-0.25926536
49	0x3c301f2f	0.010749622
50	0xbc183f79	-0.009292477
51	0xbe8ce11d	-0.27515498
52	0xbe34a004	-0.17639166
53	0xbe11fa54	-0.14255649
54	0xbe929bf3	-0.28634605
55	0xbe3cb20f	-0.18427299
56	0x3e3ca65b	0.18422835
57	0xbd313fd8	-0.043273777
58	0xbe06e530	-0.13173366
59	0xbec7699d	-0.38947764
60	0xbe7d6fcc	-0.24749678
61	0x3df6ec15	0.12056748
62	0xbd3f07e0	-0.04663837
63	0xbe280e5e	-0.1641173
64	0x3d5d3872	0.05400891
65	0xbdeae4fb	-0.11469456
66	0xbcd52135	-0.02601681
67	0x3d8324ed	0.064035274
68	0x3b2ca8ae	0.0026345658
69	0xbe9f2cb6	-0.310888
70	0xbe12683b	-0.14297573
71	0x3e38fe5d	0.18065782
72	0x3e7c471f	0.24636506
73	0x3e54010f	0.20703529
74	0xbceaa96b	-0.028645238
75	0xbdb8274a	-0.08991869
76	0x3cf84b22	0.030309264
77	0xbdfc7f6d	-0.12328992
78	0x3e5cd0ab	0.21563976
79	0xbda4e87c	-0.080521554
80	0xbea00c4d	-0.31259385
81	0xbe171d9a	-0.14757386
82	0xbea1c3a2	-0.31594568
83	0xbd5b190c	-0.053490683
84	0x3eb13eb6	0.34618157
85	0x3cae15ba	0.021250594
86	0x3e300c8a	0.17192283
87	0xbd039788	-0.032126933
88	0x3e1f9a43	0.1558619
89	0xbb6cc1ef	-0.0036126336
90	0xbe7f739e	-0.24946448
91	0xbebfdd53	-0.37473544
92	0xbb169054	-0.002297421
93	0xbe125563	-0.14290385
94	0x3f8cfd3b	1.101478
95	0x3eb28ef1	0.3487468
96	0xbdac65e0	-0.084178686
97	0xbe3ab3ef	-0.18232702
98	0x3d48ea60	0.049051642
99	0xbe5201ce	-0.20508501
100	0x3e2bd0c8	0.16778862
101	0xbbcd53bb	-0.006266085
102	0xbe3cf4c5	-0.18452747
103	0x3da3d2d8	0.079992
104	0xbd208ed9	-0.03919873
105	0xbd1e233a	-0.038607813
106	0xb97dc61a	-0.00024201759
107	0xbe3d1177	-0.18463694
108	0xbe8f31e2	-0.27967745
109	0x3c4c9b2b	0.012488167
110	0xbe989441	-0.2980061
111	0xbe854bfc	-0.26034534
112	0x3e85fdac	0.261701
113	0xbd04cf63	-0.032424342
114	0x3e298d55	0.1655782
115	0xbe3b0e70	-0.18267226
116	0x3d1830a4	0.037155762
117	0xbea89f36	-0.32933968
118	0x3daeaf01	0.08529473
119	0xbd9e7e61	-0.077389486
120	0xbbe4db5f	-0.006984159
121	0x3c6ff5b8	0.014645986
122	0xbe0a0402	-0.13478091
123	0x3d49a654	0.04923089
124	0xbe154edc	-0.14580864
125	0x3e898995	0.2686278
126	0x3d0b3120	0.033982396
127	0x3d01adac	0.031659767
128	0xbd1277c4	-0.03575875
129	0x3d15117f	0.03639364
130	0xbe3182f6	-0.17335114
131	0xbe3b006a	-0.18261877
132	0x3db4b99a	0.08824463
133	0x3d6e92c6	0.058245443
134	0xbd050a28	-0.03248039
135	0x3d480a1c	0.048837766
136	0x3e68cc9a	0.227343
137	0x3e31ddb6	0.17369732
138	0xbe89961a	-0.2687233
139	0x3dd6ebb9	0.10494179
140	0xbc4d097d	-0.012514469
141	0x3d235c8e	0.03988319
142	0xbebd3e1c	-0.36961448
143	0x400e1c5e	2.2204814
144	0xbe458a08	-0.19290936
145	0xbd08f5bf	-0.033437487
146	0xbdc0306a	-0.09384234
147	0xbca5f179	-0.020256745
148	0x3cf3b54f	0.02974954
149	0x3d8daf5b	0.06918212
150	0xbeab5672	-0.3346439
151	0xbc914d19	-0.017736958
152	0xbbea2231	-0.007145189
153	0x3e051686	0.12996873
154	0x3e25d896	0.16195902
155	0x3db05d0d	0.08611498
156	0xbdac3130	-0.08407819
157	0xbd101283	-0.035173904
158	0x3e0fcb12	0.14042309
159	0x3e32c06d	0.17456217
160	0x3e36c3ed	0.17848177
161	0xbe1ea898	-0.15494001
162	0xbee2e0f1	-0.44312242
163	0xbb0060cf	-0.0019588952
164	0x3da9167e	0.08256243
165	0xbe6a72dd	-0.2289538
166	0xbe8079c8	-0.25092912
167	0xbd205b00	-0.039149284
168	0x3e1891d2	0.14899376
169	0xbe59c15d	-0.21265168
170	0xbd76b4c1	-0.060230974
171	0xbc421e59	-0.011848056
172	0xbc787bb6	-0.015166214
173	0xbe3b73af	-0.18305849
174	0xbea08cde	-0.31357473
175	0x3e0603a3	0.13087325
176	0xbe22f0d3	-0.1591218
177	0xbd3876e0	-0.045035243
178	0x3d804e21	0.06264902
179	0xbe80d740	-0.25164223
180	0x3ed5ab41	0.4173222
181	0xbe524579	-0.20534314
182	0xbf01383d	-0.5047644
183	0x3da4b961	0.08043171
184	0xbeaf5a55	-0.34248605
185	0xbcdc4e56	-0.026892822
186	0xbe8100f8	-0.25196052
187	0xbdcbbd2b	-0.0994819
188	0xbd0e2607	-0.034704234
189	0x3d2d1369	0.04225484
190	0x3eb19160	0.34681225
191	0xbe03ab3c	-0.1285829
192	0xbcd84211	-0.02639869
193	0xbb2ba2e4	-0.002618962
194	0xbdc72c99	-0.09725303
195	0x3eac9279	0.337055
196	0x3d7362d1	0.05942041
197	0x3e01d4ea	0.12678877
198	0xbe23fe8e	-0.16015074
199	0x3d92bff6	0.0716552
200	0xbe5226c6	-0.20522603
201	0x3d00b59c	0.031423196
202	0x3e8fec1d	0.28109828
203	0x3d657aa5	0.056025166
204	0x3cbcb4d0	0.023035437
205	0x3e95f186	0.2928583
206	0xbf119be2	-0.56878483
207	0x3b1e7991	0.0024181346
208	0xbf148c45	-0.58026534
209	0x3f05c7ad	0.52257806
210	0x3e5be981	0.21475793
211	0xbe96eb92	-0.294766
212	0x3e66f230	0.22553325
213	0x3e2bd1bf	0.1677923
214	0xbe847c15	-0.25875917
215	0xbdd8cbac	-0.10585722
216	0x3e410834	0.18850785
217	0x3ed0c1a9	0.4077275
218	0xbdd17a8b	-0.10228451
219	0x3e261572	0.16219118
220	0x3b75ef4c	0.0037526665
221	0x3d14c95b	0.03632484
222	0x3d10339d	0.035205472
223	0x3cc29da9	0.023756819
224	0xbe361583	-0.17781644
225	0xbe97e3ae	-0.29665893
226	0x3bec731f	0.007215872
227	0x3e798b3d	0.24369521
228	0xbe8f7263	-0.28016958
229	0x3c6dc924	0.014513288
230	0xbf0df86b	-0.5545718
231	0x3cd7a0e5	0.026321838
232	0xbc16ad6a	-0.009196619
233	0x3ca1298c	0.019673131
234	0x3ee808c9	0.45319203
235	0x3cbab914	0.02279333
236	0xbd95398c	-0.07286367
237	0xbd5ac974	-0.053414777
238	0x3d92cec2	0.07168342
239	0x3e6cefe7	0.2313839
240	0x3e1eccee	0.15507862
241	0x3eb6e3d1	0.35720685
242	0xbea1cfe8	-0.31603932
243	0x3d99d78d	0.07511816
244	0xbc8924f5	-0.016741255
245	0x3e7381f4	0.23780042
246	0x3c9453f5	0.01810644
247	0x3b4d7b45	0.0031353992
248	0xbd8d5cf0	-0.06902492
249	0x3da6d1d7	0.081454925
250	0xbe3aed61	-0.18254615
251	0x3e6cbee8	0.231197
252	0xbc65790e	-0.0140059125
253	0xbf4b97d6	-0.7952856
254	0x3c42958d	0.011876476
255	0xbc22f9dd	-0.009947267

arith.constant3 f4 [128, 128]
0	0x3d527b77	0.051387277
1	0xbe2090f3	-0.15680294
2	0x3d5c1451	0.053730313
3	0xbd81f136	-0.063448355
4	0xbd53b48b	-0.05168585
5	0xbb4ec48b	-0.0031550254
6	0x3e6232b5	0.22089656
7	0x3e090f8c	0.13384837
8	0xbbbd9fa7	-0.0057868543
9	0x3c8a2b6f	0.016866414
10	0xbd3b3d2e	-0.045712642
11	0xbd371c3b	-0.044704657
12	0x3d0d340b	0.03447346
13	0xbc5925ec	-0.01325367
14	0xbd0d8986	-0.03455498
15	0x3d851dec	0.06499848
16	0xbd26e989	-0.04075006
17	0xbe187a35	-0.14890368
18	0xbbec6062	-0.007213638
19	0xbdb7345d	-0.089455344
20	0xbb0c9082	-0.0021448438
21	0xbd435808	-0.047691375
22	0xbc052933	-0.008127498
23	0xbe6769e3	-0.22598986
24	0x3db1a38d	0.08673773
25	0x3c81031f	0.015748559
26	0xbd0b36ed	-0.03398793
27	0xbe1de4f2	-0.15419367
28	0xbd230379	-0.039798234
29	0x3b62f15d	0.0034628727
30	0x3cc6f8b9	0.024288522
31	0xbd7484c5	-0.05969693
32	0x3de3b877	0.11119168
33	0x3da91a91	0.0825702
34	0x3dc412e3	0.09573915
35	0xbd00985c	-0.0313953
36	0xbc7c6d0a	-0.015406856
37	0x3d79693d	0.06089138
38	0xbdb83c5e	-0.08995889
39	0x3d07c5a6	0.033147477
40	0x3ca09ad4	0.019605078
41	0xbde3adc9	-0.11117131
42	0xbd6e0744	-0.058112398
43	0xbbea9f41	-0.007160098
44	0xbd1fb483	-0.03899051
45	0x3c9123f5	0.017717341
46	0x3e14b008	0.14520276
47	0xbd408246	-0.04699924
48	0x3dd6aac7	0.10481792
49	0xbbf6bd34	-0.007529879
50	0xbdf38287	-0.118901305
51	0xbdb3ac8b	-0.08773144
52	0x3ce1ea18	0.027577445
53	0x3b341483	0.0027478046
54	0xbb6193cd	-0.0034420372
55	0xbd31fb7b	-0.04345272
56	0x3ce17473	0.027521348
57	0x3c29f647	0.0103736585
58	0x3dee0e4e	0.11623822
59	0x3d1d71e6	0.0384387
60	0xbd1da7e1	-0.03849018
61	0x3d5c8397	0.05383643
62	0x3e043f14	0.12914687
63	0x3ce33c9d	0.027738864
64	0xbb932d5b	-0.004491491
65	0xbcf31c47	-0.02967657
66	0x3ce8e951	0.028431566
67	0xbb7a8299	-0.0038224815
68	0x3cdb6631	0.026782127
69	0x3de546cd	0.11195145
70	0x3d018f43	0.031630766
71	0x3e2a56fd	0.16634746
72	0xbba86106	-0.005138519
73	0x3d6b23a9	0.057407055
74	0x3cf7a63d	0.030230636
75	0xbcf4fa57	-0.029904528
76	0xbe266ae5	-0.16251715
77	0x3d5fcbf6	0.05463787
78	0x3d3719e6	0.044702433
79	0xbdece4d5	-0.11567084
80	0xbb163496	-0.0022919527
81	0xbc8404f2	-0.01611564
82	0x3ccc3749	0.024928706
83	0xbcd061dc	-0.025437288
84	0xbd39702a	-0.045272984
85	0xbe581111	-0.2110026
86	0xbcbca284	-0.023026712
87	0x3c1554a1	0.009114415
88	0x3d8416b0	0.0644964
89	0x3c4df472	0.012570487
90	0x3d2bd528	0.04195133
91	0xba144188	-0.0005655517
92	0x3df2e82f	0.11860692
93	0x3c7d42b3	0.015457797
94	0xbd14ab19	-0.036295984
95	0xbd0fbec1	-0.035094026
96	0xbd7568db	-0.05991445
97	0x3e214f2c	0.15752858
98	0x3cdeb1ad	0.027184332
99	0xbe1ba70b	-0.1520044
100	0xbd2f49ea	-0.0427951
101	0x3d2fd236	0.042925082
102	0xbd1ef518	-0.03880796
103	0x3e666b44	0.22501856
104	0x3e09600a	0.13415542
105	0xbc859d07	-0.016310228
106	0xbd334b18	-0.043772787
107	0x3d1a7499	0.037708852
108	0xbeb470a6	-0.35242194
109	0x3c49f9d4	0.01232763
110	0x3e187d7c	0.14891618
111	0x3d5c0125	0.05371203
112	0xbd377044	-0.0447848
113	0x3d574ef0	0.052565515
114	0xbd41aa52	-0.04728157
115	0x3de57b5f	0.11205172
116	0xbd32eca7	-0.04368272
117	0x3d2d9593	0.042378973
118	0x3d34d134	0.044144824
119	0xbc07cf9d	-0.008289245
120	0x3c534c14	0.012896556
121	0x3db79340	0.089636326
122	0xbd2c0458	-0.04199633
123	0x3e114520	0.14186525
124	0xbdef6980	-0.116900444
125	0x3da3f271	0.080052264
126	0xbbef907a	-0.007310924
127	0xbd4c833b	-0.04992984
128	0xbc8e47c6	-0.017368209
129	0x3c841267	0.016122056
130	0xbd096c19	-0.033550356
131	0xbc5f347d	-0.013623354
132	0xbd0b53f2	-0.034015603
133	0xbcb89440	-0.022531629
134	0xbd424765	-0.04743137
135	0xbd7054f5	-0.05867477
136	0xbc3f6698	-0.011682175
137	0x3d82114a	0.06350954
138	0xbc4569e7	-0.012049175
139	0xbd0e017b	-0.03466938
140	0xbba40b21	-0.0050062095
141	0xbcdaf2e4	-0.026727147
142	0xbd50aed4	-0.05094798
143	0xbcbf7726	-0.023372244
144	0xbd608d9a	-0.05482254
145	0xbd4a53f1	-0.04939646
146	0xbe08676d	-0.13320704
147	0xbdc08bba	-0.09401651
148	0xbda71cef	-0.081598155
149	0x3b9bc82a	0.004754086
150	0xbdbc57f4	-0.09196463
151	0xbd962cdb	-0.07332774
152	0xbde6591e	-0.112474665
153	0x3d410e76	0.04713293
154	0x3d1c6e5b	0.03819118
155	0xbd588d75	-0.05286928
156	0xbbe23749	-0.006903563
157	0xbd0c45ba	-0.034246184
158	0x3b9919dc	0.004672272
159	0xbd2cb48c	-0.04216437
160	0xbd7a4f38	-0.061110705
161	0xbdcb81e1	-0.09936882
162	0xbce512de	-0.027963098
163	0x3db3b60e	0.087749586
164	0x3c8604d8	0.016359732
165	0xbda1072e	-0.078626975
166	0xbdb81388	-0.089881
167	0xbc9ff294	-0.01952485
168	0xbd612e6c	-0.054975912
169	0xbc9c4f0b	-0.01908066
170	0x3d4ab313	0.049487185
171	0xbc2750f3	-0.010212171
172	0xbdb10573	-0.086436175
173	0xbc169229	-0.009190121
174	0xbc51ec70	-0.012812719
175	0xbc98f035	-0.018669227
176	0xbd4b15dd	-0.049581397
177	0xbd40cde3	-0.04707135
178	0xbda1a673	-0.07893076
179	0x3c8c1e77	0.01710437
180	0xbc8b9485	-0.017038593
181	0x3d3b432f	0.04571837
182	0xbcb08fc3	-0.021552926
183	0x3c9386c7	0.018008603
184	0x3c266fb7	0.010158471
185	0xbcbccbfb	-0.023046484
186	0xbc517268	-0.012783624
187	0xbd621450	-0.055195153
188	0x3bf5666b	0.007489016
189	0xbd4c1075	-0.049820382
190	0xbd0da154	-0.034577683
191	0xbd5df57d	-0.054189194
192	0xbd504770	-0.050849378
193	0xbc84e47c	-0.016222231
194	0xbc32c044	-0.0109100975
195	0x3c399bd7	0.011328659
196	0xbd97c96a	-0.074114636
197	0xbc891564	-0.016733833
198	0xbda13cc8	-0.07872921
199	0xbd054984	-0.032540813
200	0xbd89154e	-0.06693517
201	0xbcd3bab2	-0.02584586
202	0xbd345213	-0.044023585
203	0x3c8d103a	0.017219651
204	0x3d39344f	0.0452159
205	0xbe095d16	-0.13414416
206	0xbbed5563	-0.007242845
207	0xbc922e4d	-0.017844344
208	0xbd4face0	-0.050701976
209	0xbd46ce6e	-0.04853671
210	0xbe219404	-0.1577912
211	0xbddc92c5	-0.107701816
212	0xbc5003b1	-0.012696193
213	0x3d83a010	0.06427014
214	0xbb52e366	-0.0032178997
215	0xbc68986e	-0.014196498
216	0xbdbb3338	-0.091406286
217	0xbc70e01c	-0.014701869
218	0x3c02adc4	0.007975999
219	0xbe27025e	-0.16309497
220	0x3d140fcf	0.03614789
221	0x3d345f51	0.044036213
222	0xbd781839	-0.060569976
223	0x3dbb34e5	0.09140948
224	0xb8bc8fa6	-8.991295e-05
225	0xbd17bbc9	-0.03704432
226	0x3c861d2e	0.016371336
227	0xbcea069a	-0.028567601
228	0xbd9f00da	-0.07763834
229	0xbcbf4564	-0.023348518
230	0x3b756311	0.0037443081
231	0xbd896492	-0.067086354
232	0x3abe642c	0.0014525703
233	0xbc14b23b	-0.009075697
234	0xbdd6a979	-0.10481543
235	0x3c667bd0	0.014067605
236	0x3d7d0691	0.06177384
237	0xbd3fa7f4	-0.046791032
238	0xbcd9042d	-0.026491249
239	0xbcf19423	-0.029489582
240	0x3c895723	0.016765183
241	0x3d91dbed	0.07122026
242	0xbde95c45	-0.11394552
243	0xbd2e61bb	-0.04257367
244	0x3d140132	0.036133952
245	0xbdd3bd05	-0.10338787
246	0x3ca0088f	0.019535331
247	0x3cdfcad0	0.027318388
248	0x3cf4dd15	0.029890576
249	0xbcc1b3b3	-0.023645258
250	0xbc97eec8	-0.018546477
251	0xbd2a1929	-0.0415279
252	0x397ad084	0.00023919536
253	0xbcf05f1b	-0.029342225
254	0x3b989ab8	0.004657116
255	0xbcc5f7df	-0.024166046

sequential_1/dense_0_1/MatMul f4 [128, 650]
0	0x3d00e4c6	0.031468175
1	0xbb6a6442	-0.0035765325
2	0xbceb3146	-0.028710019
3	0xbc8fba49	-0.017544882
4	0x3cb688e4	0.022282071
5	0xbd04df1e	-0.032439344
6	0xbbf43b9e	-0.007453396
7	0xbacac6de	-0.0015470644
8	0x3c342256	0.010994514
9	0xbd5e37cf	-0.054252442
10	0xbc727af8	-0.014799826
11	0x3d25b6a9	0.0404574
12	0xbcfbbfbc	-0.030731075
13	0x3d7a10ff	0.061051365
14	0x3cdb2034	0.026748754
15	0x3c165d30	0.009177491
16	0xbb05d2eb	-0.0020419906
17	0xbcda7db6	-0.026671272
18	0xb9fbfe8e	-0.0004806411
19	0x3c63495e	0.013872473
20	0x3c902021	0.017593445
21	0xbc04e626	-0.008111512
22	0xbd827049	-0.06369073
23	0xbc217aa8	-0.009855904
24	0x3d9b94dd	0.07596753
25	0x3d2b6eb3	0.041853618
26	0x3dd36490	0.10321915
27	0x3c30b753	0.010785895
28	0xbd3db06a	-0.04631082
29	0xbd4bfbc4	-0.04980065
30	0xbcefda74	-0.029278971
31	0xbbe54c4b	-0.00699762
32	0xbd6d9a51	-0.058008496
33	0xbcf2f47a	-0.029657591
34	0x3ce56979	0.028004395
35	0xbccb6182	-0.024826769
36	0x3c810e96	0.015754025
37	0x3c0f4467	0.008744336
38	0x3bf67c96	0.007522176
39	0x3d5fba6c	0.054621145
40	0x3d315e17	0.04330262
41	0x3b41e1c0	0.002958402
42	0xbce70b96	-0.028203767
43	0xba03b061	-0.0005023536
44	0xbc33a360	-0.010964245
45	0x3d2aa47c	0.04166077
46	0x3ceadcc6	0.028669726
47	0x3d5a341a	0.053272344
48	0xbdaf61ca	-0.08563574
49	0x3cc5b641	0.024134757
50	0x3d5f9799	0.054587934
51	0x3b38ddd1	0.0028208385
52	0x3de19d2c	0.11016306
53	0x3d8471a0	0.06466985
54	0xbcd2be37	-0.025725467
55	0xbcacae10	-0.021079093
56	0xbc73e91b	-0.01488712
57	0xbd1f68f8	-0.038918465
58	0x3cc0a34f	0.023515372
59	0x3b878bf2	0.004136556
60	0x3c5a528a	0.013325343
61	0xbceb1b8a	-0.028699655
62	0xbc22e257	-0.009941659
63	0x3c3ff5a5	0.011716281
64	0xbd1296d1	-0.03578836
65	0x3d928945	0.07155088
66	0x3cfda5f9	0.030962931
67	0xbd3baaab	-0.04581706
68	0xbd6b4ac1	-0.057444338
69	0xbd10b7c7	-0.035331514
70	0xbc75bcc3	-0.014998618
71	0xbd0f99f0	-0.035058916
72	0x3b4cff3d	0.0031280064
73	0x3c73e214	0.014885444
74	0xbcdce231	-0.026963325
75	0xbd33b5a7	-0.04387441
76	0x3d6219b5	0.055200297
77	0xbc175b80	-0.009238124
78	0x3d5ace83	0.0534196
79	0x3cd7d0cb	0.026344677
80	0xbd09f3ca	-0.03367976
81	0xbc456b05	-0.012049441
82	0xbd50938c	-0.05092196
83	0x3ce21ca6	0.027601551
84	0x3c49656b	0.012292246
85	0x3c3eb039	0.011638694
86	0x3d11dac3	0.035609018
87	0xbcdc886b	-0.026920518
88	0xbb578422	-0.0032885154
89	0x3cadea62	0.021229926
90	0x3ac30bdf	0.0014880857
91	0x3d524cfc	0.05134295
92	0x3c94e9bb	0.018177858
93	0x3cc7ed33	0.024405098
94	0xbcd4f67f	-0.025996445
95	0xbd42bfa3	-0.04754604
96	0xbcc2227d	-0.023698086
97	0x3c0715dc	0.008244958
98	0x3d549fc8	0.05191019
99	0x3d13daf5	0.036097486
100	0x3bc9852c	0.0061499085
101	0x3cc87811	0.024471315
102	0xbc23d1f5	-0.009998788
103	0xbc7cc533	-0.015427875
104	0x3dc3d34a	0.095617846
105	0x3cea3d35	0.028593639
106	0xbd603528	-0.054738194
107	0x3c555c97	0.013022563
108	0xbc680e5d	-0.014163581
109	0xbd361ea0	-0.0444628
110	0xbd0d47ca	-0.03449229
111	0xbb4b42d2	-0.003101517
112	0xbcc7c997	-0.024388118
113	0xbd2f950a	-0.042866744
114	0x3ba2d95e	0.00496976
115	0x3d9eca75	0.07753459
116	0x3cb17e49	0.021666663
117	0x3d6faa71	0.058512155
118	0x3d2fde53	0.042936634
119	0xbc6f9d5d	-0.014624921
120	0x3c9d7d0a	0.019224662
121	0x3c8bb97b	0.017056217
122	0xbd6e1596	-0.058126055
123	0x3d06c420	0.032901883
124	0x3d85b13e	0.06527947
125	0x3d644d59	0.055737827
126	0xbcf2b824	-0.02962882
127	0xbc4bca31	-0.012438343
128	0x3d76d69d	0.060263265
129	0x3ca96bd4	0.0206813
130	0x3db15996	0.08659665
131	0x3d96c1e0	0.073611975
132	0xbd71b8b5	-0.05901404
133	0xbc49a1f1	-0.012306676
134	0x3c4a416e	0.012344701
135	0x3d241087	0.040054824
136	0x3c192f6c	0.009349685
137	0x3d14b3ec	0.0363044
138	0x3b64b797	0.0034899467
139	0xbd914c6d	-0.07094655
140	0xbc269e4f	-0.01016958
141	0x3d6af561	0.057362918
142	0xbc3317d3	-0.010930973
143	0x3d6169cb	0.055032533
144	0x3d63f645	0.055654783
145	0xbcfe810b	-0.031067392
146	0xbd03abca	-0.032146253
147	0x3d176c1f	0.036968347
148	0xbcabb523	-0.020960396
149	0xbc951102	-0.018196587
150	0xbc836198	-0.016037747
151	0x3b3e1ba5	0.0029008177
152	0xbd393ba3	-0.04522289
153	0xbcd7fbdc	-0.026365213
154	0x3d880634	0.06641808
155	0x3b2fd74e	0.0026831212
156	0x3d906fe4	0.070525914
157	0x3d0ed708	0.03487304
158	0xbcbe07f5	-0.023197154
159	0xbd2d3a2b	-0.0422918
160	0x3c899618	0.016795203
161	0xbbdc2495	-0.006718228
162	0xbc12e720	-0.008966237
163	0x3d4bbab1	0.04973859
164	0xbc7a22ac	-0.0152670555
165	0xbd992d21	-0.07479311
166	0xbc0fb173	-0.008770335
167	0x3cfb514c	0.030678414
168	0x3b72b055	0.0037031372
169	0x3c8f1cfa	0.017469872
170	0x3baed3d1	0.005335309
171	0xbcdb5d26	-0.026777815
172	0xbd5437d8	-0.05181107
173	0x3bc2aba3	0.005940871
174	0xbd0a17fa	-0.033714272
175	0x3c5e049a	0.013550902
176	0x3cc55ece	0.024093058
177	0xbb3ca511	-0.002878491
178	0xbd2ce653	-0.04221184
179	0xbd49ae9d	-0.04923879
180	0x3cea75dc	0.028620653
181	0x3b554544	0.0032542506
182	0x3d38a0e2	0.045075305
183	0x3d17c4e0	0.03705299
184	0xbd9da486	-0.07697396
185	0x3c6808b8	0.014162235
186	0x3ceef11f	0.02916771
187	0xbce73633	-0.028224086
188	0x3c9ad865	0.018902013
189	0x3d49f5d7	0.049306717
190	0x3ab9c877	0.0014174123
191	0xbd6790e8	-0.056534678
192	0xba0b7e88	-0.0005321284
193	0x3c513257	0.01276835
194	0x3cabcc6c	0.0209715
195	0x3d6ce6ce	0.0578373
196	0x3bf176ca	0.007368897
197	0x3c8e4079	0.017364727
198	0xbc86ce67	-0.016455842
199	0x3cce8fc3	0.025215035
200	0x3c779b50	0.015112713
201	0xbc1df573	-0.009641039
202	0x3d2186b3	0.0394351
203	0x3c9431c8	0.018090144
204	0xbcf42dba	-0.02980696
205	0xba7b0602	-0.00095757854
206	0x3d9b1cd4	0.07573858
207	0x3ca36f49	0.019950526
208	0x3d434782	0.047675617
209	0x3cd4acc5	0.02596129
210	0xbc9b7dd8	-0.018980905
211	0xbcf2ac1a	-0.02962308
212	0x3cfa812d	0.030579174
213	0xbc8d3b8f	-0.017240314
214	0xbd177f73	-0.03698678
215	0x3d215d4e	0.039395623
216	0x3c3d1a3d	0.0115419
217	0xbd1fefc2	-0.03904701
218	0xbc3d5dee	-0.011558039
219	0x3cac3fae	0.021026459
220	0x3c9f7a3c	0.019467466
221	0x3dc918eb	0.09819206
222	0xb9a4d0a6	-0.00031435973
223	0xbd64d551	-0.055867497
224	0xbcd9df8a	-0.02659585
225	0x3d4ff137	0.05076715
226	0x3c2ac6bc	0.0104233585
227	0x3bf5f633	0.007506156
228	0x3d3f3fb7	0.046691623
229	0x3ca8fec4	0.020629294
230	0xbdf97ab0	-0.12181604
231	0xbd8213ab	-0.063514076
232	0x3c281f2a	0.010261336
233	0x3cf699bc	0.030102603
234	0x3d83eb1a	0.064413264
235	0x3c7dedea	0.015498618
236	0xbca52b62	-0.020162288
237	0xbc8606d1	-0.016360672
238	0x3d8696ba	0.065717176
239	0xbd2c31f4	-0.042039827
240	0x3c769c8e	0.015051974
241	0x3d1356ca	0.03597144
242	0x3c301f8f	0.010749712
243	0xbd33de30	-0.043913066
244	0xbc8727b3	-0.016498422
245	0x3d546e59	0.05186305
246	0xbcf1baf0	-0.029508084
247	0x3d896083	0.06707861
248	0x3d472ef1	0.04862875
249	0x3c4d135d	0.012516824
250	0xbc9d6337	-0.019212348
251	0x3d933758	0.0718829
252	0x3c744ef8	0.014911406
253	0xbb2bf402	-0.002623797
254	0x3cd2397f	0.025662182
255	0xbb2eedc1	-0.0026692005

sequential_1/dense_0_1/Relu;sequential_1/dense_0_1/BiasAdd f4 [128]
0	0xbd940064	-0.07226637
1	0x3cf9f487	0.030512108
2	0xbb0f8455	-0.0021898944
3	0x3cf96349	0.03044285
4	0xbd8899b9	-0.06669945
5	0x3da92a76	0.08260052
6	0x3d73f14e	0.059556298
7	0x3da4c5bb	0.080455266
8	0xbb73eada	-0.003721884
9	0x3d8a861b	0.0676386
10	0xbe9372dd	-0.2879857
11	0xbca4cea5	-0.020118067
12	0xbecd1314	-0.40053618
13	0xbc9b087f	-0.01892495
14	0xbe3af963	-0.18259196
15	0xbd21ddb3	-0.03951807
16	0xbde8bb62	-0.113638654
17	0x3ce2becf	0.027678875
18	0x3d2ee650	0.042700112
19	0xbe8306b0	-0.2559104
20	0xbd9debdb	-0.077110015
21	0x3cc52846	0.024067055
22	0xbd7ba9d1	-0.061441246
23	0xbe94166c	-0.28923357
24	0xbdc086a0	-0.09400678
25	0xbe0b91d9	-0.13629855
26	0xbde705c6	-0.11280398
27	0xbec85ded	-0.3913416
28	0x3c588b82	0.013216855
29	0xbc36bc42	-0.011153283
30	0x3d3752a7	0.044756558
31	0xbc7fcb37	-0.015612415
32	0x3d36588d	0.044518042
33	0xbdd4b028	-0.10385162
34	0x3d67b4b0	0.0565688
35	0x3c935358	0.017984077
36	0xbdcbeda3	-0.09957435
37	0xbd882922	-0.066484705
38	0xbd5ec14a	-0.054383554
39	0x3caa898c	0.02081754
40	0x3d2ca6d9	0.042151306
41	0xbf0afa20	-0.5428791
42	0xbefdebd4	-0.49593985
43	0xbe1439cb	-0.14475171
44	0x3ca6f6c1	0.020381333
45	0x3d657fd5	0.056030113
46	0xbefa73df	-0.48916528
47	0xbd41ed4c	-0.047345445
48	0xbd959ef5	-0.07305709
49	0xbe39ed35	-0.18156894
50	0x3ad8cff3	0.0016541466
51	0xbdca6c0f	-0.09883892
52	0xbdee2c43	-0.11629536
53	0xbca72086	-0.02040125
54	0xbb6afaa7	-0.0035854967
55	0xbe6907f0	-0.22756934
56	0xbda40d20	-0.08010316
57	0xbe1ba135	-0.15198214
58	0xbd864f82	-0.06558134
59	0xbd9114a8	-0.07084018
60	0xbe196797	-0.14980923
61	0xbc968d5e	-0.018377956
62	0xbed498af	-0.41522738
63	0xbea4a4a7	-0.3215687
64	0xbdb689a9	-0.08912975
65	0xbd6b8289	-0.057497535
66	0xbd187b64	-0.03722705
67	0xbe0cf5f6	-0.13765702
68	0xbdde31d5	-0.108493485
69	0xbee90b71	-0.45516542
70	0xbd40f8a1	-0.04711211
71	0x3d84a2b3	0.06476345
72	0xbd8324e3	-0.0640352
73	0xbc61f31f	-0.013790875
74	0xbd685fbf	-0.056731936
75	0xbe8335a5	-0.25626865
76	0x3d66d96f	0.056359705
77	0xbd589c17	-0.052883234
78	0xbe09febc	-0.1347608
79	0xbe9dcfca	-0.30822593
80	0xbe3ec7da	-0.18630925
81	0xbe50b0cc	-0.20379943
82	0xbdf571c5	-0.119845904
83	0xbd7da189	-0.06192163
84	0xbec81a96	-0.39082783
85	0x3ad8faba	0.0016554215
86	0xbe433a10	-0.19065118
87	0x3cc7be76	0.024382811
88	0x3d3e84cf	0.046513375
89	0xbdd637de	-0.104598746
90	0xbe8524bf	-0.26004598
91	0xbe929000	-0.28625488
92	0x3c11a3f5	0.008889188
93	0xbe2622fe	-0.16224286
94	0x3d3a3ca2	0.04546798
95	0x3c84b81b	0.01620107
96	0xbc1804ae	-0.0092784595
97	0xbe6e3d31	-0.2326553
98	0xb9b9eda1	-0.00035462997
99	0x3cc4ec0b	0.024038335
100	0x3d059d09	0.032620464
101	0xbd9ffc46	-0.07811789
102	0xbe01cc78	-0.12675655
103	0xbf08fae8	-0.5350785
104	0xbf1f15db	-0.62142724
105	0x3c494e10	0.012286678
106	0xbdd5ef57	-0.10446041
107	0x3daaf549	0.08347566
108	0xbee67bf6	-0.4501645
109	0x3d0d037d	0.034427155
110	0xb9f7aed6	-0.00047241774
111	0x3d6a2309	0.05716232
112	0xbd801b6f	-0.062552325
113	0x3cb7f5ec	0.022456132
114	0x3d87d21d	0.06631873
115	0x3d2ad223	0.04170431
116	0xbcdabcd7	-0.026701374
117	0x3d51dc04	0.051235214
118	0xbea9e65b	-0.3318356
119	0x3c1407d5	0.00903507
120	0xbe025385	-0.12727173
121	0xbc1b6b0a	-0.009485969
122	0xbe1fc6ae	-0.15603134
123	0xbe7e8167	-0.2485405
124	0xbd4c1640	-0.049825907
125	0x3d28b6d7	0.041189995
126	0x3c711ed7	0.014716825
127	0x3d85af69	0.065275975
