src/track_test/config/trackVer16_policyVer4.tflite (tflite, 405048 bytes, 6 tensors)

arith.constant f4 [128]
-0.03031319 0.007921829 -0.003198978 -0.12115894 0.10347175 -0.07202942 -0.24380201 -0.15032284
-0.03023029 -0.121877 0.28341198 0.19796698 -0.080757335 -0.0020420526 -0.047732726 -0.030373977
-0.15167864 -0.08080323 0.20979579 0.17942734 0.012398253 -0.03535974 -0.031739984 -0.024329467
-0.03177642 -0.012728302 -0.07025083 -0.28840613 0.011372962 0.25283927 -0.030721342 0.04599651
0.002084772 -0.044154882 0.08453292 -0.0497142 0.23629186 -0.034153063 -0.13796724 -0.030457743
-0.12708855 -0.08801726 -0.030547064 -0.10649805 0.048343103 0.029067278 -0.00040828777 0.023292813
-0.010846907 -0.37673938 -0.09369135 -0.030097965 -0.4682379 0.037480403 -0.030398892 0.1569689
-0.11821209 -0.034242358 -0.08442243 -0.03622176 -0.03056811 0.10992767 -0.58265376 -0.05113774
-0.041605193 -0.031001221 0.18897228 -0.08844468 -0.1311135 0.13832828 -0.17000955 -0.11540344
-0.1383356 0.03135443 -0.11369498 0.11226614 0.21422759 0.030745348 -0.09041312 -0.13732211
0.035949226 -0.030313024 0.1518148 -0.032388125 -0.047191344 -0.00018293527 -0.030043477 0.058447275
-0.1602866 0.1411449 0.18464087 -0.31944448 0.22519541 -0.030102422 -0.015046995 0.008887813
-0.0015352393 -0.08000866 0.16633822 -0.056050673 -0.12767974 -0.16315961 -0.031143293 0.20584148
-0.101586394 0.21687886 -0.070334464 0.17697936 -0.26305854 0.034183927 0.040322516 -0.056942854
-0.13122085 -0.19692849 0.13750707 -0.16863263 -0.121811256 0.043467727 -0.013831856 -0.03000353
-0.11094215 -0.24678664 -0.14465229 -0.030903185 0.16952516 -0.18505672 0.09829225 -0.23764841
00000000: 5e53 f8bc 8fca 013c f2a5 51bb 2e22 f8bd
00000010: ffe8 d33d 2984 93bd 3ca7 79be 3bee 19be
00000020: 83a5 f7bc a69a f9bd 601b 913e dbb7 4a3e
00000030: 1a64 a5bd f5d3 05bb 6483 43bd d9d2 f8bc
00000040: a551 1bbe 2a7c a5bd b5d4 563e cdbb 373e
00000050: 0b22 4b3c 60d5 10bd c901 02bd 974e c7bc
00000060: fe27 02bd 5e8a 50bc abdf 8fbd f8a9 93be
00000070: a955 3a3c 2674 813e 53ab fbbc d666 3c3d
00000080: aca0 083b c0db 34bd 981f ad3d 1ea1 4bbd
00000090: 7ef6 713e 15e4 0bbd 4947 0dbe 8482 f9bc
000000a0: 8023 02be 6542 b4bd d63d fabc a61b dabd
000000b0: 6b03 463d 801e ee3c 750f d6b9 92d0 be3c
000000c0: 3ab7 31bc fce3 c0be 40e1 bfbd 0290 f6bc
000000d0: e1bc efbe 0d85 193d 1907 f9bc 75bc 203e
000000e0: 2e19 f2bd b741 0cbd abe5 acbd 455d 14bd
000000f0: f969 fabc c221 e13d cc28 15bf cf75 51bd
00000100: 356a 2abd 46f6 fdbc f381 413e 7c22 b5bd
00000110: 9e42 06be eea5 0d3e fc16 2ebe a458 ecbd
00000120: d9a7 0dbe 816d 003d ead8 e8bd caeb e53d
00000130: 7a5e 5b3e abdd fb3c 842a b9bd 2b9e 0cbe
00000140: 7f3f 133d 0553 f8bc 5775 1b3e 69a9 04bd
00000150: b64b 41bd 50d2 3fb9 bd1d f6bc 6966 6f3d
00000160: 2c22 24be 4a88 103e 7f12 3d3e 3a8e a3be
00000170: a099 663e 5b99 f6bc ac87 76bc 319e 113c
00000180: 153a c9ba 95db a3bd 9154 2a3e 6495 65bd
00000190: 7abe 02be 5013 27be 3820 ffbc 1cc8 523e
000001a0: 870c d0bd 7e15 5e3e 840b 90bd 143a 353e
000001b0: 9caf 86be 7204 0c3d 3929 253d e93c 69bd
000001c0: c25e 06be 9fa7 49be a7ce 0c3e 08ae 2cbe
000001d0: 2e78 f9bd 370b 323d 029f 62bc f7c9 f5bc
000001e0: a335 e3bd a3b5 7cbe bb1f 14be ad28 fdbc
000001f0: 0198 2d3e 827f 3dbe 724d c93d 1b5a 73be

arith.constant1 f4 [7]
-0.16058658 -0.052523285 0.23095098 -0.0069001694 0.024431227 0.09490996 0.018888362
00000000: cf70 24be a822 57bd 6a7e 6c3e d11a e2bb
00000010: ff23 c83c 2760 c23d c4bb 9a3c

arith.constant2 f4 [7, 128]
0.05275576 -0.18458685 -0.13535221 -0.04077307 -0.025464531 -0.17683254 -0.31540594 0.12115273
-0.041079845 -0.3075489 -0.11369713 0.91403586 -0.6033225 -0.00813139 -0.09248767 0.0052286587
-0.12253279 0.60845494 -0.24402227 0.027572047 -0.14570709 -0.020077668 0.045097597 0.07224316
-0.077360146 0.89608717 0.16707103 -0.3572715 0.37032405 0.49199682 -0.032444138 0.014478096
0.72758585 -0.36047798 -0.26751262 -0.00029803676 0.008020416 0.047059763 0.030908545 0.027269794
-0.19257045 0.37339097 0.1015996 0.17805567 -0.30555055 0.019852668 0.06694885 0.7263317
0.014314161 -1.0683273 -0.089523524 0.050006453 -0.74676585 0.01614273 -0.0050467 -0.11738409
0.096450314 0.05236115 -0.24300157 0.01122492 -0.042865247 0.10237181 -0.83228487 0.022382675
0.11223484 -0.03986175 -0.42812783 0.5665654 -0.16026573 0.18518347 -0.03541092 0.23026566
-0.39236355 0.020315545 0.17945774 0.6827634 -0.2614062 -0.18268137 0.90681684 0.6368674
0.11261874 -0.0030183652 -0.21751708 0.025003465 0.0130940275 0.14323995 0.06289753 -0.78714806
-0.036285516 0.20242621 0.92469007 -0.20625521 0.052412458 0.053076066 -0.29635474 -0.043165866
0.33058545 0.008309509 0.071840376 -0.04348103 -0.22827 -0.28702715 -0.00884884 -0.6885795
-0.015130508 -0.31350315 -0.03362702 0.14459395 -0.68453056 -0.29254478 0.006878409 -0.193249
1.1008717 -0.2119772 -0.35891047 0.038849644 -0.12748277 -0.49061197 0.084789515 -0.04221023
0.38922936 -0.17251119 -0.37583306 0.05105428 -0.35738084 -0.5696881 0.30773985 0.09450233
0.01180637 0.21308407 0.32756045 -0.06930369 0.3507901 -0.21826601 1.1054671 0.07186838
-0.08309075 0.29772353 -0.3421839 0.20349076 0.10658927 -0.004053042 0.014116287 -0.05449742
-0.19014633 0.33434266 0.058986954 -0.13930911 -0.041309383 0.0025992517 0.036042217 0.09974037
0.014915475 -0.012666114 -0.006830935 -0.3669868 0.2942403 -1.3340275 -0.1069391 0.22351061
-0.54218143 -0.17018412 -0.11666123 -0.035541102 0.15024777 0.028988471 -0.32476336 -0.017152723
0.27576238 0.27593368 -0.0056442837 0.19436349 0.28229377 -0.24790014 -0.2582198 -0.067905955
0.056701176 0.008066948 -0.03378206 0.018711276 0.2549682 -0.12388587 0.0096334135 0.02346366
0.200545 -0.005002287 0.0013665308 0.04793341 0.022134116 -0.28960356 -0.03773186 0.07021093
0.12432426 0.018351987 0.18175828 0.6011067 0.18101895 0.21628657 0.06271695 -0.6779782
0.08095986 -0.096047856 -0.040986806 0.041586246 0.3700452 0.14010593 0.0074950196 -0.03827189
-0.3456918 -0.036341704 -0.6773064 0.030563477 -0.024524802 -0.48313057 0.016528994 0.086704075
-0.20266144 -0.37805018 -0.10860386 -0.6819939 0.07002135 -0.053910278 -0.22864334 -0.012315102
-0.16107917 0.0015446442 0.101507194 0.041089963 -0.44738016 0.38926992 -0.0035999997 -0.2558791
-0.1064329 -0.17137496 0.19772328 -0.63816464 -0.032056484 0.16720518 -0.3722772 0.21188268
0.114650175 0.18769538 -0.27193353 0.13665341 0.69570386 -0.06522611 -0.05182097 0.13973567
0.20675962 0.34347957 -0.23273781 -0.024226824 0.22921161 -0.013833753 -0.0995741 0.08703532
00000000: 6c16 583d 5604 3dbe c599 0abe aa01 27bd
00000010: fe9a d0bc 9713 35be e37c a1be ec1e f83d
00000020: 5743 28bd 0d77 9dbe 0ada e8bd 41fe 693f
00000030: 5873 1abf 8639 05bc 2d6a bdbd 2b55 ab3b
00000040: 79f2 fabd b4c3 1b3f f9e0 79be c6de e13c
00000050: 3d34 15be ec79 a4bc 42b8 383d 39f4 933d
00000060: ff6e 9ebd f865 653f ab14 2b3e 4aec b6be
00000070: 1d9b bd3e 02e7 fb3e 25e4 04bd 8935 6d3c
00000080: 1143 3a3f 9290 b8be 6af7 88be d141 9cb9
00000090: 1068 033c bdc1 403d eb33 fd3c e764 df3c
000000a0: 3031 45be 1a2d bf3e 7313 d03d 3a54 363e
000000b0: 1f71 9cbe 10a2 a23c 7b1c 893d e0f0 393f
000000c0: f185 6a3c f3be 88bf 1c58 b7bd 91d3 4c3d
000000d0: 0c2c 3fbf c23d 843c ca5e a5bb 1267 f0bd
000000e0: be87 c53d a578 563d 67d5 78be bae8 373c
000000f0: 7893 2fbd 50a8 d13d 9f10 55bf df5b b73c
00000100: 61db e53d 1346 23bd 9233 dbbe 6e0a 113f
00000110: b31c 24be bca0 3d3e 0a0b 11bd c3ca 6b3e
00000120: e0e3 c8be c96c a63c c5c3 373e 95c9 2e3f
00000130: 09d7 85be d310 3bbe 2625 683f be09 233f
00000140: a7a4 e63d c4cf 45bb ccbc 5ebe 11d4 cc3c
00000150: 5588 563c 7ead 123e 6cd0 803d 8982 49bf
00000160: 1fa0 14bd d148 4f3e 7db8 6c3f 9134 53be
00000170: 72ae 563d 4a66 593d cfbb 97be b1ce 30bd
00000180: 7f42 a93e 9b24 083c 0c21 933d 2a19 32bd
00000190: 9cbf 69be 39f5 92be bafa 10bc bf46 30bf
000001a0: f3e5 77bc 7c83 a0be 7cbc 09bd 7010 143e
000001b0: 653d 2fbf 6ec8 95be 4764 e13b 11e3 45be
000001c0: 5de9 8c3f 8d10 59be 1dc3 b7be ce20 1f3d
000001d0: d88a 02be 7e31 fbbe 20a6 ad3d a2e4 2cbd
000001e0: 1249 c73e c6a6 30be 316d c0be 4b1e 513d
000001f0: 9ffa b6be 14d7 11bf 1490 9d3e 708a c13d
00000200: 816f 413c b632 5a3e 01b6 a73e 18ef 8dbd
00000210: c39a b33e 2081 5fbe f27f 8d3f bb2f 933d
00000220: 7c2b aabd 386f 983e ba32 afbe e25f 503e
00000230: 7a4b da3d 61cf 84bb 0048 673c b038 5fbd
00000240: b8b5 42be f62e ab3e 4e9c 713d 0ca7 0ebe
00000250: 0734 29bd 3558 2a3b 01a1 133d ae44 cc3d
00000260: 0960 743c 8885 4fbc 09d6 dfbb b2e5 bbbe
00000270: aaa6 963e 6ac1 aabf e302 dbbd f7df 643e
00000280: 67cc 0abf bf44 2ebe 15ec eebd 8c93 11bd
00000290: 8dda 193e 3b79 ed3c 6247 a6be de83 8cbc
000002a0: ba30 8d3e 2e47 8d3e aff3 b8bb 3907 473e
000002b0: cf88 903e 89d9 7dbe 6335 84be 4712 8bbd
000002c0: 7e3f 683d 3b2b 043c 0f5f 0abd 6448 993c
000002d0: 318b 823e e0b7 fdbd 77d5 1d3c dd36 c03c
000002e0: ab5b 4d3e 3aea a3bb 2a1d b33a d355 443d
000002f0: 9b52 b53c eb46 94be b98c 1abd c0ca 8f3d
00000300: b89d fe3d e856 963c d81e 3a3e 21e2 193f
00000310: 085d 393e 3a7a 5d3e bf71 803d fb8f 2dbf
00000320: 48ce a53d bdb4 c4bd c8e1 27bd 5756 2a3d
00000330: 9176 bd3e ee77 0f3e c898 f53b fcc2 1cbd
00000340: 84fe b0be 0adb 14bd f463 2dbf 4260 fa3c
00000350: 3de8 c8bc e45c f7be d067 873c e891 b13d
00000360: 7b86 4fbe cb8f c1be b36b debd 2797 2ebf
00000370: 5b67 8f3d 06d1 5cbd 7b21 6abe 48c5 49bc
00000380: f0f1 24be a975 ca3a 01e3 cf3d f34d 283d
00000390: 030f e5be 634e c73e f9ed 6bbb 9602 83be
000003a0: 7ef9 d9bd eb7c 2fbe f977 4a3e c25e 23bf
000003b0: a94d 03bd d637 2b3e 1e9b bebe c6f7 583e
000003c0: b6cd ea3d 3833 403e df3a 8bbe dfee 0b3e
000003d0: a619 323f 4495 85bd 3a42 54bd de16 0f3e
000003e0: cbb8 533e 8edc af3e d252 6ebe 5577 c6bc
000003f0: 73b6 6a3e f7a6 62bc 81ed cbbd 933f b23d

arith.constant3 f4 [128, 128]
-0.029825153 -0.058801524 0.058940012 0.017538771 -0.067398824 -0.02492617 -0.029547459 0.03845379
0.011817375 0.0058820066 -0.031151617 -0.026895879 0.005301955 -0.05543565 -0.06784266 -0.010664351
0.015319034 -0.043414388 -0.047344416 -0.035931617 -0.063448876 0.024579369 -0.074533515 -0.032112382
0.022817958 -0.043393265 0.06363894 -0.06611366 -0.037784617 -0.0066836085 0.05710054 -0.10435339
-0.007798475 0.020331401 -0.034529988 -0.06938095 -0.030199077 0.037582643 -0.05527942 -0.02095022
-0.08847636 -0.04689846 0.013431919 -0.01751673 -0.0076250057 -0.025227422 -0.05307925 -0.062395953
0.04693528 -0.044770744 -0.039653253 -0.10188761 -0.007621352 0.0098468345 -0.008832498 0.03657626
-0.028268065 0.018571164 0.02136002 -0.041125946 -0.059115853 0.04096351 -0.04112515 -0.086411074
-0.026118549 -0.041807715 -0.030664282 0.004420973 -0.02354444 -0.027982075 -0.061027102 -0.020468194
-0.055473458 -0.0061828857 -0.03146598 -0.032288343 -0.029472934 -0.02911539 -0.03368412 -0.049000178
-0.040187705 -0.03826238 -0.0711056 -0.06582731 -0.0774398 -0.03414082 -0.007959678 -0.051383045
0.0369764 0.004413109 -0.030604882 -0.041200686 0.017572518 -0.005100595 -0.03759989 -0.06392882
-0.07540453 -0.07759409 -0.048893098 -0.04179917 -0.027874636 -0.03007202 -0.043802805 -0.009412299
-0.0585077 -0.045094464 -0.030649783 -0.07182869 -0.098527 -0.029881997 -0.073884964 -0.00443693
-0.100526884 0.0384413 -0.027321002 0.030092092 -0.072136305 -0.021815438 -0.06416284 -0.0994731
-0.03431083 0.016209958 -0.060881358 0.053227387 -0.018235872 -0.03396821 -0.027550438 -0.11508162
0.0779249 -0.055453084 -0.027800677 -0.19401012 -0.05192013 -0.18789753 -0.050620083 -0.08986722
-0.031351876 0.08575536 -0.089923464 -0.24681018 -0.35390693 -0.43975547 -0.009582333 0.32092106
-0.4500945 0.27730715 -0.022815414 -0.050175518 -0.5365067 0.0033899248 0.10891751 0.39126948
-0.026772307 -0.22713694 0.10824304 0.0152725745 0.13316046 0.27769053 -0.0077647646 -0.44360137
-0.15279844 -0.49173027 -0.11314833 0.17001918 0.5385477 -1.2729313 0.021686882 0.066887006
-0.029824043 0.014747174 -0.16020189 0.12744316 0.18319784 -0.20176937 -0.74755114 -0.09937446
0.10201611 -0.104236186 0.14550276 -0.10885443 -0.01735915 0.16307198 -0.26860365 -0.39762765
-0.09371636 0.34618998 0.018075638 -0.1334126 0.08875058 -0.6555111 -0.11913253 0.121767245
0.03708225 -0.032931402 0.14554247 -0.03169515 0.13471559 -0.015259041 -0.5770331 -0.13539115
-0.12518312 -0.08815676 0.04664126 0.118349 -0.065504834 -0.071238615 0.30809292 0.08393467
-0.11799476 0.1701349 0.17014992 -0.26494178 0.22117996 0.051631693 0.2585857 -0.24384071
-0.42541128 -0.46556193 0.015973674 0.11439406 0.11000116 0.1085525 -0.03374963 -0.039176047
-0.13535249 0.015347481 -0.05621144 -0.46350348 0.29428014 0.02892169 0.43850383 0.2061162
0.0035729406 -0.11599959 -0.15971713 0.13494183 0.17351322 -0.10297535 0.014480675 -0.17515361
-0.30748716 -0.110870026 -0.119474135 -0.07013671 0.06734231 -0.3064768 0.07168302 0.17836913
0.5156311 0.0033408694 0.008530075 -0.35050654 0.347665 0.1426292 0.12398206 -0.098283224
00000000: e153 f4bc ded9 70bd 156b 713d 78ad 8f3c
00000010: 6508 8abd f831 ccbc 830d f2bc b981 1d3d
00000020: aa9d 413c d9bd c03b ad31 ffbc bf54 dcbc
00000030: 06bc ad3b 7e10 63bd 18f1 8abd 88b9 2ebc
00000040: b0fc 7a3c 49d3 31bd 38ec 41bd 082d 13bd
00000050: 7cf1 81bd ac5a c93c 07a5 98bd 4688 03bd
00000060: baec ba3c 23bd 31bd 2255 823d 9966 87bd
00000070: 0bc4 1abd 2c02 dbbb 41e2 693d 3bb7 d5bd
00000080: 5a8a ffbb 0a8e a63c 516f 0dbd 9917 8ebd
00000090: 0e64 f7bc 42f0 193d ac6c 62bd cc9f abbc
000000a0: 1833 b5bd 9918 40bd 8d11 5c3c 3f7f 8fbc
000000b0: 2fdb f9bb bda9 cebc a169 59bd e692 7fbd
000000c0: 353f 403d 8761 37bd 736b 22bd 74aa d0bd
000000d0: 89bc f9bb 9e54 213c 2fb6 10bc fdd0 153d
000000e0: 6e92 e7bc 8e22 983c 35fb ae3c ae73 28bd
000000f0: 7723 72bd 5ac9 273d d872 28bd 4af8 b0bd
00000100: 91f6 d5bc 913e 2bbd a933 fbbc cfdd 903b
00000110: 45e0 c0bc aa3a e5bc 8ef7 79bd eaac a7bc
00000120: 2338 63bd ce99 cabb 79e2 00bd c840 04bd
00000130: 3971 f1bc 6683 eebc 5cf8 09bd 69b4 48bd
00000140: dd9b 24bd 03b9 1cbd d09f 91bd 78d0 86bd
00000150: c298 9ebd 3fd7 0bbd 4f69 02bc 0777 52bd
00000160: 9174 173d d79b 903b 17b7 fabc 0dc2 28bd
00000170: 3ef4 8f3c e422 a7bb 5802 1abd 1ded 82bd
00000180: b16d 9abd a6e9 9ebd 2144 48bd 9b35 2bbd
00000190: 5959 e4bc 9959 f6bc 926a 33bd 0b36 1abc
000001a0: c5a5 6fbd f9b4 38bd 4115 fbbc ec1a 93bd
000001b0: 86c8 c9bd 17cb f4bc 0051 97bd ab63 91bb
000001c0: 0ae1 cdbd a074 1d3d 4bd0 dfbc b183 f63c
000001d0: 33bc 93bd 4ab6 b2bc cf67 83bd 8db8 cbbd
000001e0: 8389 0cbd bfca 843c bb5e 79bd f604 5a3d
000001f0: 6563 95bc 4022 0bbd 75b1 e1bc eaaf ebbd
00000200: 1797 9f3d c622 63bd 3fbe e3bc 97aa 46be
00000210: 34aa 54bd 3668 40be 0157 4fbd 4e0c b8bd
00000220: d36a 00bd 82a0 af3d cb29 b8bd cfbb 7cbe
00000230: 4a33 b5be a127 e1be 38ff 1cbc c44f a43e
00000240: c972 e6be 34fb 8d3e 64e7 babc d884 4dbd
00000250: 8158 09bf 8029 5e3b 2510 df3d 7954 c83e
00000260: 9951 dbbc 9696 68be 87ae dd3d d239 7a3c
00000270: 375b 083e 742d 8e3e 916f febb b81f e3be
00000280: 3277 1cbe 12c4 fbbe 50ba e7bd 8219 2e3e
00000290: 43de 093f 6aef a2bf b0a8 b13c 0efc 883d
000002a0: 8d51 f4bc 229e 713c f70b 24be 7680 023e
000002b0: 3798 3b3e a19c 4ebe 835f 3fbf d684 cbbd
000002c0: d3ed d03d c879 d5bd adfe 143e 12ef debd
000002d0: c734 8ebc 57fc 263e 6b86 89be da95 cbbe
000002e0: 5dee bfbd d03f b13e 5c13 943c 509d 08be
000002f0: ddc2 b53d 93cf 27bf c2fb f3bd 1b61 f93d
00000300: 8fe3 173d 14e3 06bd 1609 153e c6d2 01bd
00000310: e2f2 093e 0f01 7abc 71b8 13bf faa3 0abe
00000320: 0130 00be 888b b4bd e80a 3f3d f660 f23d
00000330: 6627 86bd 8de5 91bd 5bbe 9d3e f1e5 ab3d
00000340: 3da7 f1bd d837 2e3e c83b 2e3e 73a6 87be
00000350: 007d 623e c17b 533d 5865 843e 61b1 79be
00000360: 82cf d9be 225e eebe 39db 823c 6f47 ea3d
00000370: 4a48 e13d c650 de3d 0d3d 0abd 1077 20bd
00000380: d899 0abe 0074 7b3c f83d 66bd 5450 edbe
00000390: e3ab 963e 2eed ec3c 9383 e03e 2010 533e
000003a0: ff27 6a3b 3191 edbd e38c 23be 312e 0a3e
000003b0: 73ad 313e bee4 d2bd 5a40 6d3c 785b 33be
000003c0: f56e 9dbe d30f e3bd dbae f4bd d6a3 8fbd
000003d0: c4ea 893d 87ea 9cbe 8cce 923d 66a6 363e
000003e0: 6600 043f 7df2 5a3b bac1 0b3c 9875 b3be
000003f0: 2601 b23e 640d 123e 4eea fd3d b748 c9bd

sequential_1/dense_0_1/MatMul f4 [128, 650]
-0.021761172 -0.050861925 0.02437259 0.0014168845 -0.010202848 0.014303467 0.01633674 -0.0043625263
0.015382746 -0.080903485 -0.098369956 0.08251804 -0.05984383 0.0077796094 -0.021970889 0.05817674
0.019082922 -0.054401677 0.045179576 0.036670767 0.0112260515 0.001502854 -0.091497704 -0.09366946
0.118178025 0.009954434 0.04968965 -0.03831469 -0.0010713252 -0.02667225 -0.052671652 0.037763514
-0.036397867 -0.03766976 0.04271268 -0.056255467 -0.068916224 0.05110545 -0.02737138 0.0011629537
-0.0067132493 0.041617908 -0.0033529515 -0.020086065 0.033181805 0.062022112 0.017944673 0.069403425
-0.11941323 -0.0613185 0.0969971 -0.034976054 0.057157353 0.007728437 0.0037348366 0.005177055
-0.031299736 0.004842084 0.042448606 -0.011077939 0.031948414 -0.061272662 -0.09631286 0.053588223
-0.07631433 0.01861119 -0.0337698 -0.022754887 -0.030150145 -0.04919 0.02857983 -0.017644973
-0.014094399 0.03492166 -0.06022343 -0.13145441 0.09683432 -0.05253736 0.0010055602 -0.04369021
-0.014135801 0.015470797 -0.06291242 0.07109613 0.028110191 -0.0067390143 0.05884881 -0.06132136
-0.09222782 0.063025385 -0.044393245 -2.6085016e-05 -0.05906352 0.037942335 0.0008158953 -0.058290154
0.01986067 0.022269966 0.03180608 0.059022598 -0.02941428 -0.06586412 0.031051671 -0.06350519
0.046192337 -0.04703923 -0.0440763 0.039217263 -0.024459356 -0.00081747613 -0.022468947 -0.023792135
-0.006025047 -0.08212647 -0.08653764 0.11819266 -0.028390037 0.011976318 -0.030225042 -0.005110048
0.044844273 0.006469501 -0.014206399 0.042601347 0.043990187 0.072498046 -0.07086574 -0.1052198
0.100015536 -0.030973215 0.04376774 -9.1075235e-05 -0.05034844 0.012632556 0.00034136968 0.0843082
0.016432058 0.012466502 0.022992713 -0.109618016 -0.10397955 0.095878325 -0.063815795 0.015581879
-0.02431144 -0.028373186 -0.0077294055 0.022270437 0.023821414 -0.01392881 -0.04269705 0.026829889
-0.07881307 -0.120859064 0.10406762 -0.051275067 0.032597307 -0.055243753 -0.030536585 -0.01842721
-0.0019095116 0.03880608 -0.007932664 0.020669803 0.011361529 -0.10479233 -0.10383661 0.06754575
-0.05098751 -0.02011363 -0.008105174 -0.047685686 -0.0279104 -0.020822212 0.010153111 0.01120091
-0.03549247 0.028881093 -0.10038008 -0.14251414 0.09669078 -0.047306847 0.009343008 0.013749467
-0.076819494 0.03557905 -0.005451981 0.01760712 0.013310128 0.0017675579 0.027205843 -0.10355476
-0.094369456 0.06742807 -0.03185818 0.023481088 -0.012411658 0.00038244211 0.0046145706 -0.018875899
0.061347988 -0.018518528 -0.008350146 0.04344233 -0.07497524 -0.093702205 0.12946005 -0.032754414
0.014835335 0.015374249 -0.027922047 -0.0073054116 -0.020987224 0.023347415 -0.04691486 0.003685188
0.046671335 -0.082568705 -0.10412626 0.08479833 -0.025896247 0.067713015 -0.012662943 -0.06578442
-0.0021687467 -0.009665809 0.054439913 -0.004422183 0.019644815 0.049845822 -0.17536396 -0.14569168
0.06803339 -0.014690377 0.03656321 0.0258522 -0.011764974 0.012186557 0.005584833 0.004794144
-0.0031095925 0.022941925 0.0527918 -0.09095 -0.10590769 0.12760097 -0.067073405 0.041930668
0.07283383 0.03556626 0.0012365147 0.010035771 0.045051694 -0.01392901 0.027614007 0.060430057
00000000: 7c44 b2bc 9854 50bd 07a9 c73c c1b6 b93a
00000010: d929 27bc 1759 6a3c a1d4 853c 86f3 8ebb
00000020: ea07 7c3c bab0 a5bd 3076 c9bd 38ff a83d
00000030: ce1e 75bd 18ec fe3b 4bfc b3bc bc4a 6e3d
00000040: ca53 9c3c 4bd4 5ebd 380e 393d 1634 163d
00000050: 79ed 373c 6afb c43a 2663 bbbd c6d5 bfbd
00000060: 5207 f23d ec17 233c 6087 4b3d ddef 1cbd
00000070: b56b 8cba c37f dabc 3bbe 57bd eaad 1a3d
00000080: ee15 15bd 9b4b 1abd 7ef3 2e3d 226c 66bd
00000090: f323 8dbd f353 513d f239 e0bc 406e 983a
000000a0: d1fa dbbb 8a77 2a3d 31bd 5bbb 888b a4bc
000000b0: a5e9 073d e60a 7e3d b500 933c 6223 8e3d
000000c0: ec8e f4bd 1c29 7bbd 6aa6 c63d 0d43 0fbd
000000d0: d41d 6a3d d43e fd3b 29c4 743b 49a4 a93b
000000e0: 2734 00bd 58aa 9e3b 97de 2d3d 3e80 35bc
000000f0: 57dc 023d 0bf9 7abd ad3f c5bd 537f 5b3d
00000100: b04a 9cbd 7f76 983c 3452 0abd 7568 babc
00000110: 70fd f6bc 747b 49bd 3f20 ea3c 318c 90bc
00000120: 32ec 66bc 040a 0f3d d8ac 76bd fc9b 06be
00000130: 1251 c63d 6a31 57bd 00cd 833a 81f4 32bd
00000140: d999 67bc 3a79 7d3c 3ad8 80bd d99a 913d
00000150: 5847 e63c f3d2 dcbb 730b 713d 1b2c 7bbd
00000160: f0e1 bcbd 7413 813d b1d5 35bd 25d1 dab7
00000170: 97ec 71bd 6c69 1b3d cfe1 553a a8c1 6ebd
00000180: d8b2 a23c 816f b63c 1847 023d aec1 713d
00000190: 37f6 f0bc c5e3 86bd 1360 fe3c 020f 82bd
000001a0: 2d34 3d3d 35ac 40bd 5a89 34bd 48a2 203d
000001b0: fd5e c8bc e54b 56ba cc10 b8bc b9e7 c2bc
000001c0: c26d c5bb ec31 a8bd a53a b1bd fe0e f23d
000001d0: 3992 e8bc 5238 443c 829a f7bc 3172 a7bb
000001e0: a1ae 373d 1cfe d33b f5c1 68bc c07e 2e3d
000001f0: 0e2f 343d db79 943d 0f22 91bd 7a7d d7bd
00000200: f2d4 cc3d 8abb fdbc cd45 333d a5ff beb8
00000210: 2a3a 4ebd c8f8 4e3c ddf9 b239 c7a9 ac3d
00000220: 869c 863c 4d40 4c3c 375b bc3c 697f e0bd
00000230: 3bf3 d4bd db5b c43d dbb1 82bd 234b 7f3c
00000240: c928 c7bc e26e e8bc f446 fdbb 7e70 b63c
00000250: 2025 c33c aa35 64bc 1ae3 2ebd 5bca db3c
00000260: bf68 a1bd f584 f7bd 6821 d53d ce05 52bd
00000270: c184 053d 4647 62bd dc27 fabc a9f4 96bc
00000280: 9448 faba 20f3 1e3d 01f8 01bc b853 a93c
00000290: b525 3a3c 5c9d d6bd 4aa8 d4bd 6d55 8a3d
000002a0: 47d8 50bd 57c5 a4bc 90cb 04bc 1152 43bd
000002b0: 5aa4 e4bc 5893 aabc 3c59 263c 0684 373c
000002c0: 8d60 11bd 0b98 ec3c 1294 cdbd 3aef 11be
000002d0: d105 c63d d3c4 41bd 6a13 193c 7245 613c
000002e0: 8a53 9dbd 57bb 113d 88a6 b2bb cf3c 903c
000002f0: b912 5a3c 67ad e73a cade de3c 8514 d4bd
00000300: c644 c1bd ba17 8a3d b97d 02bd 695b c03c
00000310: 445a 4bbc 8382 c839 d335 973b a1a1 9abc
00000320: 0748 7b3d 2bb4 97bc 0dcf 08bc 96f0 313d
00000330: 9e8c 99bd f1e6 bfbd 2d91 043e 7e29 06bd
00000340: e80f 733c 46e4 7b3c c7bc e4bc 3c62 efbb
00000350: 66ed abbc 1443 bf3c cc29 40bd 3283 713b
00000360: 712a 3f3d c819 a9bd 2640 d5bd bfaa ad3d
00000370: 5e24 d4bc 1fad 8a3d 3c78 4fbc fbb9 86bd
00000380: 8821 0ebb 575d 1ebc 63fc 5e3d f6e7 90bb
00000390: 2aee a03c 222b 4c3d 9c92 33be 3330 15be
000003a0: 1755 8b3d e8af 70bc 4ec3 153d fec7 d33c
000003b0: e1c1 40bc 20aa 473c fa00 b73b 3218 9d3b
000003c0: 4eca 4bbb b4f0 bb3c 373c 583d fe43 babd
000003d0: 22e6 d8bd d4a9 023e c85d 89bd 7ebf 2b3d
000003e0: e729 953d edad 113d 8c12 a23a 136d 243c
000003f0: 2088 383d 8136 64bc c536 e23c 8285 773d

sequential_1/dense_0_1/Relu;sequential_1/dense_0_1/BiasAdd f4 [128]
0.23721977 -0.2537002 0.03934437 0.04592521 -0.28696814 -0.26125506 -0.12592691 -0.058910552
-0.31369996 -0.23454398 -0.14059414 -0.5680572 -0.24556568 0.029390007 -0.7239677 -0.018798122
-0.260022 0.052259598 -0.07066116 -0.052347686 -0.04172602 0.019366194 -0.19245021 -0.3891797
-0.104444355 -0.0027642208 -0.19945706 -0.55499905 -0.00085657224 0.033019807 -0.20757812 0.07282611
-0.45503312 0.034901503 -0.022325326 -0.64497 -0.04050937 -0.30259654 0.0338605 -0.18474069
0.12336988 -0.23777717 -0.12689753 -0.00505735 0.09289336 -0.8157736 0.09816267 0.14640403
0.092613555 -0.2968587 -0.19626714 -0.01424508 0.001196514 -0.39839822 0.046924688 -0.4656574
0.026524844 -0.27995995 -0.104367845 -0.03827538 -0.19203584 -0.7257345 0.008525333 0.083178565
0.022167342 -0.088871606 -0.28068525 0.111667976 0.01816776 -0.07095655 -0.12193458 -0.02189545
0.0044810516 -0.21010439 -0.08690961 -0.20294893 0.1252241 -0.27589074 0.032067932 -0.17621346
0.111066684 -0.038661674 0.06770169 0.099786825 0.0063388688 -0.3859986 -0.18185544 -0.03053882
-0.11716677 -1.0487475 -0.31979707 -0.094838 -0.14237341 -0.18881406 0.039702877 -0.040442284
0.35871717 0.06734584 -0.18761939 -0.20557316 -0.16742037 -0.11521469 0.029327292 -0.10941966
0.14897989 -0.3036486 -0.32385162 0.012986864 -0.1097188 0.044402666 0.039371036 -0.30782574
-0.038284715 0.02757877 0.0023682173 0.03662788 -0.12780924 0.09155069 -0.24269423 -0.02336811
-0.41676888 -0.1769633 -0.07780404 0.003389242 -0.50501627 -0.5162369 0.07240313 -1.13531
00000000: bde9 723e fee4 81be 9027 213d 131c 3c3d
00000010: 7ded 92be 39c3 85be fcf2 00be 314c 71bd
00000020: 489d a0be 4c2c 70be e9f7 0fbe 326c 11bf
00000030: 9275 7bbe 50c3 f03c f255 39bf 85fe 99bc
00000040: 9b21 85be 290e 563d ccb6 90bd 876a 56bd
00000050: e7e8 2abd daa5 9e3c ab11 45be 9042 c7be
00000060: ece6 d5bd ee27 35bb 793e 4cbe 6b14 0ebf
00000070: 978b 60ba c73f 073d 5c8f 54be db25 953d
00000080: 1afa e8be e1f4 0e3d 9ae3 b6bc c11c 25bf
00000090: 27ed 25bd efed 9abe 4fb1 0a3d aa2c 3dbe
000000a0: 59a9 fc3d dc7b 73be 6df1 01be 20b8 a5bb
000000b0: e03e be3d 8ad6 50bf 8309 c93d f0ea 153e
000000c0: 2dac bd3d ddfd 97be 41fa 48be 3264 69bc
000000d0: 59d4 9c3a dafa cbbe 1a34 403d a66a eebe
000000e0: a14a d93c e956 8fbe cfbe d5bd a5c6 1cbd
000000f0: 0ba5 44be bcc9 39bf d7ad 0b3c 8659 aa3d
00000100: 4998 b53c 5102 b6bd fab5 8fbe 2eb2 e43d
00000110: 8ed4 943c ab51 91bd d6b8 f9bd 165e b3bc
00000120: c9d5 923b 9b25 57be aafd b1bd d8d1 4fbe
00000130: bf3a 003e 8d41 8dbe aa59 033d 4d71 34be
00000140: ee76 e33d b45b 1ebd 2fa7 8a3d 095d cc3d
00000150: 49b6 cf3b 9ca1 c5be 5038 3abe 8c2c fabc
00000160: 22f5 efbd 5c3d 86bf 71bc a3be 6d3a c2bd
00000170: 56ca 11be 7958 41be 7c9f 223d cfa6 25bd
00000180: c7a9 b73e 9eec 893d 4c1f 40be c581 52be
00000190: 3f70 2bbe aef5 ebbd ca3f f03c 6a17 e0bd
000001a0: 2f8e 183e d477 9bbe e1cf a5be dbc6 543c
000001b0: 40b4 e0bd 92df 353d 8643 213d 569b 9dbe
000001c0: 6fd0 1cbd dfec e13c 1834 1b3b 1e07 163d
000001d0: 6de0 02be ee7e bb3d d684 78be 7b6e bfbc
000001e0: bb62 d5be de35 35be b957 9fbd 0c1e 5e3b
000001f0: bf48 01bf 1a28 04bf 1848 943d d751 91bf
