src/track_test/config/trackVer13_policyVer5.tflite (tflite, 403500 bytes, 6 tensors)

arith.constant f4 [128]
0.1017206 0.060978442 -0.041804645 -0.007531986 0.04210371 -0.040493365 -0.09700499 -0.032062557
-0.058848917 -0.037180126 0.03945984 -0.050155215 0.12240422 0.045447066 -0.017829003 -0.029865937
-0.030203598 -0.07996867 0.07854627 0.010263334 0.05438591 -0.049353972 0.019111127 -0.047169752
-0.030026583 0.017446702 -0.06942886 -0.03107005 0.041615218 0.08722804 -0.029650873 0.009013801
0.08425915 0.082444005 0.0030694772 -0.03242179 0.043374468 -0.005101734 0.007984814 -0.035429467
0.0263546 -0.045657776 0.045345202 -0.04007289 -0.031066336 -0.035655804 0.014920525 0.035876904
-0.008802588 0.0941511 -0.01748716 0.006784745 -0.03130645 0.008738113 -0.10480219 -0.10971093
-0.0013223898 -0.023092827 -0.08838332 -0.00029289039 0.056210812 0.025041042 0.021621343 -0.046618972
0.031270646 0.010047066 0.0461424 0.031252414 0.05651699 -0.09544747 -0.04174899 0.035953976
0.036840532 0.068754576 0.012191441 0.058483597 -0.030402858 0.0063854316 0.06514638 -0.33229667
0.055032723 0.065384954 -0.024069117 -0.007816547 -0.02090013 0.0003974255 0.043996155 0.07420438
0.035700534 -0.06451745 -0.021081483 -0.08187568 -0.030011533 -0.03902165 0.04424543 0.07855259
-0.04259181 -0.049808048 -0.030804137 -0.04534965 0.040700767 -0.046000026 -0.12650642 0.082250506
-0.033320162 -0.046399564 0.06271394 0.030068334 0.007051188 -0.032488026 -0.0021705995 0.00449602
0.05923299 0.047655303 -0.10964959 -0.07790323 -0.029507274 -0.037659425 0.03816628 -0.11759434
0.040765684 -0.03291384 -0.050335903 0.017644133 -0.00781188 0.002768313 -0.040370718 0.089155555
00000000: e452 d03d 88c4 793d 593b 2bbd e1ce f6bb
00000010: f174 2c3d 5fdc 25bd 8daa c6bd 0754 03bd
00000020: 900b 71bd 304a 18bd a4a0 213d 8e6f 4dbd
00000030: 10af fa3d b426 3a3d 210e 92bc 69a9 f4bc
00000040: 896d f7bc 9dc6 a3bd dedc a03d 8b27 283c
00000050: c3c3 5e3d 6427 4abd f08e 9c3c 1235 41bd
00000060: 4ffa f5bc 63ec 8e3c b830 8ebd 9e86 febc
00000070: b874 2a3d 9da4 b23d 63e6 f2bc 9fae 133c
00000080: 1090 ac3d 67d8 a83d 4829 493b b6cc 04bd
00000090: 6da9 313d 722c a7bb bdd2 023c 7d1e 11bd
000000a0: 9ae5 d73c a603 3bbd e4bb 393d 7923 24bd
000000b0: d47e febc d20b 12bd 3875 743c a9f3 123d
000000c0: bb38 10bc 4bd2 c03d 3c41 8fbc 9152 de3b
000000d0: 313b 00bd 4d2a 0f3c 88a2 d6bd 20b0 e0bd
000000e0: 0a54 adba 2b2d bdbc 5002 b5bd 158f 99b9
000000f0: 4f3d 663d df22 cd3c 3e1f b13c 89f3 3ebd
00000100: a615 003d 739c 243c d0ff 3c3d 8802 003d
00000110: 5c7e 673d f779 c3bd fd00 2bbd 7a44 133d
00000120: 19e6 163d 33cf 8c3d 9cbe 473c 7f8c 6f3d
00000130: 6a0f f9bc e23c d13b 776b 853d ca22 aabe
00000140: fe69 613d 8ce8 853d 992c c5bc f910 00bc
00000150: c036 abbc 8c5d d039 5035 343d 77f8 973d
00000160: b93a 123d ba21 84bd 13b3 acbc 70ae a7bd
00000170: bfda f5bc 2ad5 1fbd b23a 353d 2ee0 a03d
00000180: c074 2ebd 8603 4cbd f558 fcbc 8ec0 39bd
00000190: d9b5 263d 866a 3cbd e68a 01be f472 a83d
000001a0: b97a 08bd 780d 3ebd 2b70 803d de51 f63c
000001b0: a70d e73b 2a12 05bd 9e40 0ebb 5953 933b
000001c0: 4b9e 723d 3532 433d f78f e0bd bb8b 9fbd
000001d0: 3db9 f1bc c540 1abd 3f54 1c3d 4dd5 f0bd
000001e0: ebf9 263d aad0 06bd 052d 4ebd 6e8a 903c
000001f0: cdfa ffbb 966c 353b c45b 25bd 3097 b63d

arith.constant1 f4 [4]
0.053176854 0.038695663 0.034302644 0.009903018
00000000: f9cf 593d 587f 1e3d ee80 0c3d 4540 223c

arith.constant2 f4 [4, 128]
0.3858703 0.12197416 0.056744337 -0.021282379 0.098297164 0.054539803 0.39854717 -0.09976484
-0.18172899 -0.28532448 0.19480295 -0.113112636 0.38036355 -0.0023952096 -0.0378149 0.08087883
-0.021302454 -0.2444315 0.34116247 -0.37002158 0.13183863 -0.22683278 0.36363778 0.013557639
0.028809799 0.0036474855 0.008199369 -0.0031065566 0.16914293 0.29632953 0.052266315 -0.12038915
0.20570564 -0.067149594 -0.066039726 -0.28219837 0.19217281 -0.08851117 0.12118956 -0.008817479
0.051046588 -0.23679711 0.008536384 0.034328472 -0.017546713 -0.27906686 0.071032286 0.24820933
-0.16762719 -0.5762134 -0.030364824 -0.08435785 -0.080702014 -0.1369787 -0.74466 -0.26529247
0.7846583 -0.14868039 -0.11861341 -0.9807015 0.012027832 0.039670847 0.12780392 -0.09371267
0.53197646 0.092689864 -0.0047126324 -0.009151635 0.07184212 -0.3603891 -0.05812827 0.0659941
0.27557573 0.32988378 -0.96162766 -0.014812011 0.029609513 -0.2171774 0.08557087 -2.4614522
-0.102765925 -0.43928888 -0.24344109 -0.10024849 0.098764904 0.026807277 0.1625046 0.18020461
0.08744049 -0.3709942 -0.18313596 -0.31406856 -0.0023204521 -0.1638115 0.19447021 0.30296126
-0.040651698 -0.037618555 0.020662248 -0.15610781 0.11590985 0.0071290825 -0.34837487 0.49298415
-0.06453355 -0.04712246 -0.031733427 0.106736615 -0.23186034 0.014881657 -0.15690099 -0.22621515
0.28035426 -0.14256647 0.05358848 -0.09793676 0.03782364 -0.23374104 1.6892135 -0.0664105
0.19168966 0.012972031 -0.1734179 0.12159625 -0.13870856 0.47957724 0.12776363 0.21492358
0.016146751 0.16072991 -0.18709189 -0.03813945 0.09598047 0.055256356 -0.36548182 0.04724696
-0.005806137 -0.17623708 -0.16328208 0.12167151 0.087184265 0.15018152 -0.08429569 0.064177066
-0.07327202 -0.13425305 0.099619634 -0.00011039002 0.06249408 -0.064907245 -0.12749656 -0.06010549
-0.007008266 0.13110557 0.1145254 0.08415508 -0.11098894 0.0048036403 0.042731244 0.042602032
0.15884665 -0.08152862 -0.22596952 -0.1357523 0.21281683 -0.09875989 -0.17662412 -0.029073168
0.14943649 -0.1654063 0.11845027 -0.0294139 -0.01398466 -0.032819904 -0.11381971 0.1729965
-0.1375052 -8.356776e-05 0.066352755 -0.31330743 0.566872 -0.18552294 -0.6307072 -0.16591755
-0.33874008 0.024699718 -0.26850048 -0.31665626 -0.09756721 0.085296944 0.16325568 -0.008165553
-1.0614936 0.06919409 -0.1510336 0.29403925 0.20828027 0.10417626 -0.24190666 0.14503106
-0.21388453 0.102958314 0.54359293 0.20305298 0.020475214 0.34317964 -0.28232506 0.88530976
-0.31857687 0.57737064 0.16273417 -0.30441985 0.31103387 0.14464922 -0.21689445 -0.029933795
0.2807746 0.5911087 -0.20994726 0.071204446 0.0037587492 -0.0696332 0.1316176 0.05559278
-0.042090584 -0.15337184 -0.01913156 0.0829713 -0.1656115 0.03199256 -0.52868855 -0.012043547
-0.012604462 0.09303219 0.17219493 -0.28222844 -0.18614122 -0.069495946 0.20140004 0.058617257
0.1626465 0.1979551 -0.378638 0.006170383 -0.016035168 0.11372006 0.14167973 0.06349008
-0.47466025 0.085582145 -0.06318318 0.22990799 -0.073040195 -0.25814626 -0.02041987 0.060737655
00000000: cb90 c53e 97cd f93d c06c 683d 6258 aebc
00000010: 0650 c93d 2165 5f3d 600e cc3e 8251 ccbd
00000020: 2a17 3abe 0d16 92be 6d7a 473e 99a7 e7bd
00000030: 03bf c23e f3f8 1cbb cce3 1abd cda3 a53d
00000040: 7c82 aebc 404c 7abe d9ac ae3e 7873 bdbe
00000050: b500 073e da46 68be bb2e ba3e dc20 5e3c
00000060: 8702 ec3c a70a 6f3b a556 063c 5f97 4bbb
00000070: ce33 2d3e 81b8 973e 3415 563d 968e f6bd
00000080: 80a4 523e ba85 89bd d63f 87bd 4e7c 90be
00000090: f3c8 443e 5845 b5bd 3b32 f83d 3077 10bc
000000a0: 3a16 513d f17a 72be 31dc 0b3c 039c 0c3d
000000b0: 20be 8fbc dae1 8ebe 6079 913d 962a 7e3e
000000c0: 76a6 2bbe b982 13bf a7bf f8bc cfc3 acbd
000000d0: 1947 a5bd 2544 0cbe 0aa2 3ebf 6ad4 87be
000000e0: 5edf 483f ac3f 18be 96eb f2bd 410f 7bbf
000000f0: 6210 453c e67d 223d 08df 023e 6eec bfbd
00000100: 9c2f 083f 2fd4 bd3d 6d6c 9abb bdf0 15bc
00000110: f621 933d ec84 b8be e917 6ebd ea27 873d
00000120: 4318 8d3e 87e6 a83e 3b2d 76bf 14ae 72bc
00000130: a68f f23c c163 5ebe c83f af3d 6f88 1dc0
00000140: f176 d2bd 79ea e0be 9f48 79be 154f cdbd
00000150: 4145 ca3d ef9a db3c 9b67 263e 8f87 383e
00000160: 0014 b33d f4f2 bdbe fe87 3bbe 98cd a0be
00000170: ba12 18bb 34be 27be 3323 473e bd1d 9b3e
00000180: 6582 26bd ea15 1abd e043 a93c bada 1fbe
00000190: 2562 ed3d 149b e93b 315e b2be 6b68 fc3e
000001a0: 2a2a 84bd 7b03 41bd e9fa 01bd ba98 da3d
000001b0: cc6c 6dbe 32d2 733c a7aa 20be f2a4 67be
000001c0: 988a 8f3e f2fc 11be 987f 5b3d 1193 c8bd
000001d0: f6ec 1a3d d059 6fbe 2638 d83f 3a02 88bd
000001e0: 4b4a 443e a488 543c 7694 31be 7407 f93d
000001f0: 9e09 0ebe 268b f53e 78d4 023e ed14 5c3e
00000200: 3146 843c 6296 243e 0495 3fbe 1d38 1cbd
00000210: 6991 c43d 7d54 623d 6f20 bbbe 0786 413d
00000220: 6841 bebb 7e77 34be 6b33 27be ea2e f93d
00000230: aa8d b23d 2fc9 193e 38a3 acbd 446f 833d
00000240: a40f 96bd a279 09be 6105 cc3d 3181 e7b8
00000250: cbf9 7f3d 17ee 84bd 758e 02be 2d31 76bd
00000260: 99a5 e5bb 8a40 063e 4b8c ea3d 8059 ac3d
00000270: 2b4e e3bd db67 9d3b f506 2f3d 787f 2e3d
00000280: b2a8 223e 7af8 a6bd 8e64 67be a702 0bbe
00000290: a8ec 593e a042 cabd f4dc 34be da2a eebc
000002a0: e105 193e 4560 29be 0e96 f23d 6bf5 f0bc
000002b0: ea1f 65bc 2a6e 06bd 4f1a e9bd ff25 313e
000002c0: 2ace 0cbe 1941 afb8 f4e3 873d d569 a0be
000002d0: 861e 113f baf9 3dbe 0776 21bf 4ae6 29be
000002e0: 576f adbe 1057 ca3c e578 89be c520 a2be
000002f0: 51d1 c7bd 2ab0 ae3d 7f2c 273e d0c8 05bc
00000300: 06df 87bf a2b5 8d3d 8da8 1abe 508c 963e
00000310: 6c47 553e 5d5a d53d 61b6 77be 0683 143e
00000320: 8c04 5bbe cfdb d23d e828 0b3f 1fed 4f3e
00000330: a3bb a73c 3eb5 af3e e98c 90be a9a3 623f
00000340: 821c a3be 90ce 133f c9a3 263e ebdc 9bbe
00000350: d53f 9f3e ed1e 143e 9419 5ebe b837 f5bc
00000360: b0c1 8f3e e652 173f 6afc 56be a3d3 913d
00000370: 5955 763b da9b 8ebd c4c6 063e 41b5 633d
00000380: 2d67 2cbd 820d 1dbe cab9 9cbc dbec a93d
00000390: 1096 29be a10a 033d 2258 07bf 4c52 45bc
000003a0: f282 4ebc a987 be3d de53 303e 3f80 90be
000003b0: ce9b 3ebe e453 8ebd d03b 4e3e a618 703d
000003c0: ce8c 263e beb4 4a3e d7dc c1be ed30 ca3b
000003d0: 2f5c 83bc 10e6 e83d 7e14 113e 1607 823d
000003e0: ab06 f3be b145 af3d 2f66 81bd 006d 6b3e
000003f0: 1996 95bd bf2b 84be 9247 a7bc 0cc8 783d

arith.constant3 f4 [128, 128]
0.06278802 -0.10410946 0.08420698 -0.2152279 0.05728042 -0.07356788 0.1386673 0.08382892
-0.04857589 -0.2196016 -0.04353179 0.052392326 0.08447265 -0.017500555 -0.13137312 -0.025891976
-0.0030629947 -0.2636551 -0.062861145 0.0061980067 0.03250163 -0.018035863 -0.05246734 -0.0015229074
0.096145384 0.024010781 -0.07250521 0.020989574 -0.1501019 0.016837649 0.048334096 -0.031169852
0.0347522 0.043727368 -0.05344752 -0.068786606 -0.011326709 0.0997424 0.04729021 0.15445612
-0.14959076 0.051519472 0.120036766 0.05193293 0.07910049 0.040479418 0.038439605 -0.0354996
0.05435901 -0.027813073 -0.029053899 -0.11748372 0.04203377 -0.08231512 0.029534096 -0.10662231
0.08384321 0.04907065 0.036248755 0.09671246 -0.047684405 0.022007596 0.008399224 -0.11912053
0.14730267 -0.006522103 0.015404336 0.04113139 0.07093401 0.07728974 -0.20218709 0.1687839
-0.084894784 0.055738125 -0.003096125 0.004003633 -0.08187035 0.029212765 -0.030311823 -0.002367776
0.048650835 -0.026317457 0.17861351 -0.03668974 0.060009766 -0.002776451 0.08926497 -0.029525215
0.10599352 -0.022975046 -0.0031019654 -0.089736804 0.057724576 0.036038194 0.10038949 -0.12168508
0.00504048 -0.058914702 -0.1522361 -0.12008626 0.16833442 -0.024192756 -0.066419266 0.23692223
0.118112564 -0.007931761 0.037263624 -0.03185083 -0.12031608 0.09471331 0.09929978 0.07158398
-0.08872778 0.09447872 0.03184452 0.15292792 -0.014463488 0.0433739 -0.07656811 -0.025447093
0.06830228 -0.0031739217 0.03773201 0.1357024 0.06846898 0.11859834 0.04241934 0.075255804
0.12521738 0.020035435 0.049756918 0.2637663 0.060217787 -0.035898086 -0.07124735 -0.06283059
-0.3499864 0.110298984 0.0057868455 0.28153124 0.11123386 -0.27653506 -0.019193435 0.012554319
0.06821266 -0.42354095 -0.11973594 -0.1592384 -0.05783918 0.17203058 -0.016642211 -0.10472209
-0.097694255 0.02185327 0.1352949 -0.1737363 -0.06843327 -0.026792683 0.12489515 0.015638389
-0.020634314 -0.0018955066 0.12873267 0.064856835 0.03382207 -0.08971366 0.00071647967 -0.08194163
-0.5171582 0.0034785306 -0.16192512 -0.060846668 -0.1660716 -0.112496965 -0.06095709 -0.010735291
-0.020254377 -0.012063649 0.024410408 0.016860487 -0.056783654 0.09848533 -0.13514787 0.027994774
0.13794991 -0.07840268 -0.05494629 -0.047146615 0.012477498 0.12839316 -0.021596037 0.10730009
0.0006937123 0.007970337 0.07236034 0.015666857 -0.260044 0.0012815078 -0.03897885 0.018455032
-0.15819612 0.048147596 -0.04355823 -0.022863355 -0.44304422 -0.2935161 -0.016285956 -0.07054063
-0.0908801 -0.2000007 -0.08205254 -0.09042109 -0.069145784 0.040751457 0.0067530177 -0.04034506
-0.10120248 -0.0038416572 0.009045966 0.23769146 -0.002428226 0.03200736 -0.13593183 0.08839624
0.004600103 -0.050768644 -0.052735854 0.0012101945 -0.78845936 0.009728258 0.09969109 -0.042293847
-0.12034849 -0.052030627 0.088662334 0.048864078 0.20616807 -0.047742013 -0.13171157 0.0017273193
0.15893845 0.1653743 -0.36231297 -0.22335501 0.051925655 -0.36693558 0.020964254 0.07908244
0.02257418 0.07060854 0.04763049 -0.05753722 -0.0067255013 -0.25055024 0.15700552 0.084047176
00000000: 0197 803d 5737 d5bd b674 ac3d b464 5cbe
00000010: e09e 6a3d c2aa 96bd cdfe 0d3e 7fae ab3d
00000020: 83f7 46bd 3edf 60be 644e 32bd 5699 563d
00000030: ffff ac3d 535d 8fbc ad86 06be 691b d4bc
00000040: 86bc 48bb cdfd 86be 58bd 80bd a618 cb3b
00000050: 6e20 053d f2bf 93bc fee7 56bd 4b9c c7ba
00000060: dfe7 c43d 42b2 c43c 9d7d 94bd 54f2 ab3c
00000070: 50b4 19be 1cef 893c f9f9 453d eb57 ffbc
00000080: 5358 0e3d 781b 333d c9eb 5abd fedf 8cbd
00000090: a993 39bc be45 cc3d 61b3 413d bf29 1e3e
000000a0: 522e 19be 1506 533d d6d5 f53d a0b7 543d
000000b0: 70ff a13d bfcd 253d d972 1d3d 0768 11bd
000000c0: 8ea7 5e3d 3ed8 e3bc 7102 eebc 4e9b f0bd
000000d0: 9a2b 2c3d d494 a8bd 7df1 f13c cc5c dabd
000000e0: fdb5 ab3d 4efe 483d 9379 143d 2f11 c63d
000000f0: b950 43bd 4649 b43c e69c 093c 77f5 f3bd
00000100: 83d6 163e 5eb7 d5bb 7862 7c3c 6379 283d
00000110: da45 913d 154a 9e3d 220a 4fbe b0d5 2c3e
00000120: 51dd adbd a94d 643d 5ce8 4abb e830 833b
00000130: a4ab a7bd 9c4f ef3c 8050 f8bc b02c 1bbb
00000140: 1946 473d b597 d7bc 76e6 363e fb47 16bd
00000150: cdcc 753d 1ef5 35bb 8dd0 b63d ddde f1bc
00000160: 2113 d93d 2a36 bcbc 584a 4bbb eec7 b7bd
00000170: 9b70 6c3d c99c 133d 0199 cd3d 0736 f9bd
00000180: 9c2a a53b 8b50 71bd c8e3 1bbe c9ef f5bd
00000190: dc5f 2c3e e32f c6bc d306 88bd be9b 723e
000001a0: 00e5 f13d 38f4 01bc bea1 183d 0476 02bd
000001b0: 4768 f6bd 0df9 c13d af5d cb3d 9f9a 923d
000001c0: e9b6 b5bd 0f7e c13d 666f 023d 2399 1c3e
000001d0: 44f8 6cbc d5a8 313d becf 9cbd 6c76 d0bc
000001e0: 11e2 8b3d 9201 50bb e18c 1a3d 92f5 0a3e
000001f0: 7739 8c3d b0e3 f23d e7bf 2d3d b71f 9a3d
00000200: fc38 003e 5a21 a43c e9cd 4b3d 600c 873e
00000210: eda6 763d df09 13bd 21ea 91bd 53ad 80bd
00000220: 6b31 b3be 6fe4 e13d 949f bd3b dd24 903e
00000230: 94ce e33d 0196 8dbe 8d3b 9dbc a1b0 4d3c
00000240: 14b3 8b3d 5cda d8be 1e38 f5bd 640f 23be
00000250: c7e8 6cbd c928 303e 3f55 88bc 8978 d6bd
00000260: ed13 c8bd a105 b33c bf8a 0a3e eee7 31be
00000270: be26 8cbd 547c dbbc 07c9 ff3d 141c 803c
00000280: 4b09 a9bc a672 f8ba 7fd2 033e a9d3 843d
00000290: 0389 0a3d ccbb b7bd 23d2 3b3a 03d1 a7bd
000002a0: 7b64 04bf 0ff8 633b b3cf 25be 5b3a 79bd
000002b0: ac0e 2abe cf64 e6bd 24ae 79bd 13e3 2fbc
000002c0: 82ec a5bc 9ca6 45bc 56f8 c73c 011f 8a3c
000002d0: fa95 68bd adb2 c93d 3464 0abe 4c55 e53c
000002e0: be42 0d3e 9691 a0bd 5c0f 61bd cf1c 41bd
000002f0: 6b6e 4c3c 7f79 033e 2cea b0bc 26c0 db3d
00000300: 3fda 353a 0496 023c a831 943d c857 803c
00000310: 7d24 85be 44f8 a73a 49a8 1fbd 022f 973c
00000320: 2afe 21be 6a36 453d 1d6a 32bd ee4b bbbc
00000330: b1d6 e2be be47 96be 206a 85bc 9b77 90bd
00000340: 591f babd fccc 4cbe 290b a8bd b12e b9bd
00000350: 4e9c 8dbd 00eb 263d 6b48 dd3b dd40 25bd
00000360: 3f43 cfbd 50c4 7bbb 8835 143c 6465 733e
00000370: df22 1fbb 261a 033d b731 0bbe 1609 b53d
00000380: 76bc 963b c8f2 4fbd 8d01 58bd 649f 9e3a
00000390: 79d8 49bf 4563 1f3c d82a cc3d 503c 2dbd
000003a0: 4579 f6bd 111e 55bd 9994 b53d b325 483d
000003b0: b91d 533e 218d 43bd 66df 06be 3867 e23a
000003c0: c3c0 223e e157 293e 1681 b9be 2db7 64be
000003d0: ffaf 543d fbde bbbe 3abd ab3c f9f5 a13d
000003e0: 7ded b83c 369b 903d 3018 433d 26ac 6bbd
000003f0: 9861 dcbb 1f48 80be 0ec6 203e ed20 ac3d

sequential_1/dense_0_1/MatMul f4 [128, 650]
-0.0011972826 0.0027503816 0.02687897 0.045239825 0.07152105 -0.04229505 -0.010641864 -0.050028138
-0.018195406 -0.053571213 -0.043197274 0.013253864 -0.021957101 0.027726458 0.031082224 0.06131278
0.060006652 0.020869534 -0.011546589 0.010001599 -0.03225048 -0.028297253 -0.062495284 -0.0380424
0.050116774 0.050470885 0.06907202 0.014749609 0.0033084995 0.011543445 0.016592558 -0.019105434
-0.062655 -0.0783872 0.016435143 -0.025710203 -0.012470888 -0.015642243 0.015894338 0.019965192
0.04683071 0.048784193 0.032496806 0.04360902 -0.023826463 0.036290027 -0.02038941 0.046581022
-0.0871734 -0.0038939307 0.031620156 0.011016357 0.075297385 0.06203776 0.0149211995 0.038953897
0.027337633 -0.052312158 0.01736416 -0.047204703 0.012438681 -0.027027695 -0.037625425 -0.010208005
-0.027715089 0.03604602 0.020874137 -0.006069496 0.0019680753 0.0048538554 -0.028781628 -0.042027306
-0.049471676 0.019060304 -0.023684246 -0.07123871 0.034521233 -0.0012965004 0.017641846 0.011630986
0.007826448 0.046692595 -0.013044167 0.013543692 0.004478823 -0.041685 0.046277605 -0.022254543
-0.030378597 0.0017851059 0.009308195 0.01585867 -0.0029851606 0.06476507 0.031981673 -0.012169664
-0.03777962 -0.0004816397 -0.0027641382 0.049587842 0.011951145 -0.0023737343 -0.028343275 -0.0077402187
0.061327633 0.009157534 -0.01398164 0.07034892 0.018257271 -0.05846722 -0.044216067 -0.05719788
-0.012987276 -0.03896205 -0.021700278 0.060419414 0.029135883 0.026300235 0.025021464 0.02748925
0.07591805 0.04622468 -0.07183475 0.022072002 0.010494703 0.06889491 -0.025621086 -0.03876858
0.044263482 0.027996896 0.05722686 0.05357619 -0.015571148 0.043852575 0.03745854 0.026775878
-0.0027222654 -0.021953106 0.023178838 -0.062206037 -0.035967838 0.04219118 -0.0036782448 0.028247437
0.025813563 0.0063839587 0.023361223 0.05695409 -0.033556357 -0.031620137 -0.078117914 0.030584414
-0.029314717 -0.051273786 0.051806424 0.009973866 0.04448654 -0.009099676 0.0020594876 0.012973756
0.03051058 -0.018266082 -0.02406646 -0.015794402 0.018691922 -0.053543996 -0.03299632 0.016650643
0.011042192 -0.008981196 -0.016645817 0.009681871 0.003353947 0.01149577 -0.044543665 -0.003416379
-0.037437852 0.025875939 -0.028836256 -0.07345867 0.016075222 0.010305481 0.020066902 0.014488236
-0.03971019 0.06868357 0.025529908 -0.038017124 -0.00010633016 -0.014440435 0.034976173 -0.03934077
-0.023953514 0.00084349676 0.028049689 0.03357528 -0.018634284 0.053254347 0.03789876 0.011078394
0.006478208 -0.030764813 -0.02570226 0.05495341 -0.0096481405 -0.023576962 0.06443612 0.027007304
0.024638698 -0.0034066122 0.015325005 0.024584243 0.0059778537 -0.024531197 -0.060353037 -0.02596465
0.049028985 -0.018401932 -0.03343915 0.010342346 0.026456088 0.077272944 -0.029873446 -0.021630937
0.027816013 0.017304176 0.0045556366 -0.018347928 -0.016746309 0.05653898 -0.10432997 -0.08471402
0.00026912036 0.036984615 0.046096306 -0.013780696 0.014086888 0.038038917 0.025838595 -0.046407666
-0.01341439 -0.025052615 0.044738743 -0.028370047 -0.03682616 0.04245764 -0.0227144 0.051557742
0.016504232 0.04638282 0.035291865 0.028330376 0.012106364 -0.03379523 -0.03141122 0.02996041
00000000: 23ee 9cba bf3f 343b 4931 dc3c 654d 393d
00000010: a179 923d 933d 2dbd 365b 2ebc 4eea 4cbd
00000020: 880e 95bc 7d6d 5bbd a0ef 30bd bc26 593c
00000030: 61df b3bc 9922 e33c 26a0 fe3c 1c23 7b3d
00000040: 89c9 753d 96f6 aa3c e82d 3dbc bfdd 233c
00000050: 1419 04bd a4cf e7bc 0efb 7fbd 59d2 1bbd
00000060: 3f47 4d3d 8fba 4e3d a275 8d3d 58a8 713c
00000070: 69d3 583b b820 3d3c 1eed 873c 0083 9cbc
00000080: 4451 80bd 7889 a0bd fea2 863c 349e d2bc
00000090: b252 4cbc 2924 80bc d834 823c 0b8e a33c
000000a0: 8fd1 3f3d efd1 473d 5f1b 053d 5f9f 323d
000000b0: b72f c3bc daa4 143d b107 a7bc becb 3e3d
000000c0: f887 b2bd 5131 7fbb 2384 013d f37d 343c
000000d0: 8435 9a3d 4e1b 7e3d 0c78 743c 1f8e 1f3d
000000e0: 2cf3 df3c 4645 56bd 483f 8e3c b859 41bd
000000f0: 9ccb 4b3c 2f69 ddbc 1e1d 1abd 7a3f 27bc
00000100: c10a e3bc fea4 133d 3d00 ab3c 9fe2 c6bb
00000110: d3fa 003b 170d 9f3b 73c7 ebbc d324 2cbd
00000120: d0a2 4abd 5b24 9c3c 7705 c2bc 9ae5 91bd
00000130: 2366 0d3d 56ef a9ba a285 903c e48f 3e3c
00000140: 813a 003c bc40 3f3d 34b7 55bc 5de6 5d3c
00000150: 17c3 923b e4bd 2abd 968d 3d3d 294f b6bc
00000160: 89dc f8bc 37fa e93a 6681 183c 0bea 813c
00000170: afa2 43bb 8da3 843d 37ff 023d 4563 47bc
00000180: cebe 1abd 9684 fcb9 8b26 35bb 9f1c 4b3d
00000190: bcce 433c a790 1bbb 2830 e8bc a9a1 fdbb
000001a0: af32 7b3d 7b09 163c 4013 65bc 1813 903d
000001b0: 4690 953c 537b 6fbd e81b 35bd 5348 6abd
000001c0: 95c8 54bc ac96 1fbd c8c4 b1bc 597a 773d
000001d0: 60ae ee3c 9773 d73c d0f9 cc3c 2331 e13c
000001e0: ec7a 9b3d 1756 3d3d 191e 93bd 58d0 b43c
000001f0: faf1 2b3c c618 8d3d 50e3 d1bc cdcb 1ebd
00000200: a04d 353d bf59 e53c b666 6a3d b572 5b3d
00000210: 211e 7fbc c29e 333d 206e 193d 1659 db3c
00000220: 0968 32bb 00d7 b3bc 8ce1 bd3c c2cb 7ebd
00000230: 0353 13bd a9d0 2c3d b50e 71bb 2b67 e73c
00000240: f776 d33c 8730 d13b 0960 bf3c b148 693d
00000250: 6472 09bd 1e84 01bd 49fc 9fbd 2a8c fa3c
00000260: 6b25 f0bc 7604 52bd f932 543d 6d69 233c
00000270: 8537 363d cf16 15bc 78f8 063b e08f 543c
00000280: 53f1 f93c c0a2 95bc 0627 c5bc 4363 81bc
00000290: cd1f 993c f350 5bbd 2627 07bd ee66 883c
000002a0: 4fea 343c de25 13bc cf5c 88bc b6a0 1e3c
000002b0: e5cd 5b3b c158 3c3c 6b73 36bd 54e5 5fbb
000002c0: 6f58 19bd c7f9 d33c 033a ecbc 8071 96bd
000002d0: 2fb0 833c 52d8 283c 5863 a43c 1160 6d3c
000002e0: 27a7 22bd f9a9 8c3d 1924 d13c d8b7 1bbd
000002f0: 92fd deb8 9397 6cbc 2d43 0f3d ca23 21bd
00000300: 293a c4bc 1c1e 5d3a 76c8 e53c 3c86 093d
00000310: eda6 98bc 3b21 5a3d bb3b 1b3d 2782 353c
00000320: 2647 d43b 7d06 fcbc 8c8d d2bc d416 613d
00000330: 3c13 1ebc 7924 c1bc 16f7 833d 6c3e dd3c
00000340: 18d7 c93c 7841 5fbb bb15 7b3c e564 c93c
00000350: dfe1 c33b a6f5 c8bc bf34 77bd d1b3 d4bc
00000360: 9ed2 483d a6bf 96bc 7df7 08bd f172 293c
00000370: 70ba d83c 4741 9e3d 28b9 f4bc 5d33 b1bc
00000380: 68de e33c 7dc1 8d3c 7347 953b 654e 96bc
00000390: 8e2f 89bc 6b95 673d f4aa d5bd 8b7e adbd
000003a0: b918 8d39 2e7d 173d 7bcf 3c3d 6ec8 61bc
000003b0: b1cc 663c b2ce 1b3d 76ab d33c f715 3ebd
000003c0: 08c8 5bbc 243b cdbc f93f 373d 4d68 e8bc
000003d0: 07d7 16bd 10e8 2d3d 8d13 babc 362e 533d
000003e0: e233 873c e9fb 3d3d 348e 103d 1b15 e83c
000003f0: c559 463c de6c 0abd 0da9 00bd 896f f53c

sequential_1/dense_0_1/Relu;sequential_1/dense_0_1/BiasAdd f4 [128]
-0.26065195 0.009218805 0.06308353 0.033934183 0.059812464 -0.019600619 0.060277857 -0.08039338
0.054580167 -0.36821622 -0.1305613 -0.107085496 -0.097432815 -0.011705369 -0.40968162 -0.24810883
-0.04717711 0.07458257 -0.038198385 -0.013075685 -0.12529896 0.026713563 -0.013870863 -0.1053945
-0.18179335 -0.13140605 0.031072881 -0.005672238 -0.00419848 -0.012837088 -0.06303081 0.0021887075
0.010278201 -0.21542537 0.05207738 -0.22321784 -0.12518057 -0.062496934 -0.39078352 0.066373914
0.04637748 -0.10600251 -0.027266268 0.04521701 -0.09531014 -0.09403705 -0.37118572 -0.3655954
-0.06867858 -0.14800663 -0.034145985 -0.04102582 -0.07844572 -0.27306494 -0.12963755 -0.2638356
-0.5827698 -0.05428832 -0.056574196 -0.1158022 -0.2889095 -0.013327884 -0.03819587 0.010183776
-0.5287579 -0.20420942 -0.14135633 -0.1030474 -0.23660518 -0.17083116 -0.066081904 0.02204089
-0.074357904 0.049511068 -0.15726171 -0.40675977 0.041360404 0.030814279 -0.053827398 -0.48050684
-0.14830844 -0.026058545 -0.22328843 -0.05614618 -0.09438257 -0.18700401 -0.04819689 -0.092210114
-0.12350855 -0.11250022 -0.11120151 0.09570513 0.03137816 -0.14223576 0.059181232 -0.08651812
-0.040814426 -0.14329572 0.006274903 -0.1144941 0.0666346 -0.19915113 0.027501717 -0.3405682
-0.54614544 0.017783089 -0.01751995 0.056953255 -0.008038594 0.022691889 0.14467284 -0.0046017766
-0.017177423 0.0700137 0.04553472 -0.07121016 -0.07600095 0.028550519 -0.34167287 -0.0030191187
-0.13408287 -0.06895337 0.06712555 0.11274333 -0.15922664 0.0506985 0.114897385 -0.015399093
00000000: 2c74 85be 780a 173c f031 813d 92fe 0a3d
00000010: eafd 743d 7a91 a0bc eae5 763d 49a5 a4bd
00000020: 748f 5f3d d686 bcbe ddb1 05be a44f dbbd
00000030: db8a c7bd e0c7 3fbc cac1 d1be 3e10 7ebe
00000040: c93c 41bd bfbe 983d e975 1cbd 663b 56bc
00000050: 5f4e 00be 67d6 da3c 9e42 63bc 12d9 d7bd
00000060: 0928 3abe 4f8f 06be 8e8c fe3c 2ede b9bb
00000070: 6793 89bb a652 52bc 4c16 81bd 6b70 0f3b
00000080: e665 283c 7898 5cbe 174f 553d 3893 64be
00000090: 562f 00be c9fc 7fbd c714 c8be 0cef 873d
000000a0: 50f6 3d3d d817 d9bd 825d dfbc 7935 393d
000000b0: f631 c3bd 7f96 c0bd 0e0c bebe 522f bbbe
000000c0: 5ba7 8cbd 0d8f 17be a9dc 0bbd b10a 28bd
000000d0: 26a8 a0bd 2bcf 8bbe b5bf 04be 7615 87be
000000e0: 6730 15bf 6e5d 5ebd 58ba 67bd b429 edbd
000000f0: f2eb 93be 325d 5abc 4673 1cbd dad9 263c
00000100: ae5c 07bf 461c 51be b7bf 10be 840a d3bd
00000110: a148 72be 5dee 2ebe f355 87bd 198f b43c
00000120: f548 98bd 1ecc 4a3d 3709 21be d142 d0be
00000130: 8769 293d 3a6e fc3c 1e7a 5cbd fe04 f6be
00000140: 2bde 17be bb78 d5bc b9a5 64be 89f9 65bd
00000150: a64b c1bd fb7d 3fbe 1a6a 45bd a8d8 bcbd
00000160: 0df2 fcbd 8466 e6bd 9ebd e3bd 0d01 c43d
00000170: 6386 003d 40a6 11be 0568 723d 6930 b1bd
00000180: 072d 27bd 1dbc 12be b49d cd3b e27b eabd
00000190: b977 883d 46ee 4bbe 484b e13c f55e aebe
000001a0: 30d0 0bbf d7ad 913c 0086 8fbc d147 693d
000001b0: 4fb4 03bc 57e4 b93c 1e25 143e 80ca 96bb
000001c0: abb7 8cbc 5863 8f3d 9d82 3a3d a2d6 91bd
000001d0: 63a6 9bbd c7e2 e93c bfef aebe 68dc 45bb
000001e0: 054d 09be 6d37 8dbd 1f79 893d fae5 e63d
000001f0: 4f0c 23be 3ba9 4f3d 524f eb3d 7a4c 7cbc
