src/track_test/config/trackVer16_policyVer11.tflite (tflite, 405048 bytes, 6 tensors)

arith.constant f4 [128]
00000000: 68a4 45bc d58d 213c ab21 373c 5b3c 883c
00000010: ae1c 793c b040 d83b af4f 1f3c 09a7 6c3c
00000020: 3bca 2ebd 424f ac3b 6bbd c93c 5bae 5e3d
00000030: 0d79 a63c 5465 7abb 26bd 40bd d6e3 d7bb
00000040: 9908 843c 8ef6 fc3c 91f1 093b edac ce3c
00000050: 747b a6bc fe73 b23a 666f 283c d8e0 893d
00000060: d9b2 6cbc 1ca9 7b3c ea35 5d3b 5553 83bd
00000070: a995 e63b 2d16 c7bb 7e2c b93b 8d51 8b3b
00000080: 4405 4b3d 0d7b a23c bb96 383b 4d2b cf3c
00000090: 2620 9c3c 867e d53a 88d0 1b3c f649 88bc
000000a0: ae20 52bd bb6a bebc 5476 a23c 7520 a6bc
000000b0: ba09 c63b 86f9 023d 4ee2 16bc 4d39 a93a
000000c0: 41f6 873b 1434 07bc 5d3b 1bbc a3df 31bb
000000d0: f2f4 223c 0d09 d9bb d81d 613c cfbd db3c
000000e0: de99 0f3d e5e5 eb3c 34a1 03bd f118 3cbc
000000f0: 6b5e 2ebc 6e49 fcbb 39b0 2e3c eca8 253d
00000100: d7ee 58bc ab75 e53b e195 883c 491f 043c
00000110: 90e1 fd3a f7c4 fe3c bc7a 4d3a 3c74 0a3d
00000120: 82d7 a93c a351 1cbc ef2c e73b f73f 1b3c
00000130: 7d57 b83b 565c 2eba e708 283d bef3 153c
00000140: 329e 563d 02b3 a1bb 2d5e 8c3c b58e 7fbd
00000150: 971d 933c 3a79 423b b3f1 2a3d 6446 b7bb
00000160: 3c5f 96ba 5f2b a0ba 46d5 083d a3ca ae3c
00000170: cbc0 373c 6712 863b 0875 0c3d a54c 6dbc
00000180: 4918 a53c c49c 2c3d 6c02 b43c 12dd 043c
00000190: dcfa bd3c 6f59 5b3c e697 ae3c 4eb4 ed3c
000001a0: 605e 32bc e279 cd3c 80ba 9a3c f9c4 b3bc
000001b0: 4eeb 233c 336f 0cbc a0a2 0e3d 0436 d73a
000001c0: a05c e2bb 6597 debc d1ac d238 17c3 513c
000001d0: 9315 15bc 1ece 02bc 2541 6bbc e27f 9d3c
000001e0: 6f3e 23bc 5ba9 c43c b5f9 77bc 3e4c 933c
000001f0: 33ac 6e3a cce2 123c 788d 7c3d ea15 733c
-0.012063123 0.009860476 0.011177461 0.016630342 0.015204592 0.006599508 0.009723588 0.014444121
-0.04267333 0.0052584717 0.024626454 0.054365497 0.020321393 -0.003820737 -0.047055386 -0.0065884395
0.016117381 0.030879285 0.0021048526 0.025228942 -0.020322539 0.0013614891 0.010280466 0.06732339
-0.0144469375 0.015360143 0.003375406 -0.06412379 0.007036884 -0.0060756416 0.005651056 0.004251665
0.04956557 0.019834066 0.0028166014 0.025289202 0.019058298 0.0016288317 0.009510167 -0.01663683
-0.051300697 -0.023244252 0.019831814 -0.020279149 0.00604364 0.031976245 -0.009209229 0.0012910754
0.004149229 -0.0082521625 -0.0094746025 -0.0027141355 0.009946095 -0.0066233934 0.013740025 0.026823906
0.03505885 0.028796146 -0.032136157 -0.011480556 -0.010642628 -0.007699183 0.010662132 0.0404443
-0.013240538 0.0070025525 0.01667303 0.0080641 0.0019369591 0.03109978 0.0007838418 0.033802256
0.020732645 -0.009540948 0.007054917 0.0094757 0.005625664 -0.00066513324 0.041024115 0.009152351
0.05239696 -0.0049346695 0.01713475 -0.062391955 0.017958445 0.0029674307 0.04173441 -0.005593108
-0.0011472474 -0.0012219957 0.03340652 0.02133686 0.011215399 0.004091549 0.034291297 -0.0144836055
0.020153182 0.04214169 0.021973811 0.008109348 0.023190908 0.013388022 0.021312665 0.02901664
-0.010886759 0.025082532 0.018887758 -0.02194451 0.0100048315 -0.008571434 0.03482306 0.0016419296
-0.0069080144 -0.0271718 0.0001004577 0.012802861 -0.009099382 -0.0079837125 -0.014358793 0.019226018
-0.009963616 0.024006536 -0.015135218 0.017980691 0.0009104639 0.008965205 0.061658353 0.014836768

arith.constant1 f4 [7]
00000000: 5c6f 233c f0a0 323c a695 ce3c bf88 1cbb
00000010: 0000 0000 0000 0000 0000 0000
0.009975281 0.010902628 0.025217842 -0.0023885218 0.0 0.0 0.0

arith.constant2 f4 [7, 128]
00000000: 3c31 bb3d 4c8c 89bd 0d96 d6bd 9152 043e
00000010: 6781 1cbe 6f9a d9bd 88be 47be 91d8 073d
00000020: b2c8 8cbe 1788 46be f2cd 98bd f296 75be
00000030: 6225 0dbe 4545 4dbf 9e65 0cbf ffe3 debd
00000040: 71d2 f63c c9f6 d73c 555d 61bc 26fc 36bc
00000050: 176e 30bf 7353 efbd 679d 683e 590e 493f
00000060: 2de6 69bd 366d 723e b39c fe3c c885 27bd
00000070: 295e 203b 30f3 e43a aec8 59bd aadf 1dbe
00000080: 5411 013e ac23 19be 0871 923d 7418 433d
00000090: 6e14 d43b 6246 f33d 9bd6 663d 09f6 523d
000000a0: d6cd acbe ab04 033e 489a 963e dec0 8cbd
000000b0: 42d8 13be b6aa ffbc 3dea 2b3e edbb 5d3e
000000c0: c52d 713d 9a8f b2be 8472 903d 8017 823e
000000d0: c16c 66be 9573 5ebd a9b0 ff3d 596d e1bc
000000e0: deef b33d b3e1 7d3e 6999 02bd f760 833f
000000f0: 4267 b2bc ea9e 433d fffa 2cbe b0ac a73c
00000100: 083a 143f 4635 1dbd 1890 a0bd 1ba0 b53d
00000110: 1bc3 b7bd d64a 573d 403f 1ebd 83a9 b9bd
00000120: bba4 073e e282 24bd 7c58 bb3d 883c 1c3e
00000130: 84cd 29bd 2ad0 60be f7bc a63d 3aef 01bd
00000140: 8d7c c43c 476a 48bd 5162 bcbb b2c9 fa3e
00000150: f741 e9bd 0bb4 6cbd a365 833e 8d99 46be
00000160: bb80 b5bd 3af3 ed3d 4f0d 023b c3fe 7bbc
00000170: 2594 f3bc 977d 1c3e 4f6d 84bd 2ebb 11be
00000180: 709c f13d eb35 973e de0c 65bd 1566 debd
00000190: 6ccb 0cbe f3cd debc f0b6 bb3e 0b87 b7bd
000001a0: 75ac 543d 0b99 31be b41f 473d c02a f93d
000001b0: e383 34be c2cc 97be 767c 5c3d c75e 03bd
000001c0: ed72 5d3d 7cdd 6fbe 2ee6 38be 5fa3 763d
000001d0: 3314 3bbe 118a 77be 70b5 aa3d f441 8abe
000001e0: 2b2d 5b3d 6c75 53bd 183c 5abe bb34 433f
000001f0: 6b7f 4fbe a6be b63d 4381 043f e766 9dbd
00000200: d3c4 35bc ccb7 a13d 3ebc 4c3e e034 16bd
00000210: a1c6 743e ea5c 7abe f88d dd3e 66bd 01be
00000220: 5493 da3e f935 2fbc 5aca 7bbe 6f93 253f
00000230: c2f6 623d 7f50 e1bd ba1d 503f 43fd 79be
00000240: bedd 86bd 72f9 4a3e 44e9 e63d fc97 cdbd
00000250: 5243 c8be 7d5c cfbd 23b7 f7bb 54c8 213e
00000260: f455 00bc 48bd 56bc 796a 29bd 53fa d4bd
00000270: dae9 263e 0dab cc3d b512 58be c470 1c3d
00000280: 828a 25be 5df4 14be feca 21bd 3419 8cbd
00000290: 58a8 06bc 1c52 8c3d 8af7 46be facd 383a
000002a0: 07f8 04bf f333 543e 6362 503c 3f5d 793e
000002b0: 241a 413e 22c5 12be 0d66 7bbe d466 3a3c
000002c0: 0aa5 3f3e 3752 723e aa9c 29bd aa61 21bd
000002d0: d39f 363d d026 2fbe b4b7 8e3d 410b 093d
000002e0: ca4a d13c 21af 163e 79f5 ec3d 221e f7bd
000002f0: 15e0 03ba 9f51 b0bd a5f7 99bd c9f7 3c3e
00000300: a5bc 303f ad35 303e 7f46 a63d 29a7 ff3d
00000310: 3548 3d3d ba40 c03d 068e 203e 4b54 b4be
00000320: 80f3 84bd f4c8 28be 4386 403d b317 5d3d
00000330: ecb3 adbe 568e 8e3e c5f9 db3d ef4e a83c
00000340: 2835 abbe 8897 45be 1671 16bf 4824 3a3d
00000350: efe9 4a3c 26bd 52bd 1843 ba3d b880 3f3d
00000360: 5322 87be 9281 19be 2d78 5dbd 6521 5abe
00000370: cfeb aa3d 2593 b9bd b10d 9dbd 0b1e a2be
00000380: c8fc d9bd 6403 6fbd e032 0d3e da6d 263e
00000390: 45d0 c5be 140d 95bd 31d6 eb3b 4843 5bbe
000003a0: 1cf7 143c 297c 60be b722 693e 96b7 0dbf
000003b0: c3b4 c43a 2c50 503d dcd3 4dbe 0516 7d3e
000003c0: 3251 483c b793 aa3a e120 74be 3df7 403e
000003d0: 00f1 2f3d 8651 b63d daed 0dbd 21d8 173f
000003e0: ad36 0e3d 5375 853e cc32 1fbd cb19 5fbf
000003f0: 809f 093e ac2a 2b3d b74f 21be 72d5 4ebe
0.0914025 -0.06716213 -0.10477839 0.12922122 -0.15283738 -0.10625159 -0.19506276 0.03316552
-0.27496868 -0.19387852 -0.07461156 -0.23983362 -0.13783792 -0.8018382 -0.54842556 -0.108833306
0.030129643 0.026362794 -0.013755162 -0.011168515 -0.68917984 -0.116858386 0.22716294 0.7853752
-0.05710428 0.23674473 0.03108058 -0.040899068 0.0024470186 0.0017467495 -0.0531699 -0.15417352
0.12604266 -0.14955014 0.07150465 0.047630742 0.006472162 0.11878659 0.056357007 0.05150417
-0.3375079 0.1279475 0.29414582 -0.06872724 -0.14437965 -0.031209331 0.16788574 0.21653719
0.05888154 -0.34875184 0.07053092 0.25408554 -0.22502424 -0.054309446 0.12484867 -0.027517961
0.087859854 0.24793129 -0.031884585 1.0263966 -0.021777753 0.047758974 -0.16892622 0.020468086
0.5790105 -0.038380884 -0.07839984 0.08868428 -0.0897276 0.052561603 -0.03863454 -0.09065535
0.13246433 -0.040163882 0.091477364 0.15257466 -0.04145576 -0.21954408 0.08141511 -0.031722285
0.023985172 -0.04892948 -0.005749025 0.48982006 -0.11389535 -0.05778889 0.2566348 -0.19394512
-0.08862444 0.116186574 0.0019844358 -0.015380564 -0.029733727 0.15282284 -0.064661615 -0.1423156
0.11797416 0.29533324 -0.055920474 -0.10859314 -0.13749474 -0.027197814 0.36663008 -0.08961304
0.05192228 -0.17343538 0.04861422 0.12166357 -0.17628436 -0.29648405 0.053829633 -0.03207281
0.05406468 -0.23424333 -0.18056557 0.060214397 -0.18269424 -0.24173762 0.08335388 -0.27003443
0.053509872 -0.051625654 -0.21311986 0.76252335 -0.2026345 0.08923082 0.5175974 -0.07685643
-0.01109429 0.078963846 0.19993684 -0.03667152 0.23903896 -0.24449506 0.43272376 -0.12669906
0.42690527 -0.01069402 -0.2458891 0.6467809 0.055411108 -0.110016815 0.8129536 -0.24413018
-0.06585263 0.19821718 0.11274961 -0.10038754 -0.3911386 -0.101250626 -0.0075596734 0.15799075
-0.007832993 -0.013106652 -0.041361306 -0.10399308 0.16300145 0.09993563 -0.21100886 0.03819348
-0.16166118 -0.14546342 -0.03950023 -0.068407446 -0.008218847 0.068515986 -0.19430366 0.0007049736
-0.5194096 0.20722942 0.01271877 0.24351977 0.18857628 -0.14333013 -0.24550648 0.011377055
0.18715301 0.23664175 -0.041409172 -0.03939978 0.044586014 -0.1710465 0.06968632 0.033458
0.025548358 0.14715244 0.11570258 -0.12066294 -0.0005030644 -0.08609318 -0.075179376 0.18453898
0.6903785 0.17207976 0.08118915 0.12483055 0.04621144 0.093873456 0.15679178 -0.3522056
-0.064917564 -0.16482908 0.047003042 0.05397768 -0.33926332 0.2784297 0.10740999 0.020545451
-0.33438993 -0.19296086 -0.58766305 0.045444757 0.012384876 -0.051449917 0.09094828 0.046753615
-0.26393375 -0.14990833 -0.054069687 -0.21301802 0.08345758 -0.09061269 -0.07668627 -0.31663546
-0.10643917 -0.058352843 0.13788939 0.16252843 -0.3863546 -0.07277885 0.0071971645 -0.21412385
0.009092119 -0.21922363 0.22767149 -0.55358255 0.0015007484 0.050857708 -0.20100349 0.24715431
0.01222639 0.0013013993 -0.23840667 0.18844314 0.042954445 0.08902268 -0.03465066 0.5931416
0.03472011 0.26066074 -0.038866803 -0.8714873 0.1343975 0.041788742 -0.15753065 -0.2019861

arith.constant3 f4 [128, 128]
00000000: 981b 14bc 034c 1bbd 20bb a33d df33 1c3d
00000010: 0280 4cbd 0f44 febb 9d74 dbbb 07d0 513d
00000020: 8fb4 aa3c 1965 e03c e202 2fbc 75cc cbbb
00000030: 1a2c d33c 236e 0ebd 37e3 3cbd dba5 cb3b
00000040: af13 183d 3095 babc 8ff0 dcbc de03 8cbc
00000050: a4e7 88bd 7dd6 1f3d e189 6dbd 6918 39bc
00000060: 1829 313d 25c4 cbbc d07f a63d 97e7 2dbd
00000070: ae70 8fbc 91d0 683c 1f74 a23d f2dd a7bd
00000080: e56b 693c 1793 343d 53b1 60bc 4b06 75bd
00000090: b595 2ebc ba90 3b3d 37c1 0dbd 6cd9 7cbb
000000a0: 90ae 8abd de64 c1bc af23 0d3d c7c1 473b
000000b0: ed45 573c 36d6 9cbb 0b12 0fbd b424 26bd
000000c0: 4321 8a3d c0a6 c5bc 3c77 99bc a051 a3bd
000000d0: 9ab5 4d3c 0914 f03c 08da a73b 89c7 5a3d
000000e0: d1da f5bb 6ebd 213d 6f25 0c3d bbd7 89bc
000000f0: c609 31bd 5bfc 733d f897 9fbc 9923 80bd
00000100: c761 13bc 4e3b 9abc 4618 0bbc 082b f53c
00000110: e0bd 1bba 71f9 e7bb e148 42bd 9037 b3bb
00000120: 119a 3bbd 3eee 333c a3db 34bc 2aa4 46bc
00000130: 8d1c 14bc 3b05 87bc 00b1 51bc 8a2e 29bd
00000140: 3a5c 63bc b808 9ebc 3f17 4ebd 6226 66bd
00000150: 16a0 69bd 60e3 60bc c2ca 3a3b 22d2 fdbc
00000160: 77de 6b3d b349 c9bc 5b37 29bc d193 cebc
00000170: e2f5 173d 91c6 823c a6d4 8bbc 970a 31bd
00000180: 0c04 71bd 5535 6bbd 3c5a 00bd d341 b5bd
00000190: ce01 c0bb 61cf 1dbc d623 fbbc 9965 353c
000001a0: 967b 1dbd 7f73 cbbc 3e58 52bc 957b 2cbd
000001b0: da0e 9dbd bb16 1abc 0c56 5cbd b262 813c
000001c0: 8995 b9bd 6b97 2c3d c42d e0bb f80f 3c3d
000001d0: cb4e 53bd ad8c b7ba 6675 23bd 8303 a2bd
000001e0: 4284 57bc 1249 123d 71ce 2fbd f731 953d
000001f0: 9873 463b 058a d8bc 7953 cfbb c00e c7bd
00000200: c56a be3c 925b 5dbd cd02 313d 12d8 953d
00000210: 96df 53bd 1fbd c7bb f7be e83c a444 eb3c
00000220: b797 543d c4a4 0c3e 1789 09bd dc50 59bd
00000230: 3c26 bb3c c9bf 6f3c 3c37 9f3d e923 c13d
00000240: 766c b7bd ffbc 573b bb64 87bd af91 a9bd
00000250: 0978 153c e866 cf3d 40a3 0f3d 64b4 f9bc
00000260: e3db a1bd f213 8b3b caee 0a3e e5e2 6bbd
00000270: 85c5 6b3d d438 7c3d 1fb3 d73d 7744 4b3c
00000280: b206 30be dbe6 dd3b 2de2 ebbb 5148 1f3e
00000290: eb10 a93c 53c6 91be aa68 843d 4b70 5abb
000002a0: 122b e8ba bfa0 96bc c2eb 81bb a265 733d
000002b0: 2533 0bbe cb97 a8bd 3313 ab3c a9e6 4fbd
000002c0: 1ac2 503d 265c 56bd 190b abbd ee14 baba
000002d0: 884d f03c f156 913d e43f cf3c 8d4d 72be
000002e0: e71d 4b3d 871f a73c 50fb 8cbd ffe0 14bd
000002f0: b3df d7bc 6c7f e4bc 5d50 5f3c 8a13 20bd
00000300: 9a44 963b 0528 4a3d f061 053e 22cb 933d
00000310: adfa bebc 96da 963d c8d1 a6bd 481f bc3d
00000320: aa91 63bd da1b 88bd 48f3 b43c dbee d83d
00000330: 3790 8b3d 5594 efbd 5a95 8b3c d6c9 1a3d
00000340: d3e0 04bd 168c ecbb c7c8 42bd 28c0 d8bd
00000350: 0236 1cbc 18a6 c63d b531 22bc 7e21 9a3c
00000360: b215 b1bd b274 48bb 27ed 033a b281 27be
00000370: e3c7 e439 f7fa ae3d 7a1d db3b e929 e63d
00000380: 8e23 0abd e679 17bd 803e 613d e008 2dbd
00000390: b90c 9e3c ada8 0e3c 6939 39bd 2a0f 8ebd
000003a0: f6d9 3d3c cfdb 4abd 109d f73c 5e3a 773d
000003b0: 44be ba3d c6c2 7d3d 8c2d a0bc 1212 bcbd
000003c0: 8571 b63c 5f06 8f3d 88da fabc 45cd 0fbd
000003d0: f2e9 1a3d 8289 7ebd ba73 b9bc 65ee 993d
000003e0: 8cb2 6f3d 6d18 31b8 4b54 bc3d eb0e 683d
000003f0: d5be 063d fdf9 783e efe7 81bc ecf4 45bd
-0.009039782 -0.037914287 0.07994676 0.038135406 -0.049926765 -0.007759578 -0.006697251 0.05122378
0.02083805 0.027391957 -0.01068184 -0.0062194415 0.025777865 -0.034773003 -0.046115126 0.00621484
0.037128147 -0.022776216 -0.026970176 -0.017091688 -0.06684807 0.03902291 -0.05799282 -0.011297324
0.04325208 -0.024873802 0.08129847 -0.04245719 -0.017509785 0.014209882 0.079323046 -0.081966296
0.0142469155 0.04408559 -0.013714152 -0.059820455 -0.01065581 0.04579232 -0.034608092 -0.0038581742
-0.067715764 -0.023607668 0.03445786 0.003048049 0.01313923 -0.004786278 -0.034929316 -0.040562347
0.067446254 -0.024127364 -0.018733613 -0.07974553 0.012555504 0.029306429 0.005122427 0.053412948
-0.0075028916 0.039487295 0.034215387 -0.016826501 -0.04322221 0.059566837 -0.019481644 -0.0625679
-0.00899548 -0.018827107 -0.008489674 0.029927745 -0.00059410743 -0.0070792963 -0.047432784 -0.00546927
-0.045801226 0.010982094 -0.011038694 -0.012124101 -0.00904001 -0.016481986 -0.012798548 -0.04130415
-0.013876969 -0.019291267 -0.050315138 -0.05618895 -0.057037435 -0.013726085 0.00285022 -0.030983988
0.057585206 -0.024571275 -0.010328139 -0.025216969 0.037099726 0.015963824 -0.017069172 -0.04322299
-0.05884175 -0.05742391 -0.031336054 -0.088504456 -0.00585959 -0.0096319625 -0.030656736 0.011071586
-0.03844794 -0.024835346 -0.012838421 -0.042110045 -0.07668848 -0.009404833 -0.053793 0.015794132
-0.09061725 0.04213659 -0.006841393 0.045913666 -0.051588815 -0.0014003717 -0.03990688 -0.07910826
-0.013154091 0.035714217 -0.042921487 0.07284921 0.0030281302 -0.026433 -0.0063270894 -0.0971961
0.023244271 -0.054042406 0.04321556 0.07316603 -0.0517269 -0.006095543 0.028411372 0.028719254
0.0519025 0.13734728 -0.033578005 -0.05305563 0.02284538 0.0146331275 0.07774207 0.094306774
-0.08956234 0.0032919047 -0.0661101 -0.0827974 0.009122857 0.1012705 0.035067797 -0.030481525
-0.07903268 0.004244321 0.13567653 -0.05758943 0.057561416 0.061577633 0.105322115 0.01240646
-0.17190054 0.006771905 -0.007198593 0.1555493 0.02063795 -0.28471622 0.064652756 -0.0033331092
-0.0017713031 -0.018387197 -0.003964872 0.059423096 -0.13593729 -0.08232077 0.020883178 -0.050757084
0.05096636 -0.052333973 -0.08351726 -0.0014196911 0.029333845 0.07096661 0.02529902 -0.23662396
0.049589064 0.020400776 -0.068838716 -0.036347385 -0.026351785 -0.02789279 0.01363 -0.039081134
0.0045858147 0.04935457 0.13025641 0.07216479 -0.02331289 0.07365911 -0.08145481 0.09185654
-0.055558838 -0.06645937 0.022088662 0.10592433 0.06814616 -0.11698214 0.01703899 0.037790142
-0.03244097 -0.007218848 -0.047554757 -0.10583526 -0.009534361 0.096996486 -0.009899546 0.018814798
-0.08646716 -0.0030587134 0.0005032592 -0.16358069 0.00043636476 0.085439615 0.0066868635 0.112384625
-0.033725314 -0.036981486 0.054991245 -0.042244792 0.019293176 0.008707208 -0.045220766 -0.06936486
0.0115876105 -0.049526032 0.03022626 0.060358398 0.091183215 0.06195333 -0.019552968 -0.09183134
0.022270927 0.06983637 -0.030621782 -0.03510787 0.037820764 -0.062142856 -0.02263819 0.07516173
0.058519885 -4.2222837e-05 0.09195765 0.056654852 0.032896835 0.24314113 -0.015857665 -0.04832928

sequential_1/dense_0_1/MatMul f4 [128, 650]
00000000: 440f c5bc ef51 92bc 5b23 75ba 21fa 2cbc
00000010: 60f7 bbbc 5cb0 583d 36cc 4d3d 4133 aabc
00000020: 6220 6cbc 9523 32bc 87f7 c3ba 5bc2 8b3d
00000030: d555 43be 19b3 f43a 5d59 3d3c f6dc 183d
00000040: e90c dcbb dd9a 7fbd 499b ac3d 9db1 763d
00000050: 06ab 46bb 3080 0cbd 50fb a2bc f0dc e53c
00000060: 6302 f03d 6a55 b6bd 6ac5 e03c da63 3fbc
00000070: abf6 9bbc 6ac7 28bd 9b08 83bd 3083 983d
00000080: 7a4e d4bc 8571 5bbd 6adf a63b f3ad c23c
00000090: 12d2 313d 72d4 083d 2a97 00be 22d2 07bd
000000a0: 1bfe 803c 2169 e93c 351b 56bc eb52 19bd
000000b0: b74f 893d b8b4 703d 9ca2 9c3b c1a3 073d
000000c0: 4590 12bd 3761 4d3d db67 393d 4db0 05be
000000d0: 0efb ce3c 74a8 d73c 8b4c 423a 1e0d 30bc
000000e0: 6246 5bbd e2f1 0d3d 9481 ee3c 8679 f9bc
000000f0: 96b1 083c 7124 fe3b d1b6 a13c 48da 9d3b
00000100: a2df 29be d817 00bc 21b3 2fbc c2a1 41bc
00000110: 234c 47bd c2a6 98bd 452c 5d3d 3da6 0fbd
00000120: 337c dcbc 4df0 193c d3c1 9c3b bf0c 9abc
00000130: f86f 413d dafe 0bbe 1c84 a7bc 9951 13bc
00000140: dcda 93bb 8245 08bb 813e b8bd 46e5 bf3d
00000150: e2e1 323c 62b1 4ebc f307 d73c bfad c43b
00000160: d29e 0c3d e667 823c 82ef fbbd c8c8 6dbc
00000170: 1d19 4ebc ddf9 203d 17f6 6ebc 637a b1bd
00000180: 6897 263d b054 0b3c 06bb 6c3c 860c d43c
00000190: 8ce7 293d 8b5b 8d3d 56bd 6ebc e7ba 0bbe
000001a0: b78e e83c 1702 eeba e011 d1bc cd24 b63c
000001b0: e975 60bd b82e 8c3c f635 01bd b9c6 14bd
000001c0: e00a 0fbd 926a 8abb 5b46 e03c 9e76 873d
000001d0: 0715 b6bd f468 5abc e46a 3d3c ec89 be3c
000001e0: 65ee e03c 3d77 e0bc 3de7 5bba aaa0 1f3d
000001f0: 0e50 f33c bdfa 1d3d 312e 883c 3e82 943c
00000200: 110b 4f3d f6da c0bd 0582 6a3c ffdb c93c
00000210: 9375 e6bb e254 d1bb 50f6 19bd 3bcc bb3d
00000220: ae35 923c 952f 6239 c655 053c a378 9cbc
00000230: 737a f83c ad7a f43c 1f6f 06be 7602 43bc
00000240: f74a 983b d6b3 5e3c 13bc b8bc c6f0 9cbc
00000250: 2352 e83c 5957 d7bb aa6a 56bd 0eb7 603c
00000260: 00a2 4a3c ccea 1a3d 91d0 a13c 6593 e8bd
00000270: 2638 2d3c f866 46bc 7b71 5b3b 20c7 c8bc
00000280: 21ea 33bd f211 2e3d 8edc c43b 7913 c93b
00000290: b7d9 22bb 21fa 5fbc 3272 733d db77 d7bc
000002a0: a3af d9bd d05c d8bc 008d 36bc 13ba 5a3c
000002b0: d69a ffbc 16cc 74bd 6cf9 7c3c ea51 fe3c
000002c0: f040 b6bc d986 a139 bf7d 9c3b e2de 723b
000002d0: 7a8b 1ebd 4325 bfbd 5688 b938 8425 8f3c
000002e0: cb43 1ebd ffec 053d 3f34 2ebd 8c92 ac3c
000002f0: 9c5c 173d 6b73 82bb 1e59 a83a 52ab a3bb
00000300: 9635 623d 2cef 9dbd 96a4 81bd ab29 bc3b
00000310: 7b53 33bc 6c20 373d a4a1 f03a bf2c 5dbd
00000320: cec9 823d 220e e33b ae16 5ebc 051e c53c
00000330: a548 d63c 6b1b bf3d 0621 c3bc 0780 8bbd
00000340: a48b 81bc 3544 233c 3036 b13b 7a77 2cbc
00000350: 5d92 67bd 8bf6 f73c da6d c7bc 213b 3ebc
00000360: 3c76 923c 5bea b03c acb3 d83d 2cc9 b2bd
00000370: b20a 88bd d6e2 bc3c 62d9 9abc 26c1 9abc
00000380: 4d0a 96bb 23c8 32bd 8e5b 6a3d 51ab 853c
00000390: 8b3d 47b9 56d4 003d f90c 50bd 045e 4d3d
000003a0: c416 e1bd 01ee 41bd ac3f 22bc 3af8 f7b9
000003b0: 41d1 3c3b 1665 3739 bcf5 0bbd bc08 9c3b
000003c0: 8ca1 b23c 0846 55bc 566e b13c dd45 993c
000003d0: 517e 033e ce1a c3bd ec71 b9bd 4fac 823b
000003e0: 4d36 ab3c 3e04 c93c 7f12 d3bb f570 febc
000003f0: 57b9 803d 22e9 503b ece2 f3bc ee81 083c
-0.02405513 -0.017861335 -0.00093512767 -0.010557682 -0.022945106 0.052902564 0.05024358 -0.020776393
-0.014412018 -0.010872741 -0.0014951088 0.0682418 -0.19075711 0.0018669098 0.01155695 0.0373201
-0.006715406 -0.06240355 0.08428056 0.06022798 -0.003031434 -0.034301937 -0.019895226 0.028059453
0.11719205 -0.0890301 0.027437884 -0.011681521 -0.019038519 -0.0412058 -0.06398126 0.07446897
-0.025916327 -0.053575058 0.005092551 0.023764586 0.04341323 0.03340573 -0.12557665 -0.033159383
0.015746167 0.028492512 -0.01306801 -0.037432592 0.067046575 0.058766097 0.0047801267 0.033115152
-0.035782117 0.05014154 0.04526506 -0.13055535 0.025266197 0.026325442 0.00074119185 -0.010745315
-0.05353392 0.034654506 0.029114522 -0.030453455 0.008343121 0.007755809 0.019740494 0.004817281
-0.16589215 -0.007818185 -0.01072386 -0.011818351 -0.048656594 -0.074536815 0.053997297 -0.035070647
-0.026914692 0.009395671 0.004783848 -0.018804906 0.047225922 -0.13671437 -0.020448737 -0.008991622
-0.004512174 -0.0020793383 -0.08996297 0.09369902 0.0109181125 -0.012615534 0.026248908 0.0060021575
0.03433115 0.015918683 -0.12301542 -0.014513202 -0.01257923 0.03930079 -0.01458504 -0.086659215
0.040671736 0.008504078 0.014448887 0.025884878 0.041480586 0.06902226 -0.014571508 -0.13645516
0.028388364 -0.0018158582 -0.025521219 0.022234345 -0.054799948 0.017112121 -0.0315456 -0.03632233
-0.03492248 -0.00422413 0.027377298 0.06614421 -0.088907294 -0.013330687 0.011561129 0.023259126
0.027457425 -0.027400607 -0.0008388644 0.03897158 0.029701259 0.0385692 0.016623588 0.01812851
0.050547663 -0.094167635 0.014313226 0.024641035 -0.007033059 -0.0063882926 -0.037588418 0.09169813
0.017847862 0.00021570765 0.008138126 -0.019100493 0.030331826 0.029843653 -0.13128327 -0.011902442
0.0046476084 0.013592681 -0.022550618 -0.019157778 0.028359478 -0.006571692 -0.052347817 0.013715519
0.012367725 0.037821576 0.019752773 -0.11356238 0.010572469 -0.012109511 0.0033484388 -0.024509013
-0.043924455 0.042497583 0.0060077375 0.0061363545 -0.0024849006 -0.013670475 0.059435077 -0.026302269
-0.10629203 -0.026411444 -0.011142015 0.013350028 -0.031201761 -0.059764944 0.015440326 0.031044919
-0.022247761 0.00030808782 0.0047757323 0.0037059118 -0.038707234 -0.09333279 8.846882e-05 0.017473944
-0.03863887 0.03269672 -0.042530295 0.021065973 0.036953554 -0.003981044 0.0012843942 -0.004994788
0.055226885 -0.07711634 -0.063302204 0.005742272 -0.010945196 0.044708654 0.001835872 -0.05399775
0.063861474 0.006929175 -0.013555212 0.024062166 0.026157686 0.093314014 -0.023819458 -0.06811529
-0.015813656 0.009964992 0.005408071 -0.010526532 -0.056536067 0.030268928 -0.024344373 -0.011610777
0.017878644 0.021596124 0.10581145 -0.08729777 -0.06642665 0.023057383 -0.018902484 -0.018890928
-0.0045788647 -0.043647896 0.05721622 0.016317042 -0.00019001045 0.0314525 -0.05079362 0.05013849
-0.1099067 -0.04734612 -0.009902876 -0.00047296454 0.0028811248 0.00017489897 -0.034169897 0.0047617834
0.021805547 -0.013017185 0.021659058 0.018710071 0.12841155 -0.09526597 -0.09054932 0.003987826
0.020899916 0.024538156 -0.006441414 -0.031059721 0.06285351 0.003187724 -0.02977129 0.008331759

sequential_1/dense_0_1/Relu;sequential_1/dense_0_1/BiasAdd f4 [128]
00000000: edd4 363c 262b ca39 5dd6 2fbc 1eac cc3c
00000010: 833d 16bb dfeb 26bd 8047 48bc 98f7 943c
00000020: 3f73 e5bc 7cde b3bc 3149 a83c 79ab d93a
00000030: ca33 403c 503d 6c3b cc0c 64bc c282 003d
00000040: 4994 20bb 53a6 ce3b a92e 1abd b17b 72bc
00000050: 065e 123d 76da f7bb 33f0 bf3a 8489 0b3d
00000060: 4323 93b9 c9fb b93c c0c2 393c 9c40 cf3b
00000070: c5d2 763c fd21 febc 00b6 143d eaa9 313c
00000080: a26a 573d aff1 8ebd 7a87 013c c739 833c
00000090: d032 c83c 25fe 91be b33a 32bc 761c 1d3d
000000a0: 8051 393d 7e6d e23a c8ed 543c 4760 993c
000000b0: 39c1 73bc 144f 823d 8eef 0f3d 2fbd ca3b
000000c0: 31e5 793c a4aa 303c 7cf7 cb3d 8f81 023d
000000d0: 8ea5 ba3c d095 143d c72e 1a3d 3c0e 4c3d
000000e0: 474d 153d 5d2a 413c 5fdd e6bc cda1 1bbd
000000f0: 43bf 823d c532 163b e947 f93c cb36 803c
00000100: 0917 273d ae53 443c 667c b53c ff84 773a
00000110: 2ba4 983c d6fa ec3c 8b3e a23c fd4f 7b3d
00000120: 04a1 0b3d 049a b2bc 1710 1c3d af36 b23d
00000130: 98c2 ba3b 3e49 423d 893a adbc f96c 2fbc
00000140: 67e8 253d 6b48 9c3b aac3 383c 8076 3e3d
00000150: b82a 023c 873f 643c 5e4b ad3c 75b2 1c3d
00000160: a6a1 c23c a084 593d f776 9bbc 536e c6bd
00000170: 18aa c7ba 03c5 2b3d b061 2b3d 6d5e d4bc
00000180: 538a 0bbc 7aef 8abc 5646 ca3d fbcc bbbe
00000190: bada fb3b 9d4a 53bc ba18 203d 6125 51bd
000001a0: 9004 9e3c ce91 8d3a 0d73 103c df05 9dbb
000001b0: 00e0 08bd 5958 fb3b ee18 333c ffd2 483d
000001c0: 4808 42bc 75d9 183b 4a9a e8bc 920b d43c
000001d0: ef54 f63d 14bf c63c debd 9d3b e0f1 c83c
000001e0: 1045 173a 44fc ed3c aedb 053d 9dd0 1d3c
000001f0: 9678 bebc 0bae 103d 4657 0a3d 1ae3 1f3c
0.011159164 0.0003856059 -0.0107322605 0.024984416 -0.0022924847 -0.040752288 -0.012224078 0.018184468
-0.028009055 -0.021956675 0.020542713 0.0016606889 0.0117310975 0.0036047287 -0.013919067 0.0313747
-0.0024502447 0.0063064485 -0.037642155 -0.014799998 0.0357342 -0.0075638844 0.0014643729 0.034066692
-0.00028064297 0.022703068 0.011337936 0.0063248407 0.0150649 -0.031022066 0.03630638 0.010843733
0.052591927 -0.06979691 0.007905835 0.016018761 0.024438292 -0.2851421 -0.010878253 0.03835722
0.04524374 0.0017275063 0.012996145 0.018722666 -0.014877611 0.06362739 0.035140567 0.006187103
0.015252397 0.010782871 0.09959313 0.031861838 0.02278402 0.036275685 0.037642267 0.049818262
0.03645065 0.011789885 -0.02818173 -0.037996102 0.063841365 0.0022918445 0.030429797 0.015651127
0.040793452 0.011982841 0.022154044 0.000944212 0.018632969 0.028928202 0.019805213 0.06135558
0.034089103 -0.021801956 0.038101282 0.08701836 0.005699467 0.04743313 -0.021146076 -0.010707133
0.04050484 0.004769375 0.011277119 0.04649973 0.007944755 0.013931162 0.021154102 0.038256127
0.02375872 0.053104997 -0.018977625 -0.096890114 -0.0015233187 0.041935932 0.04184121 -0.025923932
-0.008516866 -0.016959894 0.09876697 -0.36679825 0.0076859863 -0.012896207 0.03908608 -0.051061038
0.019289285 0.00108009 0.008816493 -0.0047919597 -0.033416748 0.007670444 0.010931237 0.049029347
-0.011842795 0.0023322974 -0.028393883 0.025884423 0.120279185 0.024261035 0.0048138937 0.024529397
0.0005770484 0.029050954 0.032680206 0.009632257 -0.02325086 0.03532223 0.033774637 0.009758735
