src/track_test/config/trackVer16_policyVer5.tflite (tflite, 405048 bytes, 6 tensors)

arith.constant f4 [128]
000000 e9 2f 05 bd 39 f5 00 3e 98 dd c9 bd 53 1e 89 bc
       -0.032516394 0.12593545 -0.09856719 -0.016738093
000010 cb 23 af bd e2 f5 06 be 21 82 06 bf 0d 87 61 bd
       -0.08551749 -0.13179734 -0.5254231 -0.055060435
000020 c8 86 f7 bc 98 fb 45 bd 09 5e 12 3e 13 be f1 3b
       -0.030215636 -0.04833564 0.14293684 0.007377395
000030 11 f8 9e 3d d3 21 63 bd 54 d9 00 bd 86 84 f6 bc
       0.07762159 -0.05545218 -0.03145726 -0.030092489
000040 fc 94 66 be e3 c9 71 3c 57 34 df bd a9 2b 04 3d
       -0.2251777 0.014757606 -0.10898655 0.0322682
000050 3c 1c 0d 3c 8e dd 21 bd fb 08 7c 3d e5 06 06 3d
       0.008612689 -0.03951793 0.061532002 0.03272142
000060 83 1a fc bc 0f 57 f8 bc e9 cd 09 bd 77 2c 2f bd
       -0.03077436 -0.03031495 -0.033643637 -0.042767014
000070 db d4 75 3d 81 7f 32 3e b9 da 14 be 2d e7 2e be
       0.060017448 0.17431451 -0.14536561 -0.17080374
000080 8d 4a 3e 3b 8b d4 c7 bd d3 2b ef bd 2f 48 3a bd
       0.0029036135 -0.09757336 -0.11678281 -0.045478996
000090 29 f3 1a bd 10 31 86 bd ae b5 25 3c d0 ae f7 bc
       -0.03782955 -0.06552327 0.010114117 -0.030234724
0000a0 b5 23 37 bd 5d c2 e0 bd 8a e0 77 3d d3 42 60 3d
       -0.044711787 -0.10974572 0.06051687 0.05475123
0000b0 6f d2 29 3e c9 2f a7 3d b2 e1 fa bd d8 8c 14 3d
       0.1658418 0.08163411 -0.12250079 0.03626713
0000c0 7b 11 e5 bd 25 89 63 bd 48 f3 4e bd 19 8d f6 bc
       -0.11184975 -0.055550713 -0.05052498 -0.030096577
0000d0 22 89 2e be c7 2b a7 3d e7 29 03 be 5d e6 09 3d
       -0.170445 0.08162647 -0.12808953 0.033666957
0000e0 8e 72 d2 3d c9 b7 f9 bc de eb 84 3d 37 2f 61 bd
       0.10275756 -0.030483143 0.064903006 -0.05497667
0000f0 96 4f f8 bc 13 f9 2a bc 09 17 4e bf 0a 86 81 bd
       -0.030311387 -0.0104353605 -0.805039 -0.06324394
000100 4f c7 68 3c 8c e6 6f be 02 f7 ac 3d d4 94 b1 bd
       0.014207675 -0.2342779 0.084455505 -0.08670965
000110 36 f3 cd bc f4 9e f3 3d cd 61 3a bd 88 dd 1f be
       -0.025140386 0.11895552 -0.045503426 -0.15611851
000120 48 f5 f3 bb e5 b3 01 3e 35 57 6f 3c f4 ae 9b 3d
       -0.0074450113 0.1266628 0.014608194 0.07601729
000130 e9 ee 2f bd 8d 14 7b 3d 3c 2e e4 3b e6 be 59 bb
       -0.04295245 0.061298896 0.0069635194 -0.0033225357
000140 07 69 1a 3d 54 68 55 bd 30 99 c7 3d 91 e2 06 bd
       0.037697818 -0.05210145 0.09746015 -0.032930914
000150 4c dc e8 bd 43 2a 9c bd 11 09 f6 bc ab fd f0 3c
       -0.11370143 -0.07625248 -0.03003362 0.029417833
000160 be 7b 5e 3d 94 96 9c 3b 76 81 25 3d fa 66 38 3e
       0.05431723 0.0047786925 0.040406667 0.18008032
000170 a1 00 2b 39 6e ae fe bc 5f e5 ce 3c 72 bc 25 be
       0.00016308065 -0.031089034 0.025255857 -0.16185167
000180 d7 3b 44 3d ae 0d 2e bc 82 89 fa bc 35 f6 1c bd
       0.04790863 -0.010623379 -0.030583147 -0.03832074
000190 52 7e 8b bc 72 aa 0d be ff 2f ff bc 86 82 3a 3e
       -0.017028008 -0.13834551 -0.031150816 0.18213853
0001a0 85 22 f9 bc b9 7c aa 3d d9 14 6c bd 1a 59 bd 3d
       -0.030411968 0.0832457 -0.05763707 0.092455104
0001b0 89 23 c7 bc 93 27 72 3c 31 51 e6 bb fa c6 0e bd
       -0.024308937 0.014779943 -0.0070287217 -0.034857728
0001c0 9e 11 12 be 82 a4 85 bc ed cd 21 3e 1d f7 9b bc
       -0.14264533 -0.016313795 0.1580121 -0.019038731
0001d0 65 25 81 bd d8 43 40 3c d9 37 a7 3c b7 65 0b be
       -0.063059606 0.011734925 0.020412372 -0.1361302
0001e0 78 2b 46 bf e7 11 c1 bd 48 51 49 3e 00 5e f9 bc
       -0.7741008 -0.09427243 0.19659913 -0.03044033
0001f0 52 ec 95 bc 78 d2 1a bd a2 eb 0c 3e f5 b2 c6 3d
       -0.018301163 -0.037798375 0.13761762 0.09702102

arith.constant1 f4 [7]
000000 19 5c 5c be 96 86 ae bc c6 a9 0f 3e 8a 55 f0 39
       -0.21519507 -0.02130441 0.14029607 0.000458401
000010 a8 62 88 3d 8c f2 66 bd 04 d0 9f 3d
       0.06659442 -0.056383654 0.07803348

arith.constant2 f4 [7, 128]
000000 32 77 55 3d 82 64 02 be 52 ed bc bd cd 82 2e bd
       0.052115627 -0.12733653 -0.09224953 -0.04260521
000010 cd 0d 37 be 29 f6 30 bd af c3 10 be 2a ef a8 3d
       -0.17876358 -0.043203507 -0.14137147 0.08248742
000020 ad 03 25 bd 39 96 2b bf c9 61 83 be 56 79 a9 3e
       -0.04028671 -0.67026097 -0.25660542 0.33100384
000030 35 e4 8e be b9 e0 2d 3d 2b 21 34 bd 9c a0 c6 3b
       -0.27908483 0.04245064 -0.043976944 0.0060616266
000040 03 fc c8 3d 66 b7 85 3e 46 b7 df bd ea 80 ae 3e
       0.098136924 0.26116484 -0.109236285 0.3408273
000050 15 67 07 be f3 8e 08 bd 22 79 80 3f 4a 76 94 3e
       -0.13222916 -0.033339452 1.0036967 0.28996497
000060 3a 91 a0 bd 30 a6 66 3f 40 c4 cb bb b4 f0 c3 bd
       -0.078402 0.9009733 -0.006218463 -0.09567395
000070 9b 41 2c 3f 18 1a da bd 06 b3 83 be 35 74 1d bd
       0.67287606 -0.10649508 -0.25722522 -0.0384409
000080 fa 69 d4 3e 0b 6f ec be 1a f0 eb bb 2f 19 f0 ba
       0.41487104 -0.4617847 -0.007200253 -0.0018318052
000090 30 0b f5 bd 84 10 f4 3c 58 17 47 3e 26 bb df 3c
       -0.119650245 0.029793032 0.19442499 0.027310919
0000a0 ae 88 a9 bc eb 83 7c 3e 1e 8e 8e 3f bf fb aa bb
       -0.020695057 0.24659698 1.1137121 -0.0052179988
0000b0 0d 42 b2 be 1f 1a 9a bd 81 1d 04 3c 67 89 36 3f
       -0.34816018 -0.075245135 0.008063675 0.7130341
0000c0 67 3e 32 bc 46 0a 3f bd 2a 3f 39 3d a5 bf 4c 3d
       -0.010879136 -0.046640657 0.045226254 0.049987454
0000d0 07 90 23 bd 66 38 8a 3d cc f2 84 3f 8f 6d b7 be
       -0.039932277 0.067490384 1.0386596 -0.35825774
0000e0 d7 ba b2 3e a1 b1 53 3d c7 9c 49 be 69 82 b2 bc
       0.34908172 0.051683072 -0.19688712 -0.0217907
0000f0 74 7d 2f bd 65 38 e1 3d 4e c6 c5 bf 57 16 0b 3c
       -0.04284425 0.109970845 -1.5451143 0.008489213
000100 bc e0 aa 3e 2a 92 0b bf 7c 70 ac be 94 9b 01 3f
       0.33374584 -0.54519904 -0.3367957 0.5062802
000110 cb 1a 3c 3e 67 8f c2 bd 6a 86 c0 3d c2 07 93 bd
       0.18369596 -0.09500008 0.094006374 -0.07179214
000120 42 c3 dd 3e 55 11 4c be 68 bd 15 3e ae 89 d1 3e
       0.43313032 -0.19928487 0.14623034 0.40925354
000130 ad fa 2a 3e 42 74 84 be 14 b9 e2 3e 59 b9 09 3e
       0.16697188 -0.25869948 0.44281828 0.13449611
000140 db 59 ff 3d 5f 64 6b 3c 1e ac 21 be 21 33 cc 3c
       0.124683104 0.014367192 -0.15788314 0.024926724
000150 b5 5d b6 3b e0 79 c2 be a3 cd 80 3d 9a 90 ff be
       0.00556537 -0.37983608 0.06289222 -0.4991501
000160 3d c5 8d be b0 d9 26 3f ae d9 db 3d 25 8e 29 be
       -0.27689543 0.65175915 0.107348785 -0.1655813
000170 97 c6 9c 3d ef 69 59 3d 3a fc 2a be b9 04 bf be
       0.076550655 0.05307954 -0.1669778 -0.3730829
000180 98 c9 b3 3e f6 0b d4 3b 09 fd 8b bc 88 db 45 bd
       0.3511474 0.0064711524 -0.01708843 -0.048305064
000190 b0 96 21 be 86 0e 08 bf 77 18 84 3c 5e 3f 89 be
       -0.15780139 -0.5314716 0.016124947 -0.26806158
0001a0 bf 31 04 3d c9 9e 78 be 15 31 c3 bb 88 35 19 3f
       0.032274004 -0.24279322 -0.005956779 0.5984731
0001b0 6a 91 72 be cd f6 a3 be 27 e0 ad 3d a3 10 e9 bc
       -0.23688284 -0.32024232 0.08490019 -0.028450316
0001c0 3e 3b 71 3f d8 c1 96 be 86 b4 ad be 8d 07 73 bc
       0.9423102 -0.29444766 -0.3392679 -0.014833343
0001d0 3d ef 28 3d 8b 55 cb be 88 b4 d1 3e b0 da af 3e
       0.04124378 -0.39713702 0.40958047 0.34346533
0001e0 1d f0 b8 bf 13 b1 01 be 3b f9 2b bf dd cb 71 3d
       -1.4448277 -0.12665205 -0.6717717 0.05903231
0001f0 05 d0 41 be ca 2c 67 3c 4b 39 ce 3e 2b c5 97 3f
       -0.1892701 0.0141098 0.40278086 1.1857046
000200 bf 85 4e 3c 42 48 7f 3e 42 9c 59 3d c5 af 08 bd
       0.01260513 0.24929908 0.053127535 -0.033370752
000210 79 00 ad 3e a5 fe dd bd 5c eb 75 3f 9b 6a ca 3c
       0.33789423 -0.10839585 0.96062255 0.024709037
000220 de 1c ab bd 8f 74 df 3e 18 ec 6e be 4a af 97 3e
       -0.08355115 0.43643615 -0.2333225 0.29625922
000230 1f ae ae bd 20 e4 82 bd fc ae be 3c 3d 70 69 bd
       -0.08529305 -0.06391168 0.023276798 -0.056991804
000240 c5 ad 06 bd b2 9d ec 3c e2 88 7b 3d 1b c1 72 3d
       -0.032880563 0.028883789 0.06140984 0.05926619
000250 65 50 3e bd a1 93 b4 bc df 04 9d 3c 13 1c 7f 3e
       -0.04646339 -0.022043051 0.019167362 0.24913053
000260 a9 e3 79 3c a1 4b 8b 3e 5a d0 03 bd 59 29 09 3e
       0.015252032 0.27206138 -0.03218112 0.13394679
000270 43 cc 89 3f 5a 2f 13 bf fb c8 d8 be e1 7d a8 3d
       1.0765461 -0.5749413 -0.42340836 0.082271345
000280 62 4a 87 be 85 a7 a5 be 3f 4b a6 bd 00 e4 32 bd
       -0.26423937 -0.3235437 -0.08119821 -0.04367447
000290 e1 31 04 be 7c 70 42 bc 6d d7 83 be ab 91 8c bc
       -0.12909652 -0.011867639 -0.25750294 -0.017159304
0002a0 2c 1d 6b 3c b0 d9 82 3e 04 1f 59 bd 14 4e 4b bd
       0.014350217 0.25556707 -0.053008094 -0.049635008
0002b0 2d ff 09 3f 24 36 98 be 5a f3 ec bd ae 32 ce 3d
       0.5390499 -0.29728806 -0.11569853 0.1006826
0002c0 fb d2 e0 3e 7e 13 47 3c 16 55 fb bb e7 e6 99 3c
       0.43910965 0.012150643 -0.007670055 0.01878686
0002d0 e3 b3 c8 3e 0e ec 10 be 33 fa 6e bc 2f 20 14 bd
       0.39199743 -0.14152548 -0.014586019 -0.036163505
0002e0 17 b7 a9 3c 46 ac 41 3d b4 f6 bf 3e cf 72 ba bd
       0.020717187 0.047283433 0.37492907 -0.09103929
0002f0 28 5d b5 3c 2a c4 8d bb e0 5b 12 be a5 c9 72 3d
       0.022139147 -0.004326363 -0.1429286 0.059274334
000300 7f a0 05 3f c0 45 14 3f 49 c6 ba 3d c4 25 8c 3e
       0.5219802 0.5791893 0.09119851 0.27372563
000310 39 5c 2e 3c f9 04 82 3d 6c 9f 8f 3d de cf 05 bf
       0.010642105 0.06348605 0.07012829 -0.52270305
000320 6d ef 27 bf 61 b0 91 be c2 b5 67 be 12 bb b4 3d
       -0.6559971 -0.2845488 -0.22627929 0.08824743
000330 45 38 34 be 0c e6 85 3e d8 a0 38 3e 62 27 cc 3d
       -0.1759959 0.26152074 0.18030107 0.09968449
000340 71 b3 c7 be a8 31 d5 bc b6 3e c2 3d 1e ba f9 3c
       -0.3900409 -0.026024655 0.094846174 0.030484255
000350 0f 23 e8 bc 18 32 a2 bd ec 67 87 3c 7d 9a a9 bb
       -0.02833703 -0.07919711 0.016529046 -0.005175887
000360 3c 2f 72 be 99 0e 39 bf 32 a9 40 ba cd 95 76 be
       -0.23650831 -0.722879 -0.0007349431 -0.24080582
000370 6c c4 08 be fe 91 5b bd bf 8f 09 bd bf 05 5b bf
       -0.13356179 -0.053606026 -0.033584353 -0.8555564
000380 6d c7 c2 be be d4 a8 3b 31 e1 68 3d 79 ff 21 3d
       -0.38042775 0.005152314 0.056855384 0.03955028
000390 dc 12 47 be bc 13 9b 3d b2 b9 23 ba ef 8d 83 be
       -0.19440788 0.075721234 -0.00062456273 -0.25694224
0003a0 36 53 1e bc b6 d4 ad be 90 e9 19 3e b5 fa 8f be
       -0.009663394 -0.33951348 0.15030503 -0.28120962
0003b0 0d 25 5d be c9 d5 8c 3d 98 94 fc be c9 ed 04 3e
       -0.21596165 0.06876714 -0.49332118 0.12981333
0003c0 fb 2f 28 3e 6b b9 ab 3c c2 f7 f8 ba c9 a5 8b 3d
       0.16424553 0.020962438 -0.0018994736 0.068187304
0003d0 47 b6 15 3f c3 38 53 be 91 3e 80 bc 4a 85 4b 3f
       0.5848126 -0.20627122 -0.015654834 0.7950026
0003e0 5e 19 3d bd 59 29 b5 3e 72 f8 aa 3c e2 7e 9a bc
       -0.04616677 0.35383108 0.020870421 -0.01885933
0003f0 53 76 f0 3c 77 f4 98 3d 3d 44 b3 3d 70 35 38 3d
       0.029353296 0.07468503 0.0875325 0.044972837

arith.constant3 f4 [128, 128]
000000 0d 4d f5 bc 3d d9 70 bd b2 1d 6c 3d 4d 7a 8e 3c
       -0.029943967 -0.058800925 0.057645507 0.017392302
000010 15 08 8a bd 65 1d cc bc 1e c4 1b bd c3 4e 03 3d
       -0.06739823 -0.02491636 -0.03802883 0.032057535
000020 6f 9a 2d 3c 0e 1d 10 ba d7 3f 1b bd 1d be dd bc
       0.010595902 -0.00054974935 -0.03790268 -0.027068192
000030 1f bc ad 3b fd 9b 76 bd f8 15 94 bd 2c b3 2e bc
       0.005301967 -0.060207356 -0.07230753 -0.010662835
000040 e4 00 7b 3c 4f 94 33 bd 12 fd 4f bd c2 ec 17 bd
       0.015320037 -0.04384261 -0.050778456 -0.037091024
000050 7c ee 93 bd 32 5c c9 3c 62 ac 98 bd 12 fe 03 bd
       -0.07223222 0.024580095 -0.074547544 -0.032224722
000060 ef ca 5f 3c ac e9 3f bd 70 56 82 3d 85 63 87 bd
       0.013659223 -0.046853706 0.06364143 -0.06610779
000070 06 0b 1b bd b0 b8 15 bc 86 f8 45 3d 06 b4 d5 bd
       -0.03785231 -0.009138271 0.048332714 -0.10434727
000080 71 68 7b bc 30 26 a4 3c 9f 79 0d bd 3f bd 9a bd
       -0.015344725 0.02003774 -0.034539815 -0.07555627
000090 ba 5d 1c bd 75 bb 18 3d d1 30 7c bd 38 4a ac bc
       -0.038175322 0.037288148 -0.061569992 -0.021031484
0000a0 cb 3d c6 bd 80 18 40 bd 7a 31 34 3b 0a 5a 8f bc
       -0.09679755 -0.046898365 0.002749531 -0.017498989
0000b0 d0 d3 fc bb a8 25 d1 bc 4a 69 59 bd 42 24 81 bd
       -0.0077156797 -0.025530651 -0.053078927 -0.06305744
0000c0 f7 9f 13 3d 12 03 55 bd 8c 67 22 bd 06 a9 d0 bd
       0.036041226 -0.05200488 -0.03964953 -0.10188489
0000d0 b8 7a 73 bc 64 0b 1e 3c 4b ae 10 bc 46 57 0c 3d
       -0.014860801 0.00964627 -0.008830617 0.034262918
0000e0 f4 6d 22 bd 42 b4 38 3c 9a ad ad 3c cb 75 3c bd
       -0.03965564 0.011273446 0.021200944 -0.046010774
0000f0 7b 23 72 bd 93 5f 27 3d a0 8c 28 bd d6 0a ba bd
       -0.059115868 0.04086263 -0.041149735 -0.09084098
000100 db e3 09 bd fd 27 52 bd 9e 1c fb bc b7 32 27 3b
       -0.033664566 -0.051307667 -0.030653294 0.0025512406
000110 67 64 d9 bc 57 95 02 bd 6c 5e 8a bd 68 81 fc bc
       -0.026537133 -0.031880703 -0.06756291 -0.030823424
000120 84 c9 7b bd 7d e0 ca bb ee c5 15 bd 88 87 16 bd
       -0.061471477 -0.006191312 -0.036565714 -0.036750346
000130 f4 46 1f bd 57 7f ee bc bd cc 11 bd 46 b3 48 bd
       -0.038886026 -0.029113455 -0.035595644 -0.048999093
000140 12 71 22 bd ed 28 3a bd b7 5f 95 bd 7c 88 84 bd
       -0.039658614 -0.045449186 -0.07293647 -0.06471345
000150 94 5e a0 bd 19 ae 2c bd b6 54 70 bc 6e be 52 bd
       -0.07830539 -0.04215822 -0.014668634 -0.05145114
000160 bb 5c e0 3c a7 d8 36 3c 59 e7 25 bd 8f d1 28 bd
       0.027387967 0.011160052 -0.040503833 -0.041215476
000170 47 85 ea 3b 38 95 22 bc 48 24 4b bd 2a db 98 bd
       0.007157001 -0.009923272 -0.049595147 -0.07463677
000180 20 a0 9b bd e5 7b ac bd bb 46 48 bd b7 01 60 bd
       -0.07598901 -0.084220685 -0.04889558 -0.054689135
000190 cb 7a 11 bd 7a 44 18 bd 88 17 3e bd 9e d4 83 bc
       -0.035517495 -0.03717468 -0.04640916 -0.016092595
0001a0 0d 34 81 bd 8f b4 38 bd ba 11 fb bc af 56 88 bd
       -0.06308756 -0.04509407 -0.030648101 -0.066571586
0001b0 43 c8 c9 bd be c1 16 bd 8f 7a 9a bd 24 cf be bb
       -0.0985265 -0.03680586 -0.075429074 -0.005823033
0001c0 e1 ea cd bd 8c aa dd 3c 90 82 0a bd 48 82 f6 3c
       -0.10054565 0.027058862 -0.03381592 0.03009142
0001d0 9f dd 94 bd 56 ee ec bc ac 67 83 bd 87 b8 cb bd
       -0.07268833 -0.028922241 -0.06416258 -0.09947305
0001e0 5e 07 0d bd 9e 25 84 3c 80 f3 8e bd 16 90 4e 3d
       -0.034430854 0.016131219 -0.06980038 0.05043038
0001f0 85 45 b3 bc 06 20 0b bd 29 b1 06 bd fa ae eb bd
       -0.021883735 -0.033966087 -0.032883797 -0.115079835
000200 ba 9d 59 bf 02 ea 65 bf 70 6f af 3e 9b c3 85 be
       -0.85006297 -0.8981019 0.34264708 -0.26125798
000210 ec 64 49 bd f5 53 3d bc ea 4e 96 3e 8a cb 66 be
       -0.049168512 -0.011555661 0.29357082 -0.22538581
000220 28 a8 2e 3e 94 c3 e9 bd 2c 68 6b bd 2c 3f 58 3c
       0.17056334 -0.11414257 -0.057472393 0.013198655
000230 70 4b f0 be c5 9a 74 3e 52 95 d8 be ab 2b 45 3e
       -0.46932554 0.23887165 -0.42301422 0.1925494
000240 cf a9 57 3e fb 1f 90 be 82 ba 50 3e 12 0e bf bd
       0.2106087 -0.281494 0.20383647 -0.093288556
000250 83 6f 16 bd e6 91 33 be 87 8f c8 3c a0 69 75 be
       -0.03672744 -0.17536125 0.024482502 -0.23966074
000260 30 28 5b 3e 04 ea b7 bd 6f 31 2b 3d 54 d2 84 3e
       0.21402049 -0.08980182 0.04179519 0.25941718
000270 3b a6 9c 3e 29 50 2c bd c6 6e 2a bf 5f 7e a6 3e
       0.30595574 -0.042068634 -0.66575277 0.32518288
000280 f2 8b 33 3e c6 32 a4 bd 68 21 fa bc 24 15 80 bd
       0.17533854 -0.08017497 -0.030533507 -0.06254032
000290 4b 8f dd bc c9 b3 77 bd 4c bc 8f 3e 31 a6 a5 3d
       -0.027045866 -0.06047419 0.28073347 0.08088339
0002a0 a2 64 84 3c c5 74 8d be 07 b5 30 3e 01 bb fe bd
       0.016161267 -0.2762815 0.17256556 -0.12438012
0002b0 7c b8 04 be 17 c1 59 be 87 8d 9f 3d 9d 69 4d be
       -0.12961 -0.21265064 0.07790666 -0.2005982
0002c0 dc 73 e4 3c ed 28 bb be 4c 55 03 bf 07 9b 01 3e
       0.027887277 -0.3655466 -0.5130203 0.12656794
0002d0 48 c1 12 bd fa 0e d2 3d 47 1b a1 bd f7 6b 4b 3d
       -0.03582886 0.10256763 -0.07866531 0.04966351
0002e0 3a 44 09 3e e8 be af 3d 3c a8 1a be 15 dc 24 be
       0.13404933 0.08581334 -0.15103239 -0.1609958
0002f0 cf cf 34 bf 07 80 b9 be 60 39 2d 3c ae 61 32 be
       -0.7062959 -0.3623049 0.010572761 -0.17420074
000300 1d db c5 3c 74 b6 cb be 25 0d 71 3e 97 53 bf 3c
       0.024152333 -0.39787638 0.2354017 0.023355288
000310 c6 bc 69 be bd 45 c4 3b 6d 55 70 bf ac c7 23 3e
       -0.22825918 0.0059897588 -0.9388035 0.15994138
000320 47 62 6e be fd 08 76 3e 66 73 5a bd ef f3 89 3d
       -0.23279677 0.24026866 -0.05333271 0.0673598
000330 f8 71 bc 3c 99 a1 e7 bd 33 fa c7 bc 2f 47 af bd
       0.023003563 -0.11310119 -0.024411296 -0.08558499
000340 97 65 eb 3d 35 c6 ee bd 65 fa 99 be 33 76 2f bd
       0.11493986 -0.11658899 -0.30073848 -0.042837333
000350 6d f4 c8 be 50 9c 18 bc 91 f4 90 be b9 2c cb 3c
       -0.39248982 -0.009314612 -0.2831159 0.024801599
000360 93 f3 3f be d6 96 94 be 6d b2 26 be 4a b5 19 be
       -0.1874526 -0.2902133 -0.16279002 -0.15010563
000370 27 8a 71 be 67 f9 b0 bc d4 03 0b 3e fb 83 18 3e
       -0.23587857 -0.0216033 0.13575679 0.14894097
000380 da 1b 54 3d 65 df 21 be 1b fe 77 3e 63 97 01 bf
       0.051784374 -0.15807875 0.24218027 -0.5062162
000390 b5 af bf 3b be 26 5e 3d 36 c6 9e 3c b3 df 9c bd
       0.0058498033 0.054236166 0.019381624 -0.07659855
0003a0 2c e6 6a 3d da 99 cd be fc 51 69 3e 81 d1 3a be
       0.057348415 -0.40156442 0.22785181 -0.18243982
0003b0 70 be 06 be e2 89 b1 3d 40 b4 03 3e 74 eb 99 3d
       -0.13158584 0.08668877 0.12861729 0.07515612
0003c0 e6 4c 6d 3e 37 76 1a be 21 21 c9 bc f5 c3 71 3d
       0.23173866 -0.15084158 -0.02455193 0.05902477
0003d0 7b e8 aa bd 09 89 d9 3d 71 44 80 3e b5 9a dd bd
       -0.083451234 0.106218405 0.25052217 -0.10820524
0003e0 df 8a a7 3a bf 88 40 be ba ff 4c be 72 f7 8c bc
       0.0012782476 -0.18802164 -0.20019427 -0.017207835
0003f0 78 9f fd bd ed d9 da bd 76 84 16 be fe 49 3e be
       -0.12383932 -0.10686097 -0.14698967 -0.18582913

sequential_1/dense_0_1/MatMul f4 [128, 650]
000000 41 8f 4b bd 11 0a 99 bb ff 30 17 be 6b 5b 2c 3e
       -0.049697164 -0.0046703895 -0.14764784 0.16831748
000010 e2 30 cc 3c 57 d6 03 3e 4b e5 c2 bd 4b d2 68 bc
       0.024925653 0.12874733 -0.095163904 -0.014210294
000020 94 57 70 3d 9f 70 a7 be b4 bd 3c bd 7d db 5f bc
       0.05867727 -0.3270311 -0.046079352 -0.01366317
000030 c3 70 93 3d 6d ab ab bc 5b 69 33 3d 43 1e 7e bd
       0.07199242 -0.020955766 0.043801647 -0.06204058
000040 a8 69 42 3e 41 65 57 bc 19 4c 1b 3e 0d 36 72 bd
       0.18985617 -0.013146699 0.15165748 -0.059133578
000050 ce 46 a2 3b 23 43 a5 3c d9 e7 b0 be e9 25 45 bd
       0.004952288 0.020173615 -0.34551886 -0.048131857
000060 e2 ad 2b 3d 06 49 15 3e 97 44 a7 3c a1 15 6b 3b
       0.041913874 0.14578637 0.020418448 0.0035871046
000070 c1 a6 41 bd 3a c6 12 3e a1 b1 a6 bb cd b4 09 3e
       -0.04727817 0.1433343 -0.005087093 0.13447876
000080 40 d1 ef bd 74 7b 47 bd 35 89 c7 3d 4a 97 9e be
       -0.11709833 -0.04870172 0.09742967 -0.309748
000090 9a 45 82 bc 1e b4 3d bc 2f 5b e3 3d 57 d3 ea bc
       -0.01590233 -0.011578588 0.11101376 -0.028665228
0000a0 dc 57 8f 3d 24 94 1d 3d 21 99 2e 3e 92 ae ea 3c
       0.0699918 0.038471356 0.17050602 0.028647695
0000b0 1a 17 fa 3d 56 b5 30 bc 74 82 92 3c 88 a1 c9 3d
       0.122114375 -0.010785421 0.01788447 0.09845263
0000c0 6d ca c1 be f1 aa 77 bc 2e 44 81 3d 0d b6 e5 3d
       -0.3784975 -0.015116439 0.06311832 0.11216364
0000d0 1e 11 df 3c 35 10 0a 3e 42 34 e3 bb 05 70 3f 3e
       0.027229842 0.13482745 -0.00693372 0.18695076
0000e0 c7 6f 97 3c c7 6a 9f 3d 00 30 bd bc 49 77 cd bb
       0.018485917 0.07784038 -0.023094177 -0.0062703234
0000f0 b7 d3 d4 3c 46 f7 aa be 6e fb 1b bd b2 7e 16 3d
       0.02597986 -0.3339178 -0.03808158 0.03674192
000100 6e 44 92 3d fb 6c 35 bc a7 ac b8 3d 0d b6 d3 bc
       0.07141958 -0.011073346 0.09017306 -0.025843645
000110 b0 1a 1f 3e 78 c3 60 3b 14 70 ae 3d cf 85 9d bd
       0.15537524 0.0034296196 0.08517471 -0.076915376
000120 96 53 2e bc 2b 44 82 3d dc e7 a3 be 29 4b 8a bd
       -0.010640046 0.06360658 -0.32012832 -0.06752617
000130 1e 51 c5 3d 90 55 c8 3d c4 46 e9 bc e1 3e 0d 3e
       0.096346125 0.09781945 -0.028476126 0.13793518
000140 2d 23 9d bc 4c ee 59 3e 99 9e 23 bc 43 f6 ee 3d
       -0.019181812 0.2128231 -0.009986543 0.116680644
000150 07 52 ce bc e0 68 d5 bb f2 7e 38 3d 32 5c ab be
       -0.025185598 -0.006512746 0.04504294 -0.33468777
000160 17 e8 94 bc 7a 2e bf 3d c5 1d ce 3d f5 29 f0 bc
       -0.018177075 0.093350366 0.10064272 -0.029316882
000170 54 ee f9 3d b2 b8 02 3d 75 6f 5a 3e 37 5d 14 bb
       0.122036606 0.03191442 0.2133158 -0.0022638568
000180 d1 ed 52 3d 05 87 cc bc 9a 24 a5 3c 7d bb 6a 3d
       0.05149633 -0.024966726 0.020159055 0.05730771
000190 bf 87 9c be d6 2f bb 3c 89 33 a5 3d 68 ef 97 3d
       -0.30572316 0.022849958 0.0806647 0.0741871
0001a0 4d 8c 89 3c 84 48 b9 3d 8c 94 91 bd c4 9e 75 3e
       0.016790533 0.090470344 -0.07108411 0.23986346
0001b0 81 ed 07 3d 7c 9e 64 3c 7a 66 87 bd c6 1d 0f bd
       0.033185486 0.013953801 -0.06611343 -0.034940504
0001c0 b6 7a 56 3c 18 44 b4 be 57 56 cc ba d1 26 2b 3e
       0.01309078 -0.352082 -0.0015589696 0.16714026
0001d0 91 dc f0 3d 1d b5 91 bc b5 d0 89 3d c6 0f e1 3b
       0.1176082 -0.017786557 0.06729261 0.0068683354
0001e0 f3 6f 86 3e c6 77 86 3d db 8c c3 bc fb 32 75 3b
       0.26257285 0.06565814 -0.023870876 0.003741442
0001f0 88 84 81 3d 5e 2b dc 3d d0 e7 a7 be f3 3c 07 bd
       0.063241065 0.10750459 -0.32794046 -0.03301711
000200 fa 30 bb 3d 35 d7 1b 3e c6 fa 58 3c d5 53 09 3d
       0.09140201 0.15218814 0.013243383 0.033527214
000210 7c 3b 15 bd 02 b3 63 3e 32 c5 7e 3d 62 d3 77 3d
       -0.03643368 0.22236255 0.06219978 0.060504325
000220 81 71 8b bc ff 05 16 3d b5 94 9d 3d 93 8c be be
       -0.017021896 0.036626812 0.07694379 -0.37216625
000230 ec 0c 37 bd e7 26 ad 3d 29 18 09 3e e8 53 88 bc
       -0.044690058 0.08454686 0.13388123 -0.016641572
000240 23 a1 a8 bc cb 4a f0 3a b9 4b 67 3e 21 a7 ad 3d
       -0.020584648 0.0018332837 0.2258748 0.08479143
000250 73 94 5d bc 8e 68 40 bd 6d d4 e9 bc dc 42 08 3e
       -0.013524163 -0.04697471 -0.028543675 0.13306755
000260 36 dd 9f be 95 f0 b0 bd 57 bf ac 3d 15 18 1b 3e
       -0.31223458 -0.086396374 0.08434933 0.15145905
000270 fb ae aa ba 67 39 8d bd a9 6f 99 bc 58 a2 82 3e
       -0.0013022119 -0.06895714 -0.018730002 0.25514483
000280 13 8d 75 3d 2e 38 c6 bb e5 69 20 bd 79 86 e2 3c
       0.059948992 -0.0060491776 -0.03916349 0.027652012
000290 0e d5 0b 3e 9d c4 a9 be 9e 15 5f bd 42 75 f1 3c
       0.13655493 -0.33157817 -0.054463975 0.029474858
0002a0 c9 b2 1c 3e 4f 56 5f bd 9f ea e7 bc bb d2 2b bd
       0.15302576 -0.05452567 -0.028310118 -0.041949015
0002b0 04 29 8f 3e 66 63 27 3d cc 57 27 bd 24 72 81 bc
       0.2796098 0.040866278 -0.040855214 -0.015801497
0002c0 71 e3 a6 bc 5a a5 ed 3d f8 74 ab be fe 78 81 bd
       -0.020372124 0.11603804 -0.33487678 -0.063219056
0002d0 44 ef 0f 3d d8 5b 08 3e 6a a2 d4 bc 26 8c 36 bd
       0.03514029 0.13316286 -0.025956351 -0.04456725
0002e0 5d 0a d8 bd 26 05 b7 3e 1d 14 5e 3d 2a 0d 45 bd
       -0.10548852 0.35746115 0.0542184 -0.048108257
0002f0 50 f5 35 bc c3 25 dc ba 69 ba 1c 3e e8 31 ad be
       -0.01110585 -0.0016795922 0.15305485 -0.33827138
000300 57 28 b7 bb b4 83 a6 3c 84 24 1f 3e 09 0f 52 bc
       -0.0055895257 0.020326473 0.15541273 -0.0128209675
000310 a7 4a 17 bd 57 fa 53 bd 58 10 b0 3e 44 6c 1c 3d
       -0.03693643 -0.051752415 0.3438747 0.038189188
000320 17 81 54 bc 8e f8 30 bd c6 e6 ce bc cd 80 16 3e
       -0.012970231 -0.04320579 -0.025256526 0.14697571
000330 98 26 a8 be dc 5a 56 3c ff f6 12 3e f4 0a 01 3e
       -0.32841945 0.013083186 0.14352034 0.12601835
000340 45 5a b7 bc 5a 96 05 bb 93 af 8d bd 37 b5 a6 3e
       -0.022381911 -0.0020383806 -0.06918254 0.3256013
000350 d5 93 fb 3c 76 a6 6d bd 70 cd 90 bd 76 61 99 bc
       0.03071014 -0.058020078 -0.07070434 -0.01872323
000360 ae 6f 16 3e 6e 26 ae be fa 01 da b9 14 29 e3 3d
       0.1469104 -0.34013695 -0.00041581673 0.110918194
000370 17 bd dd 3d bb a2 ef 3c c3 dd 88 bd 18 a7 e3 bd
       0.10827082 0.0292524 -0.06682923 -0.11115855
000380 79 15 a1 3e 4d a0 1f 3d e5 54 0c bd 56 88 0d bd
       0.31461695 0.038971234 -0.03426065 -0.03455385
000390 84 2c b1 bc 08 09 2f 3e 8d e3 dd be 9a 1c 47 bd
       -0.021627672 0.17093289 -0.4333767 -0.04861126
0003a0 0c 0f 9e 3d e4 63 0b 3e 1a 29 05 bb dd b8 7c bc
       0.07717714 0.13612324 -0.0020318688 -0.015424934
0003b0 45 f2 ce bd ae 49 aa 3e f9 b2 38 3d 5e d8 c1 bd
       -0.10104803 0.33259338 0.045092557 -0.09465097
0003c0 19 c0 28 bd 25 2f 37 bc 2c 1e 30 3e bf fa bd be
       -0.041198824 -0.011180674 0.1719901 -0.37105367
0003d0 6b 90 83 bc 14 1e 1d 3e 66 04 7a 3d 29 a1 14 3b
       -0.016060075 0.15343505 0.06103935 0.0022679067
0003e0 e4 ce 9f 3d 79 8a 73 bd e2 8d 9f 3e 4b 7d 40 3d
       0.07803133 -0.05945823 0.31162935 0.04699449
0003f0 d0 ac 3e bd c6 8f af bd 30 44 d2 bc ad c0 2f 3e
       -0.046551526 -0.085723445 -0.02566728 0.17163344

sequential_1/dense_0_1/Relu;sequential_1/dense_0_1/BiasAdd f4 [128]
000000 bd 57 c2 be 29 5f 6d bd 1c 36 b5 be 7b dc a3 bd
       -0.37957564 -0.05795208 -0.35392845 -0.08001038
000010 6b bc 3a bd 44 4f 0b 3d cf 90 e5 3d 66 9b dd bd
       -0.045589846 0.03401114 0.11209261 -0.108206555
000020 ea cb e7 bc 53 33 9d bd 70 3f 9f bd 1e 5d f4 be
       -0.028295476 -0.07675805 -0.077757716 -0.47727293
000030 69 e9 cf be 20 dd 12 3d a3 68 19 bf 9b 3e b2 3d
       -0.40607765 0.035855412 -0.5992529 0.08703347
000040 1e 01 0c bf eb 18 8d 3d 60 22 c4 bb c5 35 9b bc
       -0.54689205 0.06889518 -0.005985543 -0.018946538
000050 ba 6b 6a be f9 73 b9 be 91 73 e5 bd 16 5b 11 3e
       -0.22892657 -0.36221293 -0.11203683 0.14194903
000060 3c a5 1d 3d d1 77 00 3c 99 d8 58 bf 65 bb b4 be
       0.038487658 0.007841066 -0.847055 -0.3529922
000070 12 ec 18 bc e2 fc 8e 3d b7 f6 33 bf ff 67 16 bf
       -0.009333627 0.06981827 -0.7029833 -0.58752435
000080 60 7d 83 be 83 5f 8f be f2 f5 80 3d 4b 7c 50 be
       -0.2568159 -0.28002557 0.0629691 -0.20359914
000090 56 35 92 be eb 34 53 be 30 ff 6d be 89 d6 e3 be
       -0.28556317 -0.20625655 -0.23241878 -0.44499615
0000a0 58 97 d6 3d ad dc 63 bf 6a 4e 29 be ba 30 cf 3d
       0.10478085 -0.890086 -0.16533819 0.10116716
0000b0 e0 b0 6a 3d 98 45 40 bf bc 36 d2 3d 09 de ff bd
       0.057297587 -0.7510619 0.10264346 -0.12493522
0000c0 e2 91 c3 be 7b 57 8d 3d 20 46 ca bd 94 15 53 3d
       -0.38197237 0.06901451 -0.098766565 0.05153425
0000d0 ab 3b 2d 3c 98 9b 70 b9 7e e3 03 3e 9b 13 65 be
       0.010573308 -0.00022946147 0.1287975 -0.2237076
0000e0 9a f8 5e 3d 33 37 c2 3b e6 0b 8a be 22 93 f7 3c
       0.054436304 0.0059269904 -0.26962203 0.030221526
0000f0 ef d7 59 bf c3 08 83 bf bd dd 0f be 8c f9 20 bd
       -0.85095114 -1.0237049 -0.1404943 -0.039300486
000100 f8 1a 53 bd 52 9e 2b 3e 1e 34 09 be d6 22 86 3d
       -0.05153939 0.16759613 -0.13398787 0.06549613
000110 34 15 c2 bc 12 27 48 3b e0 ba 18 bd ea 43 1c bd
       -0.023691751 0.0030540866 -0.037287593 -0.038150705
000120 f2 26 41 bd a1 06 bd bd 47 f5 c3 3d 2e 15 3d bd
       -0.04715628 -0.0922978 0.09568267 -0.046162777
000130 72 f6 2f bd bb 52 ca bd cc 81 47 bb a9 a6 09 be
       -0.042959638 -0.09879061 -0.0030442355 -0.13442482
000140 ca bd 82 be 62 01 aa be 47 f0 ad 3d 3d 18 fd 3d
       -0.25535423 -0.3320418 0.08493095 0.12358139
000150 f3 68 16 be a3 75 88 bc d5 8d 7e be d2 6c 63 3d
       -0.14688472 -0.016657656 -0.24858792 0.0555237
000160 39 51 c1 bd c4 be 31 be 9a 5f c7 bd 24 01 bc be
       -0.0943932 -0.17357928 -0.097350314 -0.3671962
000170 37 98 2b be a2 eb c0 bd 22 4c e6 bc a3 29 95 3b
       -0.16757284 -0.094199434 -0.028112475 0.0045520826
000180 e0 36 6f be 61 0c 9e bd 3d 96 c5 be 29 9d 13 bf
       -0.23360777 -0.07717205 -0.38591185 -0.5766168
000190 a3 94 07 3f 85 ed f9 bd c6 46 9f bc 10 c8 3e 3d
       0.52961177 -0.122035064 -0.019442927 0.046577513
0001a0 40 49 63 be 83 c5 9d be c2 5f be 3d f4 50 a8 3c
       -0.22195911 -0.30814752 0.09295608 0.020546414
0001b0 84 e9 f5 3c 5c bb 25 bd 6e a4 82 bd f7 86 6e be
       0.030018575 -0.040461883 -0.06379019 -0.23293673
0001c0 5d f7 94 be dd cf d6 bc 7e 53 17 bf 64 e5 8a ba
       -0.29094973 -0.026222164 -0.59111774 -0.0010596928
0001d0 96 0c 9a 3c 69 a1 c7 3d 97 3f 04 be 9a 6b d3 3b
       0.01880483 0.097475834 -0.12914883 0.006452036
0001e0 5f 67 e2 be 10 d1 8e be b5 24 d0 3c 05 4d c5 bd
       -0.4421949 -0.27893877 0.025408128 -0.09633831
0001f0 b0 58 f2 bd 0f 43 bb be 2b b6 c4 3d 0b 2b 89 be
       -0.11833322 -0.365746 0.09605058 -0.26790652
